models/gnn_fold_2.pth (torch, 959138 bytes, 45 tensors)

conv_layers.0.att_src f4 [1, 4, 64]
00000000: 30b5 0ebe d0cc 6cbe a4c9 2ebd f2a8 3cbe
00000010: 6dc1 a63e b5f4 64be 13a3 09be 848d 80be
00000020: 81da 4ebe 0a3d 0d3e 7511 743d 3140 8dbe
00000030: ebc1 5c3d a296 043e bb3a 913e 7857 7dbd
00000040: 0b10 2e3e ce97 80be 00a8 1fbe 733c 74be
00000050: ded4 543e e991 51bd 15a7 00bd baf2 5c3e
00000060: 07de 62be 3bc7 84bd f4a4 01be 002f 2bbe
00000070: d9aa 8fbe 8d4f 87ba 3476 9cbe 0780 37bc
00000080: 251c 813d 1aa9 a43e 6714 773d ac58 0f3e
00000090: 233e 5c3e 7070 39be 797c e7bc 8334 60be
000000a0: 48b3 b73d a84c 873e 4013 a2be 1f58 1fbe
000000b0: bdc3 1abe 8ee5 aa3d f749 843e 0f88 7cbd
000000c0: f9e5 fcbd a117 6d3e de0a 613e 07f5 23be
000000d0: 0c58 563d a483 703e bf63 0b3e e86b 973e
000000e0: 0f5a 8dbe c6e6 7d3e 267b 913d 5b80 8abd
000000f0: 2c1e 8bbe 0104 63be 2cca aebd 5ac2 5a3e
00000100: a2e3 213e d3af 803e 72de 18be 4065 9e3e
00000110: d17d 893e 473a 8f3d 6cac a33e 8c5d 113e
00000120: e919 eb3c 35cc afbe f464 a7be 8ddc 963e
00000130: 0cfd 99bd 9f5c 00be 69cd ce3b a457 bebd
00000140: 0524 eebc e0c6 33bd d2b8 783e 46bc abbe
00000150: b31d a23e 9bab 683e 19a9 6ebe 6c18 a73e
00000160: 334c 063e d9a4 343e 7770 8e3e fc02 48be
00000170: 0825 15be bc4a 6dbe cb08 68bc 5a97 ab3e
00000180: d931 1fbe ab0f 35be f41a 5fbe 811f 66be
00000190: ed1b 873c 11ea 94bd 1d26 7ebe 82fc 833d
000001a0: 87a6 0f3e f872 333e 713a 7dbc b0b1 b4bc
000001b0: 8b9b 303d 7ca1 073e f0fd 943d f7e5 6e3e
000001c0: b039 32be bd57 0e3e 34f7 633e 0d8b 863e
000001d0: b986 5ebe df1c 7c3e 686f 163e 3e2b 9fbd
000001e0: 29f2 753e 1652 edbd b28d 613e 1329 babd
000001f0: ed78 273e 78ce bfbd e4c6 943e 609b 653e
00000200: df05 343e bed8 32be d4e4 b83e 092c 30bd
00000210: 1d8f bcbc 0aa1 883d 9799 f83c 92ab f2bd
00000220: b230 a33e ba2e 9a3d d6d5 4dbe 9b87 823e
00000230: bea0 c4bd 85b1 84bd 42a5 233e 6902 093d
00000240: c20a 93be 52f4 923e 4369 8bbe 9c3c 983e
00000250: 9a2a 233e 9d2f 123e d5d1 033e 1535 86bd
00000260: 644b d9bd 2b3b 8ebe 3216 89bd 1a85 3a3e
00000270: 1013 67be a11f 1abd 57f3 a1bd 93bf 9b3e
00000280: f124 eabd c0b8 9abe 53e3 583e 39b2 9c3c
00000290: b491 193e 1864 0ebe 5d20 5dbe 5972 243d
000002a0: 1e18 4c3e c015 5cbe 293c 723e 1f41 4cbe
000002b0: 07dc 8ebe 73b0 783e 93b7 3a3e 1e2d 04be
000002c0: 13ce 01be 2ded 5c3e 37d0 a6bd 9cfe 8d3e
000002d0: 0516 afbd ce12 9b3e 1d97 3abe 7887 1d3e
000002e0: dee2 79bd 453c 573d 7c2e 513e c053 873e
000002f0: 76ce 1fbe 41b1 23be 49cd 3f3e 266b 773d
00000300: c42a 453e 4b0b 743e 6c4f c8bd e475 6ebe
00000310: 98da 0dbe 2037 febd a598 10be d3bd 47be
00000320: 2d60 5a3e 03ba 8abc d28f 77be 6751 38be
00000330: 3d5d 713e 1d63 d4bd de5c afbe eae4 91be
00000340: 2d55 823e 3bd8 fabd 50f9 773e dcb5 94be
00000350: 6f09 29be 442d da3c 6519 4a3e dfe0 41bd
00000360: 7407 253e 5992 0e3e 8fd9 87bd 4fdd 85bc
00000370: bcf9 a13d 9869 943d bd7a c63d 8b1c 3fbe
00000380: fbcb fdbd 47f9 c03d 6a4d b13e f312 373e
00000390: 23eb 043e e812 863e e295 833d aa80 cbbd
000003a0: 2921 843e e614 7dbe 2144 82be f4ca 84bd
000003b0: 97d3 57bd 10e0 843d 4227 77be b997 773e
000003c0: 07d0 583d 5ef7 5ebe 4d87 5a3e 3365 7e3c
000003d0: 266f febd 8c4a 853e b9cd 3f3e 47f5 a23e
000003e0: 555a 6b3e d2db 65bd db66 ac3d 3d82 82be
000003f0: 8ee4 8b3d af2e e4bd 03a7 343e 2599 37be
-0.13936305 -0.23125005 -0.04267277 -0.18423823 0.32569447 -0.22358973 -0.13441114 -0.25107968
-0.2020054 0.13792816 0.05958696 -0.27588037 0.053895872 0.12948087 0.2836512 -0.061850995
0.16998307 -0.25115818 -0.1559143 -0.23851185 0.20784327 -0.05116454 -0.03140934 0.21576968
-0.22155009 -0.06483313 -0.12660581 -0.16717148 -0.28060034 -0.0010323391 -0.30558932 -0.011199958
0.06304196 0.32160264 0.06032219 0.1399867 0.21508078 -0.18109298 -0.028257595 -0.21895032
0.08969742 0.26425672 -0.31655312 -0.1556096 -0.1511373 0.08344565 0.2583768 -0.061653193
-0.12348551 0.23153545 0.21976802 -0.1601144 0.05233006 0.23487717 0.13612269 0.29574513
-0.27607772 0.24795064 0.07103567 -0.06762763 -0.27171457 -0.22169496 -0.08534655 0.21363202
0.15809491 0.25134143 -0.14928606 0.30936623 0.26853803 0.069935374 0.31967485 0.14195842
0.028698878 -0.34335485 -0.3269421 0.29465142 -0.07518968 -0.12535332 0.006311108 -0.0929406
-0.02906991 -0.043890834 0.24289253 -0.3354208 0.31663284 0.22721712 -0.23306693 0.3263582
0.13115005 0.1764101 0.2782018 -0.19532388 -0.14564908 -0.2317304 -0.014162253 0.3351391
-0.15546359 -0.17681758 -0.21787626 -0.22472955 0.016492808 -0.07271207 -0.24819227 0.064446464
0.14028369 0.17524326 -0.015455828 -0.022057384 0.043117087 0.13245195 0.07274997 0.23329912
-0.17404819 0.13900657 0.2226227 0.26277962 -0.2173108 0.24620388 0.14690936 -0.0777192
0.24018158 -0.11587922 0.22026709 -0.090898655 0.16354723 -0.09365553 0.29057992 0.22422552
0.17580365 -0.17465493 0.36112082 -0.043010745 -0.02301746 0.06671341 0.030346675 -0.11849131
0.3187309 0.07528444 -0.20101103 0.25494084 -0.09600972 -0.06479172 0.1598101 0.033449564
-0.28719145 0.28702027 -0.27228746 0.2973374 0.1593422 0.14275976 0.12873013 -0.06553093
-0.10610083 -0.27779517 -0.066936865 0.18214837 -0.22565866 -0.03762782 -0.079077415 0.30419597
-0.11432827 -0.30219078 0.21180467 0.019127952 0.14996988 -0.1390537 -0.21594377 0.040148113
0.19931075 -0.21492672 0.23655762 -0.19946717 -0.27902243 0.2428606 0.1823409 -0.12907836
-0.12676267 0.2157485 -0.081451826 0.27733314 -0.08549122 0.30287784 -0.18221708 0.15383708
-0.061007373 0.052547712 0.20427889 0.26431084 -0.15606102 -0.15985586 0.18730654 0.06040492
0.19254595 0.23832433 -0.097807735 -0.23287159 -0.13852918 -0.12412858 -0.1412073 -0.19506006
0.2132575 -0.0169344 -0.24175957 -0.17999803 0.23570724 -0.10370467 -0.3425054 -0.2849496
0.2545561 -0.12248274 0.24216199 -0.29044998 -0.16507505 0.026632912 0.1973625 -0.047333594
0.16116124 0.13923015 -0.06633293 -0.01634088 0.07908961 0.07246703 0.09691379 -0.18663232
-0.12392422 0.09422546 0.34629375 0.17878322 0.12980323 0.261863 0.06425072 -0.0993665
0.2580655 -0.24715003 -0.25442603 -0.06484023 -0.052692022 0.06488049 -0.2413607 0.24178971
0.052932765 -0.2177405 0.21340676 0.015527057 -0.12423544 0.26033437 0.1873082 0.31827757
0.22983678 -0.05611784 0.084180556 -0.2548999 0.06830703 -0.11141717 0.17641835 -0.17929514

conv_layers.0.att_dst f4 [1, 4, 64]
00000000: 218e 113e ef0b 6ebe 1ad9 2ebd 681e 56be
00000010: 2731 85be 1b0f 8e3d 6d66 16bd 5620 363e
00000020: b561 89be ee29 b13d 3b1e 71bd df32 7f3e
00000030: e867 353e fa6d 123d 7d54 383e a21e 833c
00000040: c579 33be bbd5 3e3e b59a 8cbe 6540 0fbe
00000050: e1c7 733e 3f61 2cbe c502 3c3e 5225 3e3e
00000060: 2be4 6a3d 8688 8dbe f9ba 4d3d 3888 293e
00000070: 7f53 59be dd08 02be 0f15 cabd e419 c43d
00000080: 7ec9 4abd 99ed 0cbe bea0 c2bd f9a0 2eb9
00000090: b99d 1c3e b15f 7f3d dbd1 673d 3165 49be
000000a0: 21a8 afbd 288e 47be 5f4e a03e a020 be3d
000000b0: 5776 2b3d cd86 ecbd 7c22 873e f6a4 913e
000000c0: 512f 29be e10e b23d 67c0 633e cb01 213e
000000d0: 02cf 003d 5cd2 5e3e 38c1 5dbe f762 993e
000000e0: e97c 00bb 9400 e6bd 71e9 9e3d 5af1 3e3e
000000f0: ef55 82be de15 3e3e 6fa1 0d3e e859 8b3d
00000100: d698 e63d 40f5 26be 9155 9abd 4203 4f3d
00000110: 8a8c 32bc dfbe cabb eba4 a4bc a490 823d
00000120: e603 c1bc 17b7 c23d 988a 993c 84b9 d7bd
00000130: 553b afbd d6b4 dabd b26b 66bb 5c3f 76bd
00000140: 8a9e c4b8 5e1c 49bd 5859 8bbc 997d 35bd
00000150: 31fa 863d 266f 3d3d bb6e 23bd eb3a a9bc
00000160: 0bb4 8a3d a802 05b9 1f39 b7bb ffb4 0ebd
00000170: 0eb6 64bd 17c0 ff3c 449e 07bc 5413 003c
00000180: bbe5 323d e8b1 6c3d 3ba0 b0bd 1781 a33d
00000190: b18f 9f3d f3be a03d cb6d f53b 8008 8bbc
000001a0: 7bb1 e03c 0e72 48bc f29a a93b 532d 0f3d
000001b0: 1c55 e33c 50b4 863d 0036 f73c 56ad fe3d
000001c0: e918 b93d 57df 033d e620 133e 01c0 b0bc
000001d0: 22a7 97bc 6877 2e3d 0c1c 26bd c13d fcbc
000001e0: 0d86 6bbd c3f0 37be c362 32bd 3b04 743c
000001f0: 08ad a6bd 8a19 3abc 6691 b43d e23a 4dbd
00000200: de33 44be 8e5e c7bd d3d2 e3bd 14c1 dfbd
00000210: fcbd 80bc fc3b d8bb 2dcd 463d fae6 59be
00000220: 80e5 183e bcba 37bd fdb2 86bc f3cd 923e
00000230: 1784 ec3d c173 85bd de48 0b3e e55d 903a
00000240: ab12 a4bd 8a0d 823e 11d3 713c a5cb 703e
00000250: c7bb 933d 0d5c d23d 5ef7 1f3e 1479 52bc
00000260: b9e3 6a3d b517 6b3e b646 57bd cde6 f73d
00000270: d85a 8ebe a913 193d 1b3f ac3e abc6 e93d
00000280: 4df2 aa3d 9ede 913e 2389 373e 046c 4ebe
00000290: 817b a5be 5dcb 7f3e ae15 27be 38b4 a6be
000002a0: f13a f7bd 8e0f dfbd 76a5 0c3e ebfa 24bd
000002b0: 830f 4b3d 2059 dbbd a87f 58bc 3185 483e
000002c0: 6633 4e3e 5369 0fbe 8237 17be 0f38 07be
000002d0: b22c 943e f403 3d3e 5e7a 103d 6998 b23d
000002e0: 4a3b fabd aaf8 1d3d 3018 943e 15b4 5cbe
000002f0: 38f8 013e d538 6fbd c6ce 70be 5c43 4b3e
00000300: 4748 4bb8 6c22 683c 9d7c c23b 73f4 2abd
00000310: dbec 98bc 7f94 88bc e27d 553b 81d1 28bd
00000320: 532a a5bc b277 453c fdc8 c43b 6170 a8bb
00000330: bcd2 413c 91f3 153c 2699 26bd 8c94 c23c
00000340: ade9 6fbc 9376 8dbc 37dd 5bbc e188 3a3c
00000350: 8ed3 d2bc 94bf b1bc 39eb b3bb d7ca 093d
00000360: a0bf 7a3b 7e26 52bd 5e83 8cbc 97a7 3ebc
00000370: 744b 6c3c 68d3 0d3c 4a40 9ebd 68ae ff3c
00000380: 9108 7bbd ced7 d63c 2660 883b ad08 813d
00000390: ffc5 29bb d58f b2bc f519 97bc be24 4ebc
000003a0: 577c d43c f055 c0bc 188b 2ebb 11df 52bd
000003b0: 079e 193d 1e2e 503d fc6b 52bd bd7d 2bbd
000003c0: f62c a33c 04c3 abbd 81bc 1c3c ca38 bdb9
000003d0: 4585 80bb 4b1f a03c 44eb b8bc 46d9 debc
000003e0: 4776 393c 8568 acbc 583b 5dbd 9a33 3d3c
000003f0: 467a 473c dd80 cabc 4632 dd3c cfa7 84bc
0.14214374 -0.2324674 -0.042687513 -0.20910037 -0.26014063 0.06936475 -0.036718775 0.17785773
-0.26832357 0.086505756 -0.05886672 0.2492175 0.17715418 0.035749413 0.1800098 0.016005818
-0.1752692 0.18636219 -0.27461782 -0.13989408 0.23806717 -0.16833971 0.18360431 0.18568924
0.057346504 -0.27643222 0.05022714 0.1655587 -0.21223257 -0.12698694 -0.09867298 0.09575251
-0.049508564 -0.13762511 -0.095033154 -0.000166539 0.15294541 0.062347118 0.05659662 -0.19667508
-0.0857699 -0.19487822 0.31309792 0.092835665 0.041860905 -0.11549149 0.26393497 0.28446168
-0.16521956 0.08694244 0.22241364 0.1572334 0.031447418 0.21759933 -0.21655738 0.29958317
-0.0019605702 -0.11230579 0.07759369 0.18646756 -0.25456187 0.18563029 0.13831113 0.06804258
0.1125962 -0.16304493 -0.07535852 0.050540216 -0.010897765 -0.0061873044 -0.02009817 0.06375244
-0.02356143 0.09507578 0.018742844 -0.10533431 -0.085562386 -0.10679023 -0.0035159406 -0.060119018
-9.3755385e-05 -0.04909932 -0.017010376 -0.044309232 0.06590689 0.046248578 -0.039900523 -0.020657977
0.06772622 -0.00012684858 -0.005591526 -0.03484058 -0.055837683 0.031219525 -0.00827748 0.007817108
0.04367612 0.057786852 -0.086243115 0.07983606 0.07791079 0.07848921 0.007489895 -0.016971827
0.02742838 -0.012234224 0.0051759416 0.034955334 0.027750544 0.06577361 0.030177116 0.12435405
0.09037954 0.032195415 0.14368019 -0.02157593 -0.018512312 0.042594343 -0.04055409 -0.030791165
-0.057500888 -0.17962937 -0.043551218 0.014893587 -0.08138472 -0.011358628 0.08816795 -0.050104983
-0.19160411 -0.09734832 -0.11124196 -0.109254986 -0.015715592 -0.0065989476 0.048535515 -0.21279517
0.14931297 -0.04485582 -0.01644277 0.28672752 0.11548632 -0.06516219 0.13602015 0.0011014311
-0.08011373 0.25400954 0.014759795 0.23515184 0.0721355 0.102714635 0.15621707 -0.01284625
0.05734608 0.22958262 -0.05255767 0.12104569 -0.27803683 0.037372265 0.33641896 0.11414846
0.083469965 0.28490156 0.17923407 -0.20158392 -0.32320789 0.2497992 -0.16316864 -0.3255937
-0.12071789 -0.10891639 0.13734993 -0.040278357 0.04957534 -0.107103586 -0.013214029 0.19582058
0.20136794 -0.14005022 -0.14767268 -0.13204978 0.2894035 0.18458539 0.03527295 0.08720476
-0.1221834 0.038567223 0.28924704 -0.21553071 0.12692344 -0.05840381 -0.23516378 0.19849914
-4.8466285e-05 0.014168363 0.005935265 -0.04173703 -0.018667629 -0.016672371 0.0032576253 -0.041215423
-0.020161783 0.012052463 0.006005405 -0.0051403497 0.011830028 0.009152309 -0.040673397 0.023752473
-0.014643115 -0.017268455 -0.013419441 0.011385174 -0.025735643 -0.021697797 -0.005490687 0.03364071
0.003826119 -0.05130624 -0.017152485 -0.011636636 0.014422286 0.00865636 -0.07727106 0.031211093
-0.061287466 0.02622595 0.0041618524 0.06300483 -0.0025905368 -0.0217971 -0.018444994 -0.012582002
0.025938196 -0.023478478 -0.00266332 -0.051482264 0.037504222 0.05082523 -0.051372513 -0.04186796
0.0199189 -0.08386806 0.009566427 -0.000360912 -0.003922137 0.019546172 -0.02257312 -0.027203213
0.011319703 -0.021045933 -0.054011673 0.011547947 0.012175148 -0.02471965 0.027001511 -0.016193299

conv_layers.0.bias f4 [256]
00000000: 4c2c 033c 584d ca3a fd37 253d 32cd ac3c
00000010: 8adc 6a3c 9203 643c 68a9 313c 43d7 3abb
00000020: de9c b23b 7987 643c 09fd 6e3c 09b9 eebc
00000030: 11ef f0bb a67e 533c ef6c cf3b 9ba1 f33c
00000040: 849b 2a3c 2f64 efbc 1c91 1e39 7f27 073c
00000050: 9dd8 56bb 44d3 ecbb 8cc7 6b3a 72ae ac3b
00000060: 2141 b7bc 3f19 2abc 891f 3b3b 038f aa3b
00000070: 3722 763c b226 153c c18a d83a 3c8b 95b9
00000080: 2ed8 ab3c 7ec2 98ba 308b 27bc 836e 223d
00000090: b8f4 a63a f59c 103c cea8 24bc 950e 7cbc
000000a0: 64ce 303d 24e1 283b 5b27 1cbc 5864 9c3c
000000b0: de27 25bb 7d55 8ebb ced5 f13c 1c2a b83b
000000c0: d5f2 9bbb 4da2 9b3c e8ea 1b3c 5ecc 8e3c
000000d0: fb4f 063d 35e9 86bb a1cc a7bc f3a3 943c
000000e0: 6364 7aba c4a4 273c 5255 23bc cf09 473c
000000f0: 36e1 c6bb 495a 92bc 68cd cb3a 2b20 a6bc
00000100: 586e ee3c e85e 1b3b 8cec 973b 60aa 49bb
00000110: 4478 2dbb ddf0 1d3c 9780 ce3b 4483 463b
00000120: 2f84 aa3b 747f 00bc 1632 3bbc f36c e13b
00000130: 3fd6 20ba 8af9 a63c 4841 f7bb 17ff 1bb9
00000140: 6d98 ed3c 11eb 07bc 5ff8 dfbc 0322 0c3c
00000150: 990c 52bb f7ad 023c b7fe afbb 63ed ecba
00000160: 10d2 b0bc cef6 333b 8a17 05ba 0f56 263b
00000170: 061a 6dbb 9d94 04bd c45b 6c3c a62e 2b3c
00000180: a559 1abc faa5 99bc 1ab5 8abc d0a4 ee3a
00000190: 8258 0bbb d112 583c 7018 aa3b f725 60bc
000001a0: 84d9 963c 286a 483d 09f1 923c c105 e2bb
000001b0: 0dcc 5b3d d53b 01bc 3389 043d cb47 b0bb
000001c0: 23d7 f13b 9669 daba 4bad 873b f523 6dba
000001d0: 48fd bdbb 34da 803b 36b1 8b3a e954 0c3b
000001e0: 9d87 04bc 70df 47bb 56b9 c1ba c19c 0abc
000001f0: 3e06 4e3c c4d4 54bb e4b6 43bb ee33 4d3b
00000200: 7330 c1bc 92ed 7b3a 5381 2a3c 6fab 0abd
00000210: f88d fb3c 3a00 b7bb bccd 8bbb 5374 c1ba
00000220: 2c8a 96bc 506c 323a b7df d63c 7bb2 983c
00000230: 9c40 b5bb 1d91 09bb b052 3dbc bdae 63bc
00000240: 9113 083c 211d 1e3b 6f69 6ebb 1523 b7bc
00000250: 90b8 9fbc a78e d93c e6c7 063c 5ec2 f43c
00000260: 8d03 553c df29 9d3a a9f8 343b 44f8 683b
00000270: 3541 8f3c e236 24bc 4249 ff3c 35c1 01bd
00000280: 00e8 2ab8 64fb 5dbc 71b2 1a3c 9d22 c0bc
00000290: b87d c13c e565 c33b 3a5a 3ebc 7186 1d3c
000002a0: d549 b63c 68e4 9bbb a164 0ebc 31dc 893c
000002b0: 655e abba 4916 d83b c93c 1dbc de41 ec3c
000002c0: b1c1 333c 57e8 163c 6340 453c 4bcc 33bc
000002d0: e299 b43b d2fb 803c e4ef 3f3a 5d7a c43b
000002e0: ad62 103d 23d8 30bc 66ab e03b 24f5 b13c
000002f0: d062 58bb bc7d 50bc 02fd 6b3c 664c d3bc
00000300: e730 31bc beb5 4fbc 789f 913b b3ec a4bc
00000310: 5718 82bc b487 003b 4d74 93bc 23fa 9abb
00000320: 1222 cd3b 8600 b63b e6fd a93b c338 df3c
00000330: 16a3 953b f598 f33a 2ac9 db3b 9b84 f6bb
00000340: 47c9 683b 8104 10bc 1947 643d 4e10 6a3c
00000350: e5f6 9eba 5c66 2d3c 347b bcbb d285 2f3c
00000360: 9e52 8b3b f4b7 17bc 77e0 acb9 8a92 c0bb
00000370: 6cb9 c4bc c6b1 c8bb 3e5e ba3b d700 2a3c
00000380: e809 c83c 2bb3 323c 3e5c 53bc 1ff4 b8ba
00000390: d916 9c3b e02c 983c e9ba 35bc 833f df3c
000003a0: e135 763b a784 e1ba ec1a 8e3c eb3d a73b
000003b0: 5817 edbb af70 debb 1549 1f3d ce54 9a3a
000003c0: 8864 e9bb 1d87 3f3b 7db3 22bc a955 ad3a
000003d0: 36ae c33b 860d 813c 0f39 a4ba 37d0 a0bc
000003e0: a779 c0bc 78ff 0b3c d74d 6fbc 4a4a a3ba
000003f0: 23a9 753c 1537 183b e663 c63c 7806 89bc
0.008006167 0.0015434427 0.040336598 0.021093938 0.014334807 0.013916867 0.010843612 -0.0028509654
0.005450829 0.013948315 0.0145866955 -0.029140966 -0.0073527177 0.012908613 0.0063301246 0.029740145
0.010413054 -0.029222576 0.00015122112 0.008249163 -0.003278292 -0.0072273333 0.00089942734 0.005269819
-0.022369923 -0.010381996 0.0028552732 0.0052050366 0.015022806 0.009103464 0.0016520844 -0.00028523232
0.020977106 -0.0011654643 -0.010226056 0.039656173 0.0012737727 0.008826484 -0.010050012 -0.015384336
0.04316558 0.002576896 -0.009530867 0.019090816 -0.0025200765 -0.004343687 0.029520895 0.005620254
-0.0047591724 0.01899829 0.009516455 0.017431434 0.03279112 -0.004117156 -0.020483317 0.018144583
-0.0009551702 0.010232154 -0.009969072 0.012148335 -0.0060693277 -0.017865317 0.0015548887 -0.02027901
0.02910535 0.0023707692 0.004636353 -0.0030771717 -0.002646939 0.009639946 0.00630195 0.0030290643
0.005203746 -0.007842887 -0.011425516 0.006879443 -0.0006135441 0.020382661 -0.007545624 -0.0001487698
0.029003346 -0.00829579 -0.027340112 0.008553031 -0.0032050966 0.007976047 -0.0053709405 -0.0018076118
-0.02158454 0.002746034 -0.0005077055 0.0025380885 -0.0036178841 -0.03236829 0.0144261755 0.010448134
-0.009420787 -0.018755902 -0.01693206 0.0018207077 -0.0021262472 0.01318808 0.0051909015 -0.0136809265
0.018414266 0.048929363 0.0179372 -0.0068976586 0.053661395 -0.0078878 0.032357406 -0.005379652
0.0073803826 -0.0016663547 0.004140531 -0.00090461905 -0.0057980157 0.003932262 0.0010657671 0.0021412915
-0.008088973 -0.003049817 -0.0014779966 -0.008460225 0.01257473 -0.003247545 -0.002986365 0.003131147
-0.023582673 0.0009610291 0.01040681 -0.033854898 0.030707344 -0.005584744 -0.004266469 -0.0014759399
-0.018376432 0.0006806301 0.026229722 0.018639794 -0.0055313837 -0.0020991035 -0.011555359 -0.013896641
0.008305446 0.002412625 -0.0036378761 -0.022355596 -0.019497186 0.02655728 0.00822637 0.029877838
0.013001335 0.0011990628 0.0027614033 0.0035548368 0.017487148 -0.010022851 0.031162862 -0.031678397
-4.0747225e-05 -0.013548706 0.009441958 -0.023454005 0.023619518 0.0059630745 -0.011618191 0.009614573
0.022252003 -0.0047574528 -0.008690984 0.016828628 -0.0013074396 0.0065944535 -0.009597012 0.028840002
0.010971473 0.009210668 0.012039277 -0.010974 0.0055115083 0.015745077 0.0007321818 0.005996032
0.035250355 -0.0107937185 0.00685637 0.021723337 -0.0033017881 -0.01272529 0.0144035835 -0.025793266
-0.010814882 -0.012677608 0.004444059 -0.020132398 -0.015880747 0.0019612135 -0.017999792 -0.0047295257
0.006260165 0.0055542616 0.0051877378 0.027248746 0.0045665605 0.0018585013 0.0067073302 -0.007523132
0.0035520361 -0.008790136 0.055731867 0.014286114 -0.0012128024 0.010583486 -0.0057519916 0.010713058
0.004251792 -0.009260166 -0.00032973636 -0.005876844 -0.024014197 -0.006124708 0.005687504 0.010376177
0.024418786 0.010906975 -0.01290041 -0.001411084 0.004763466 0.018576086 -0.011091926 0.027251964
0.0037568735 -0.0017205671 0.017346822 0.0051038167 -0.007235449 -0.0067883353 0.038888056 0.0011774541
-0.00712258 0.002922482 -0.009930489 0.0013224381 0.0059716953 0.015753519 -0.0012529212 -0.019630535
-0.023495508 0.008544795 -0.014605961 -0.0012458053 0.014993939 0.002322619 0.024217557 -0.016726717

conv_layers.0.lin.weight f4 [256, 22]
00000000: 1d23 c03d 1d67 c6bc 4c10 3abd fa6c bbbd
00000010: a66f 13be cdef e43d e4de 643e 6519 0a3d
00000020: ee37 233e e5bc c43c ae8d 97bd ace4 0fbe
00000030: 8ce0 173e 1a5f dbbd 20b6 0d3e f884 8f1d
00000040: c197 4abd 1cb1 b63d b248 b33c de63 11be
00000050: 7a5e 133d f0cb 32be 193a 043e 32bf 92bd
00000060: 683d a63d 84b4 e53d 3a21 94bd f741 42be
00000070: 8bcc 32bc a94a a33d 7816 1b3e de5e a63d
00000080: 257d 723d e988 92be aa5e 0d3d 04ae 7abe
00000090: 292b 073e 8af0 66a2 1693 8fbd a66c c8bc
000000a0: 23ca 3bbd 96cc c1bd 0da6 2dbe 81fe b33d
000000b0: e876 9d3d eea8 e5bd 7d17 a8ba dd55 3fbc
000000c0: 33bb 0a3d b3fe 63be 77d7 e5bc 73fe e3bc
000000d0: bad5 c73d 7e87 1e3e 8139 c8bd 37f7 81bc
000000e0: 7c79 2a3c 2894 31be 8345 1abe 4bba aa99
000000f0: 73fc b9bd 0c71 d03d c9d8 613e 46d0 0e3e
00000100: 2cc3 f43d 035b 96ba 8cb6 f2bc fadb cc3c
00000110: 3bf4 dfbb 62ef cebd cfb0 5e3d ffac 57be
00000120: 6c6f dabd de8f 5a3b e203 ec3d cfc8 ea3d
00000130: 498c 31bc 7eae 91bd 12ae 39be 54a8 383d
00000140: dbc5 c23d 974a 331c 206c bbbd ea09 d53d
00000150: 7959 143d 26b1 803d efe8 1ebe d8d1 54be
00000160: f240 553d 877e 323e ffe8 30bb cc93 983d
00000170: cf12 34bd 97ea 1e3e 8680 3cbd c4cf adbd
00000180: bc9c 34be 8cda 77bc f860 773c 0e9d ba3d
00000190: a494 eebd d3e0 e43d 21a5 58be 04d3 0c9f
000001a0: cbd3 2abe 3f2c 96bd 64fb 5bbe c374 c33d
000001b0: 938e ab3d ff18 243e 717e 093e a8ef ac3d
000001c0: 7674 4a3e ac8e ab3d 3000 dfbd 0ecc 09be
000001d0: c42a d8bc b7d6 ccbd 563a 813e ddc2 7cbc
000001e0: e695 40be 816f 02be 322e d33d 6012 1fbe
000001f0: 0fb9 babc 1026 d19b 04c8 113d 595e 953d
00000200: 8608 383d bbc4 ef3d e3ba 75bd d7b1 0cbd
00000210: 363a 923d 5dc0 123c c6d6 a2bd ecad 2cbe
00000220: ad4e f63c 6a84 dfbc 5c57 e33d 84f3 e3bd
00000230: 98f3 233e 8276 6abd efeb f13c 540a 88bd
00000240: 788a 283e 452c d93c 588f 413e 1b68 b220
00000250: 4906 753d 23b3 a2bd 9127 74bd a3b0 ecbd
00000260: a170 273d c21a 123e 486a b03c d285 18bd
00000270: 7185 963c 7ade a1bc 2553 543d 7c75 7abe
00000280: 910e 1e3e ec31 563d 6dca 1e3e 9ecf 2e3d
00000290: 64f7 9a3d 0522 4dbe 6d81 1b3d 2d09 10be
000002a0: d956 bebd 6c7f d51b 39be f7bd 3d99 e7bb
000002b0: fe80 263e a660 e3bc 3f45 dbbd 488e 99be
000002c0: 44aa 31be 2d9f 5fbd 85e1 003c 9de9 a83d
000002d0: 2628 d63c 8da5 17be 2ea3 bfbc 9fc8 cf3d
000002e0: e76f 483e f820 44bd 9a05 35be b9ef 53be
000002f0: e27f cdbd d3f2 ca3c cddf 9e3d 6a19 c09c
00000300: 0ed5 4ebc 16ee 673d b0fc 10be 5e30 a2bc
00000310: 11ea e2bc dfe0 2f3d 064f f6bd 4a44 d93d
00000320: 8d36 91bd 913a 0a3d 0b8e c63c 5627 24bd
00000330: 14e9 ecbc 6e1f bdbd d463 c93c 1fb8 2ebe
00000340: bb78 113e bbcb af3d 0b46 8d3d 3357 9c3c
00000350: d2ec 2d3e b7d6 52a3 02e1 98bd 4fdb 383d
00000360: e08a 58bd 2321 f43d 9fe1 1d3e 4a0b 943c
00000370: 3ad8 273d 38e7 4cbd e3b4 c5bd 2c6f fb3d
00000380: caef afbc 8532 51bd 8bd9 423d 9c7e 85bd
00000390: fa57 29be a157 003d e15d 3abd 11cf 213d
000003a0: e5db 94bc 3bd7 63bc c41e a63d f289 841b
000003b0: 5a45 573c 2842 4c3d 482a 2d3e 035a 283c
000003c0: f219 11be 66f9 713e d961 0f3e b3f0 0d3d
000003d0: 243c 4f3d 36c0 573d ff49 073e 404b 143e
000003e0: f58c 0f3d d71a 3dbe fcdb 1d3e 6492 25be
000003f0: 122a 373d eb88 03be e693 60be d16b eb3d
0.09381697 -0.02421909 -0.0454257 -0.09151645 -0.14398059 0.11178551 0.22350651 0.033715624
0.15939304 0.024015853 -0.0740007 -0.14052075 0.14831752 -0.107114986 0.13839006 3.798927e-21
-0.04946113 0.089205 0.02188525 -0.14198253 0.03597877 -0.17460608 0.12912787 -0.07165374
0.08117181 0.11216071 -0.072329 -0.18970476 -0.010913025 0.07973225 0.1514529 0.08123563
0.05920138 -0.2862008 0.034514107 -0.24480444 0.13200058 -3.1298153e-18 -0.07010476 -0.02446587
-0.04584707 -0.0946285 -0.16957875 0.08788777 0.07688695 -0.112138614 -0.0012824383 -0.011678186
0.033869933 -0.22265129 -0.028056843 -0.027831292 0.09757562 0.15481374 -0.09776593 -0.015864952
0.010404941 -0.17341673 -0.15065579 -1.7652831e-23 -0.09081354 0.10177812 0.22055353 0.13946638
0.119512886 -0.0011471215 -0.02962806 0.025007237 -0.0068345345 -0.101042524 0.054367837 -0.21062087
-0.10665783 0.0033349912 0.11524178 0.114640824 -0.010836669 -0.0711336 -0.18132809 0.045082405
0.09510394 5.9322537e-22 -0.091514826 0.104022816 0.03621814 0.062837884 -0.15518545 -0.20783174
0.05206389 0.17431079 -0.0026994345 0.07450065 -0.04396325 0.15519176 -0.046021007 -0.08486894
-0.17637914 -0.015127789 0.015098803 0.09111987 -0.11649445 0.11175694 -0.21156742 -2.98207e-20
-0.16682355 -0.07332658 -0.21482617 0.09543755 0.08376803 0.1602516 0.1342714 0.08444148
0.19770989 0.08376822 -0.10888708 -0.13456747 -0.02638758 -0.10001891 0.2523982 -0.015427318
-0.18807182 -0.12737848 0.103115454 -0.15534353 -0.022793321 -3.4600747e-22 0.03559114 0.07293386
0.044930004 0.11707445 -0.059992682 -0.03434929 0.07140009 0.008956996 -0.07951121 -0.16863221
0.030066812 -0.02728482 0.11100647 -0.11130431 0.16010892 -0.057241924 0.029531447 -0.06642595
0.16459072 0.026510367 0.18902338 3.0223264e-19 0.059820447 -0.07944324 -0.059608046 -0.11557128
0.040878896 0.1426802 0.021535054 -0.037236996 0.018374177 -0.019759405 0.051837105 -0.24458879
0.15435244 0.052293703 0.15506907 0.042678468 0.07566717 -0.20032509 0.037965227 -0.14066
-0.092939086 3.5320239e-22 -0.12096829 -0.007067828 0.16260144 -0.027756047 -0.10706567 -0.29991364
-0.17350107 -0.05459516 0.007866268 0.08247683 0.026142191 -0.14809246 -0.02339324 0.10145687
0.19573937 -0.047883004 -0.17677918 -0.20696916 -0.10034157 0.02477399 0.0775753 -1.2712064e-21
-0.012624038 0.05662354 -0.14158893 -0.019798454 -0.027699502 0.042939063 -0.12026791 0.10608728
-0.07090483 0.03374726 0.024237653 -0.040076576 -0.028919734 -0.0923451 0.024583735 -0.17062424
0.14206211 0.085837804 0.06898125 0.019084549 0.16984871 -1.14295904e-17 -0.07464792 0.045131024
-0.052866817 0.11920383 0.15418099 0.01807179 0.040977694 -0.050025195 -0.09653642 0.12277064
-0.021476645 -0.05107357 0.047570746 -0.065182894 -0.16537467 0.03133357 -0.045499686 0.039504115
-0.01817126 -0.013906295 0.08111337 2.1926713e-22 0.013139093 0.04986778 0.1691066 0.010275367
-0.14170054 0.23630294 0.1400217 0.034653377 0.050594464 0.05267354 0.13211821 0.1448183
0.035046536 -0.1846727 0.15415949 -0.16169125 0.044717856 -0.12845199 -0.21931419 0.11495174

conv_layers.1.att_src f4 [1, 4, 64]
00000000: 288e 493e f064 3dbe 8edd fc3c 928f 51bd
00000010: 12fa 3a3e 60e5 73be ed65 bebd 7d6b df3c
00000020: b177 91be 5c63 77be c8a8 96bd 78f1 8e3e
00000030: 36e3 5fbc a22b 6f3e 3214 3bbe 407e dc3d
00000040: 4b1a 913d 6dd8 39be 6485 bb3d 27f2 3a3e
00000050: 1fad 1bbe 66b6 a1bc 3397 8ebe 2b73 5dbe
00000060: 8688 92be 6c3a ccbd cc33 febd e49a 443e
00000070: 00c5 acbd cdc2 1fbe c4c3 113e 96ba 6f3e
00000080: dd2b 9abc 562c 8abe 9d1a edbd ba31 c33d
00000090: 0274 f9bd 8435 583d 3d96 4d3e 82e9 08be
000000a0: 01c1 183c 24a5 5ebd 1609 923e ac24 55be
000000b0: cb35 42be 0703 c6bd 00f6 a73d 643c 433e
000000c0: 9afe 43bd b8cf c83d 7d64 953e 57ab d1bb
000000d0: d115 ae3c 4c15 9dbe 883d 973e 7372 6ebe
000000e0: 68fc 87bc a948 7dbe 7317 6cbd 04aa 04be
000000f0: 0c84 943e 81fc a9bc f793 94bd 6746 2abb
00000100: a653 64be 1b94 1a3e f763 7d3d 7dab fcbd
00000110: 951d b23d edd3 803e 94da 38be 5e0a aa3d
00000120: 751a 5dbe 3e85 7cbd c922 163e db57 edbd
00000130: 2a9d 243e 19f7 1e3e 0d43 85be 8fcd 20be
00000140: 82cf 5c3e b36a 0fbe 20af 86be c92a 773d
00000150: 6447 803e 4dc0 96be 7a2e 06be 3f35 e1bd
00000160: b27a 97bd 53a3 a23d 9a18 81bd 517b 8abe
00000170: 4b67 61be b180 683e 7e92 403e 5891 a23d
00000180: ee02 853e 2f97 ff3c 721e 67be 4ffc 7a3e
00000190: 8e34 4abe 3579 183e 6089 2b3e e790 85be
000001a0: 821e 09be 8dd3 50be 8956 d03d 9e91 74be
000001b0: 5025 86be 0fb6 6b3c 6f65 c7bd 153d 863d
000001c0: f74b 0cbd 60ea 0c3d 5a44 29be c522 693e
000001d0: 52d2 90bc 918c 00be 7979 81be 9c15 903e
000001e0: e679 50be 5cd2 29bd 914f 2cbe 675e 8c3e
000001f0: e15a 36be f550 25be eb09 803e dec1 27bc
00000200: a83b 2e3e 6666 e33d df2b 1b3e 72b2 8e3d
00000210: eb28 6bbe 4219 7cbd ebf1 aebd 05b9 acbe
00000220: afcd 91bc a2af 87be 5cfb 48bd 8f13 87be
00000230: 0dea d6bd 71a6 b6bd 14d7 243e dc35 bdbd
00000240: 9f60 8ebe cbe4 72be 7562 9c3d d889 253e
00000250: 6e58 cebd dfff b03d 8057 a33e c774 4abe
00000260: 2131 703e 53f1 553c bc37 6bbe d2e9 c83d
00000270: ede2 33be b8b3 293d 216a 9bbe 498c c33e
00000280: 5b53 8abe 6ca4 9dbe 710b de3d 6d5b 1cbc
00000290: b1eb 25be e4dd 203e a057 34be 3dce febd
000002a0: 7ee4 0a3e ee85 a63e ed99 573c b64c 4ebe
000002b0: b45e 67be 43df 9bbe a613 8cbe 48db 273d
000002c0: ebca 65be a0c9 3cbe f5b0 803e e7ca bb3d
000002d0: 71a9 873e 21eb 0d3e adc9 853e 556c 56be
000002e0: f7d6 7e3c 4bec 68be e65b 2fbe 5c39 78be
000002f0: defd 59be fe7c 8bbe 9a07 e8bb 4180 9cbe
00000300: c70f 2a3e 0aa4 db3d 0c3c f73d daed 4b3e
00000310: 784d 69be 7e24 ecbd 6e18 153e 0dc7 d53d
00000320: f907 fa3d c05d 95be 12e5 d4bc 8513 723e
00000330: 072f 01bd 2615 62be 6ad0 93be cc17 1ebe
00000340: afc7 d13d 494a 40be 14d0 1cbe 373b 693e
00000350: c2c2 823e eb50 4a3c 8841 0dbe cf1e 473e
00000360: f8d4 b83c eb77 89bd 2a9f 19be c5b9 9a3e
00000370: b4cc a93e d2c0 2dbe 8c32 533e 4d76 0bbe
00000380: bd1c 4f3e 5fc6 733d 1751 a93e 2e60 73be
00000390: 748f 073e 859e 8fbe dcb1 acbc d703 953d
000003a0: 1c0f f8bd f2c5 da3d 8c9e 3c3e 98a4 7b3d
000003b0: 40fd 483e a465 6a3e c528 883e 684f a73d
000003c0: 5bc4 093d f3e6 47bb b12e a8bd b812 8e3c
000003d0: fc35 503c 538b 05be 3199 96be 1c4c fd3d
000003e0: 6851 8abd 1718 0a3e c5b9 bc3e 2ecf 46be
000003f0: 0ada f8bd b0ee 0c3e 8d04 8b3e f7a4 93be
0.19683135 -0.18495536 0.030867364 -0.05116231 0.18259457 -0.23817968 -0.092967845 0.027272934
-0.2841163 -0.24158996 -0.07356411 0.279186 -0.013665011 0.23356488 -0.18269423 0.10766268
0.07085093 -0.18148966 0.091563016 0.18256436 -0.15202759 -0.019740295 -0.2784973 -0.21625964
-0.28619784 -0.099720806 -0.12412223 0.19199711 -0.08436012 -0.15601654 0.14234835 0.2341102
-0.018819744 -0.2698695 -0.11577342 0.09530969 -0.1218033 0.05278541 0.20076843 -0.13370326
0.0093233595 -0.05435671 0.28522557 -0.2081477 -0.18965833 -0.09668546 0.08201218 0.19066006
-0.04785023 0.09805244 0.2917823 -0.006398599 0.021250637 -0.3068031 0.29539132 -0.23285846
-0.016599849 -0.24734749 -0.05763955 -0.12955481 0.29006994 -0.020750286 -0.072547846 -0.0025981904
-0.22297534 0.1509556 0.061862912 -0.12337396 0.086970486 0.25161687 -0.18052131 0.08302759
-0.21592124 -0.061650507 0.14661707 -0.11589023 0.16075578 0.15523948 -0.26027718 -0.15703414
0.21563533 -0.14005546 -0.26305485 0.060343537 0.25054467 -0.2944359 -0.13103667 -0.10996484
-0.07396449 0.07941308 -0.063035205 -0.27047208 -0.2201206 0.22705342 0.18805882 0.07937878
0.25978798 0.03120002 -0.22570208 0.2451031 -0.1974661 0.14889987 0.16751623 -0.26087114
-0.13390544 -0.203932 0.10172755 -0.23883674 -0.26200342 0.014386668 -0.09736144 0.06554619
-0.034252133 0.034403205 -0.1652998 0.2276717 -0.017678414 -0.12553622 -0.2528799 0.28141487
-0.20359 -0.04146038 -0.16827227 0.27415773 -0.17808105 -0.16144164 0.25007567 -0.010239093
0.17014945 0.11103515 0.15153454 0.069676295 -0.22964828 -0.061547525 -0.08542236 -0.3373491
-0.017798273 -0.26501185 -0.04906784 -0.2638211 -0.104938604 -0.08918465 0.16097671 -0.092387885
-0.2780809 -0.2372009 0.07635967 0.16165864 -0.100754604 0.086425535 0.31902695 -0.1977111
0.23456241 0.013058024 -0.2297048 0.09810223 -0.17567034 0.04143116 -0.30354407 0.38192967
-0.2701672 -0.30789506 0.10842026 -0.009543282 -0.1620319 0.15709645 -0.17611551 -0.124416806
0.13563725 0.32524055 0.013159257 -0.2014645 -0.2259472 -0.30443773 -0.2735874 0.040980607
-0.22440688 -0.18436289 0.25135008 0.0916956 0.2649646 0.13859226 0.2613043 -0.20939763
0.015554181 -0.22746389 -0.171249 -0.24240631 -0.21288249 -0.272438 -0.0070809843 -0.305666
0.16607581 0.10724647 0.12072 0.19914952 -0.22783458 -0.11530398 0.145601 0.104383565
0.12208552 -0.29173088 -0.025988135 0.23640259 -0.03153899 -0.2207838 -0.28869945 -0.15438765
0.10243165 -0.18778338 -0.1531375 0.22776495 0.25539213 0.012348394 -0.1379453 0.19445346
0.022562489 -0.06712326 -0.15002123 0.30219856 0.3316399 -0.16968086 0.20624751 -0.13619347
0.20225807 0.059515353 0.3306968 -0.23767158 0.13238317 -0.28050628 -0.021080904 0.07276123
-0.12112257 0.10682286 0.18419856 0.061436266 0.19627857 0.22890335 0.26593605 0.081694424
0.033634525 -0.0030502647 -0.08212031 0.01734291 0.012708183 -0.13041429 -0.2941375 0.12368032
-0.06753808 0.13485752 0.3686048 -0.1941497 -0.12150963 0.13762927 0.2715191 -0.28836796

conv_layers.1.att_dst f4 [1, 4, 64]
00000000: ea03 9bbd ce6f 51bd bf13 90be 6fad b73d
00000010: 2768 49bd e059 7cbd 42d6 28be 0cc6 86be
00000020: 2401 e2bc b9a8 d03d 9391 843e 79ea e2bb
00000030: 692c babc ea13 15be ddd9 9cbd f731 a2bd
00000040: 456b 18bc a0be 56be dbe3 82be 3254 3b3e
00000050: b05e 5bbd 6ca0 6e3c a196 353e 3765 9cbe
00000060: d599 0cbe db26 39be 9753 55be 5254 5bbe
00000070: 7249 8bbd f9b3 17be 6330 adbe 7e69 663e
00000080: 58aa 12be 160d b6bd 2a3b 72be cae1 6fbe
00000090: 5ac1 75be 1eca a63e 9d9b 67bd d1a0 a8bd
000000a0: 7c97 0b3e 9dbd a23e aae9 8f3d 717c a13e
000000b0: 935d f8bd 4a9d fa3d e2a5 6fbe 8b92 9dbe
000000c0: 6da2 0bbe 0102 283e 5117 103a 6177 5abe
000000d0: fe8b 65be b176 7cbd 7793 e03b c905 e2bd
000000e0: aacb b2bd 0e6f 813e c44e 6b3d afdb 073d
000000f0: 34ef 66be a20d 4ebc 4668 edba 1cdd de3d
00000100: c095 8b3d b7b5 7bbe ff08 973d ea6b 93bd
00000110: 58da f23d bcb8 ab3e 99db 24be 1dc3 06be
00000120: 6a47 e73c e593 2cbe 5089 773e a21b 3dbe
00000130: 4ba1 b4be 5995 c3bc 47d4 ab3e 4f7b 863e
00000140: ea85 54be 8ff0 4fbc 110b 843e 7cfa f53d
00000150: 2b57 233d 6cf4 bd3d 4e80 59be 3b73 763d
00000160: d7a2 3abe 3d89 53bc 85b1 ee3c 83c9 953e
00000170: 9001 a83d 1811 80bd fdb0 373e 912e 7abd
00000180: 4869 32bd a27a 3c3e c95f 14be 770c a3be
00000190: f855 d73d b775 86be a9bb 7c3b 0fcd 8c3d
000001a0: e238 e9bd 2a82 e03d e97a 003e de2f 99bd
000001b0: e9d9 5d3e e6ba 49be 4b42 9b3d cf61 503e
000001c0: f42e 1b3e 9140 7a3e 6d14 17bd c80a df3d
000001d0: 00c0 923d 976c 9cbd 0f9d 123d 1d0e c2bd
000001e0: 0ec1 84bd ed13 b9bd e1b9 afbe 8fb5 32be
000001f0: f917 143d 17a3 423e 2f8f 83be bccf 6dbe
00000200: 8203 853e feb8 8dba d393 0c3e f06f 8d39
00000210: f7c3 d03d 1d78 333e b545 283e b087 0bbc
00000220: 31e1 87be d41a 1b3e d08d 9f3e 08bc 2b3e
00000230: f4f7 593e bc71 32be 3501 453e b3d8 99bd
00000240: 8a2c 7e3d 62ba 003d 586d c93c e54c 0fbe
00000250: f13b 303e c500 8c3e a583 53be be40 363e
00000260: 4903 92be 2e88 0cbe db43 643e 3de6 82be
00000270: bd35 803e 7295 01be 61da 3b3e 99ed 603e
00000280: 0da8 90be 0d02 4e3c a9bc 13ba 833c 86be
00000290: 2bd7 93be 064e 4abe bb53 a739 f539 12be
000002a0: 1ac0 53be 7d88 44be 03f5 133e 19be b4bd
000002b0: 3564 343e c06a 333e 0c3e 83be 0f1d 45be
000002c0: e439 fcbd da16 543e 0c2e 03be a4d4 7dbd
000002d0: c4aa ce3d fd31 633e ec50 e0bd f6e2 76bd
000002e0: 424f 96bd 9b6f a43d 263e 87bd 481f b0bd
000002f0: 1e25 8f3d 7b5f b43c 73d5 a7be c3e0 333e
00000300: 0e6f 5e3e 3ac0 443d cb9e 83be 4317 803d
00000310: dbfc a8be f13e 83be 0d68 fcbd aa9d 86bc
00000320: 14c0 353e 9419 16bd 4834 2ebe d276 1f3e
00000330: 4a24 16be c8ac b33b 0fbb 553e 9363 8bbe
00000340: c2ab 28be 5f6a 0e3e 225f 6b3e 5d77 c6bd
00000350: c5cd 903d 0b7f 993c 9fe4 1b3c 98db 75bc
00000360: 0818 e63c 8642 963e d1ce 1b3e b3ce 013e
00000370: b89b 043e a79b 2c3e a1b9 2a3d 3e45 56be
00000380: 4d0d 573d 0274 84be e02a 97bd 3180 18bc
00000390: 9698 cf3d df24 58be b1a2 6dbe 03a4 c3bc
000003a0: a445 843c 4988 1f3e 7520 15bd 57d3 97be
000003b0: 423f 06be 5b68 13be 21d2 42be 66e6 58be
000003c0: bec2 8cbe 5624 dfbd 3ecb cdbd 72c3 5a3e
000003d0: f252 cc3d 56a3 0abe d75a ddbd f4b2 183e
000003e0: 0b36 653e 0ccc 463d 49e6 26bd 429b c03c
000003f0: 2aaf 1dbd 67e0 c0bd 21bb 9e3e faaf a43d
-0.07569106 -0.051132016 -0.28140065 0.08968627 -0.049171593 -0.06160915 -0.16487983 -0.26322973
-0.027588435 0.10188431 0.25892314 -0.006924924 -0.022726255 -0.14558378 -0.076587416 -0.07919686
-0.009302919 -0.20971155 -0.25564465 0.18293837 -0.053557098 0.014564615 0.17733242 -0.3054597
-0.13730557 -0.18081228 -0.20832668 -0.21418884 -0.06801118 -0.14814748 -0.3382598 0.2250118
-0.14322793 -0.08889215 -0.23655382 -0.23425975 -0.23999539 0.32576078 -0.05654489 -0.08233798
0.13632005 0.31785288 0.0702699 0.31540254 -0.12127223 0.12237032 -0.23403123 -0.30775866
-0.1363618 0.16407014 0.00054966385 -0.21334602 -0.22416684 -0.06163663 0.0068535167 -0.1103626
-0.08730252 0.2528004 0.057448164 0.03316849 -0.22552186 -0.0125764925 -0.0018112741 0.10882017
0.06815672 -0.24581037 0.07374763 -0.07198317 0.11858052 0.3353938 -0.16099395 -0.13160367
0.028232295 -0.16853292 0.24173474 -0.18467572 -0.35279307 -0.023874925 0.33560392 0.26265952
-0.20754209 -0.012691631 0.25789693 0.12010667 0.03987805 0.092751354 -0.2124035 0.060168486
-0.18226181 -0.012911138 0.029137382 0.29255304 0.08203423 -0.062532604 0.1793861 -0.061079565
-0.043557435 0.18406156 -0.14489664 -0.31845447 0.10514444 -0.26261684 0.0038564003 0.06875049
-0.11387803 0.10962327 0.12546887 -0.07479833 0.21665157 -0.19700202 0.07581004 0.20349811
0.1515463 0.24438693 -0.036884714 0.10890728 0.07165527 -0.07637899 0.035794314 -0.09475348
-0.06482135 -0.09037004 -0.34321502 -0.17452072 0.036155675 0.19007526 -0.25695178 -0.23223776
0.2597924 -0.0010812578 0.13728265 0.00026977016 0.10193627 0.17526288 0.16432841 -0.008516237
-0.26538995 0.15146953 0.31162882 0.16770947 0.21285993 -0.17426199 0.19238742 -0.07512035
0.062054195 0.03142775 0.024588272 -0.13994177 0.17210366 0.27344337 -0.20655687 0.17798135
-0.2851813 -0.13723823 0.2229151 -0.25566283 0.25041 -0.12654665 0.18345024 0.21965636
-0.28253213 0.012573731 -0.00056357175 -0.26218042 -0.28875098 -0.19756326 0.00031915106 -0.14279921
-0.2067875 -0.19192691 0.14448933 -0.08825321 0.17616351 0.1752119 -0.25633276 -0.19249366
-0.12315729 0.20711842 -0.12810534 -0.061970368 0.10091165 0.22187038 -0.109529346 -0.06027504
-0.07339336 0.080290996 -0.06603651 -0.085997164 0.069895014 0.022018185 -0.32780036 0.17566209
0.21722052 0.048034884 -0.25707087 0.06254437 -0.33005413 -0.25633958 -0.123245336 -0.016432602
0.17749053 -0.036645487 -0.17012131 0.1557267 -0.1466228 0.0054832436 0.20872138 -0.27224407
-0.1647177 0.13907765 0.22985509 -0.096907355 0.070704974 0.018737337 0.009514957 -0.0150059685
0.02808763 0.29347628 0.15215613 0.12676506 0.12950027 0.16856252 0.041680936 -0.20924851
0.05250292 -0.25869757 -0.07381225 -0.009307907 0.10136525 -0.21107815 -0.23206593 -0.023881918
0.016146488 0.15579332 -0.036407907 -0.29653427 -0.13110068 -0.14395277 -0.1902547 -0.2118164
-0.27492326 -0.108956024 -0.10048531 0.21363619 0.09976758 -0.1353887 -0.10808342 0.14912015
0.22383897 0.048534438 -0.04074696 0.023511533 -0.038497128 -0.09417801 0.31002143 0.08041377

conv_layers.1.bias f4 [256]
00000000: e479 0c3a de91 7cb8 39da 3bb7 ac1f 8cb9
00000010: 57fd a8b8 29c3 2139 189e dcb8 2f6b 5439
00000020: 1b65 5439 9345 c938 bb51 37b9 559c 75b8
00000030: 0102 1e39 dc6e 19b9 e5e4 55b6 d528 f337
00000040: dd3b db38 69fe 0939 bf8a 1b39 2820 bb38
00000050: d764 6ab9 8bf2 e4b8 1904 5b39 a2e2 6738
00000060: 67a3 8939 7af6 d339 aef8 8bb8 4ff9 cdb8
00000070: e26d c039 5446 cdb9 8a5a 8fb9 a5e8 8038
00000080: 38e8 c539 0ccc eb37 28e8 30b8 0c05 46b8
00000090: 93fe 0638 997c 4bb9 9fb6 b538 202c 56b9
000000a0: 6890 dc38 dd3f 31b9 4c95 98b7 0537 12b8
000000b0: 0bf6 f637 680e 0a3a 209c c739 cdda 95b8
000000c0: 2363 11b9 631c e6b8 7e98 aeb8 f27d 0539
000000d0: f205 5439 10a2 cd38 6513 de38 5ff7 5537
000000e0: 2717 96b8 4d8a 7fb8 a675 6239 2acb 8fb9
000000f0: 2f8c 20b9 91f6 bc38 d9f2 ff37 e878 1338
00000100: 1c3e 1bb8 da5e 88b9 9015 a538 034c 5239
00000110: 19f5 94b8 b45b 1039 6dfb a0b9 8bf5 ccb9
00000120: 1c15 6339 bde7 e3b9 c1f6 e638 ad0d 1939
00000130: b4f8 7b39 0146 13b9 5df9 56b7 c087 b9b8
00000140: 7690 6c39 914e 49b7 599c c0b6 6004 c6b8
00000150: 9753 02b8 a75c 5eb9 f64a ba38 3ee3 ea38
00000160: ff53 0fb7 656a acb8 40dc 9c39 5133 ce37
00000170: 55cd 15b8 548b 1739 daee bd38 e0e3 0eba
00000180: d07f 2039 4854 9938 f022 d9b8 676c ddb8
00000190: b45d ffb8 d872 cf38 5734 4637 f129 4e39
000001a0: 936d 07b7 d36d 0139 229b 63b9 c4f3 65b8
000001b0: f68b 8738 2e9b 8939 419d 6938 264b 3639
000001c0: 88b3 7db8 e707 63b7 aaa1 d2b8 11d3 c1b9
000001d0: e58a 2d3a 6676 f4b8 5d09 b136 19bc f038
000001e0: acf9 ffb8 57f2 68b9 26b6 ad38 176a 153a
000001f0: cf2d 51b9 9c38 2db9 2dc1 43b9 ceb7 d1b8
00000200: 5292 8b38 b1ab 4a39 c402 33b5 aefe 5938
00000210: 832b 4339 a15b 5eb9 2bab 7cb9 4037 3839
00000220: 014b d337 b676 0938 fac6 6737 108e 2239
00000230: 046a 0339 00cc bdb8 d786 bcb8 d7f8 ccb8
00000240: ef9b 553a bd85 7139 1d5f 0d39 7dba 95b9
00000250: c984 bcb9 fa6a a438 f093 f438 1904 8a39
00000260: d85e 1a39 98f0 7339 9d3f 0e3a ff86 30b9
00000270: 4cc5 1639 e989 46b9 03fe c638 47b7 dbb8
00000280: 8989 a339 e76a 8cb7 61e9 93b8 e8f0 9438
00000290: 0c85 0039 15a1 a038 5418 afb8 4fd4 7339
000002a0: b202 00b9 bf71 50b8 8457 38b9 a411 6bb8
000002b0: 896f bb38 e955 4339 bb97 1ab9 f679 bc39
000002c0: 3dee d038 e863 f0b9 2930 67b9 30c4 8738
000002d0: c6c4 ab38 94bd 3d39 2992 e2b9 d17f 4d38
000002e0: 6cd3 4039 0263 4439 6cb1 45b9 bbf8 6b38
000002f0: 91c3 5739 55a7 d5b7 4c0e f939 3780 0238
00000300: abfa 2138 a2da b839 d0e0 e1b7 71c7 6c39
00000310: d7a2 35b8 f8ad 19b9 9f29 4138 0677 4136
00000320: ed1a 1739 4539 45b9 44f8 c4b8 140c f339
00000330: 19bb 25b9 2773 b237 c5fc 333a 2107 0038
00000340: 8829 a837 2482 cdb9 1cfb c538 3461 b7b8
00000350: 60c6 07b9 f6de a939 1717 03b8 71cd 9a38
00000360: d45e 5738 cdce 79b9 8f71 c3b9 20df ae38
00000370: 2e2b 06b8 a6d7 5539 22f7 1039 2477 8638
00000380: c37a 2639 7512 8c39 5ea3 88b8 c226 99b8
00000390: 1cc2 fb39 bba6 1338 9fdf 85b9 c8ba 6938
000003a0: b247 04b9 d6f0 06b9 cc79 d739 1dde 2939
000003b0: 5c6a 3739 fa31 82b7 59cb dfb8 b73f cf38
000003c0: cc0e 97b8 b670 b3b8 6a68 a439 29de d7b9
000003d0: 85ff e338 d6a5 9b37 e5a1 4db9 795b 1237
000003e0: 276b 06ba c86d 60b7 4cf6 d7b8 a6b2 0538
000003f0: c052 e2b7 4949 4538 bd6b 94b9 bcba 073a
0.0005358739 -6.021733e-05 -1.11968775e-05 -0.00026726478 -8.0580525e-05 0.0001542686 -0.00010519865 0.00020257825
0.0002025556 9.597386e-05 -0.00017482687 -5.8558147e-05 0.000150688 -0.00014632515 -3.1872707e-06 2.8986871e-05
0.00010453884 0.00013160113 0.00014833639 8.9228444e-05 -0.00022353545 -0.00010917064 0.00020886994 5.528576e-05
0.0002625242 0.00040428696 -6.674357e-05 -9.821599e-05 0.00036702963 -0.00039153046 -0.00027342542 6.146849e-05
0.00037747785 2.81092e-05 -4.2177882e-05 -4.721158e-05 3.218518e-05 -0.00019406005 8.6647684e-05 -0.00020425068
0.00010517315 -0.00016903826 -1.8189334e-05 -3.4860353e-05 2.9440058e-05 0.0005266429 0.0003807256 -7.1456285e-05
-0.00013865209 -0.00010972542 -8.3253704e-05 0.00012730787 0.0002022011 9.805348e-05 0.000105893974 1.2753385e-05
-7.15687e-05 -6.092554e-05 0.00021596867 -0.00027426454 -0.00015311012 9.010465e-05 3.0511454e-05 3.5160134e-05
-3.7012724e-05 -0.0002601061 7.8718294e-05 0.00020055477 -7.102843e-05 0.00013767072 -0.00030704905 -0.00039092856
0.00021656271 -0.00043469472 0.00011013216 0.00014596312 0.00024029874 -0.00014045091 -1.2813453e-05 -8.846773e-05
0.0002256053 -1.1998826e-05 -5.740247e-06 -9.442191e-05 -3.1072264e-05 -0.00021206086 8.883134e-05 0.00011200317
-8.543021e-06 -8.221417e-05 0.00029918738 2.458101e-05 -3.57156e-05 0.00014452386 9.056712e-05 -0.0005450826
0.00015306403 7.311307e-05 -0.00010353874 -0.00010558293 -0.00012176801 9.8919205e-05 1.1813906e-05 0.00019661315
-8.072139e-06 0.00012343311 -0.00021706198 -5.482488e-05 6.4633714e-05 0.00026246294 5.5697983e-05 0.00017384868
-6.0487102e-05 -1.3532094e-05 -0.000100436926 -0.00036969085 0.0006620123 -0.0001165688 5.276101e-06 0.00011479128
-0.000122058525 -0.00022215523 8.2832106e-05 0.00056997075 -0.00019948858 -0.00016519654 -0.00018668613 -0.00010000133
6.655291e-05 0.00019328181 -6.668672e-07 5.197402e-05 0.00018612859 -0.00021205704 -0.00024096358 0.0001756819
2.5188087e-05 3.2773904e-05 1.3815001e-05 0.00015502446 0.00012532627 -9.05022e-05 -8.9896545e-05 -9.773828e-05
0.0008148541 0.00023033372 0.0001348224 -0.0002855844 -0.00035957087 7.840055e-05 0.00011662382 0.00026324464
0.00014721917 0.00023263914 0.0005426349 -0.00016834958 0.00014378614 -0.00018934127 9.488689e-05 -0.00010476872
0.00031192254 -1.673908e-05 -7.0529764e-05 7.102062e-05 0.00012256595 7.6593984e-05 -8.349182e-05 0.00023253377
-0.00012208035 -4.9697e-05 -0.0001758021 -5.6044795e-05 8.93763e-05 0.00018628653 -0.00014743108 0.00035949022
9.962588e-05 -0.00045850803 -0.00022047818 6.4738444e-05 8.190567e-05 0.00018095068 -0.00043214977 4.8994847e-05
0.00018389308 0.000187289 -0.00018853479 5.6260014e-05 0.00020576852 -2.5469499e-05 0.00047503633 3.1113825e-05
3.8618844e-05 0.0003525811 -2.6926777e-05 0.00022581012 -4.330542e-05 -0.00014656025 4.605355e-05 2.8828522e-06
0.00014410513 -0.00018808719 -9.3922514e-05 0.0004635757 -0.00015805326 2.1272876e-05 0.00068659737 3.0524217e-05
2.00465e-05 -0.0003919761 9.440465e-05 -8.7442255e-05 -0.00012948504 0.0003240031 -3.1254338e-05 7.381559e-05
5.134831e-05 -0.0002382353 -0.00037277906 8.338527e-05 -3.1988304e-05 0.00020393598 0.00013824974 6.4118096e-05
0.00015876726 0.00026716632 -6.515415e-05 -7.302828e-05 0.00048019073 3.520281e-05 -0.00025534348 5.5725483e-05
-0.0001261521 -0.00012868954 0.0004109874 0.0001619984 0.00017491862 -1.552048e-05 -0.00010671345 9.882397e-05
-7.202997e-05 -8.556379e-05 0.00031358312 -0.00041173518 0.00010871798 1.8554663e-05 -0.00019610634 8.723576e-06
-0.0005127661 -1.3377001e-05 -0.00010297875 3.187605e-05 -2.6979833e-05 4.7036712e-05 -0.0002830903 0.0005177667
