models/gnn_fold_4.pth (torch, 959138 bytes, 45 tensors)

conv_layers.0.att_src f4 [1, 4, 64]
000000 31 94 5d be 77 35 81 3e 83 18 06 3e 00 07 98 be
       -0.21638562 0.25236103 0.13095288 -0.2969284
000010 2c 16 30 bc 53 46 6c be 94 f2 d5 bd 20 f3 3f 3e
       -0.010747474 -0.23073702 -0.10446659 0.18745089
000020 e8 47 e8 3d 1a 39 96 be bc 4e a1 3e 9d 14 8a 3c
       0.1134184 -0.2934044 0.31505382 0.016855532
000030 56 fa 27 3d 5b 70 71 bc 86 a1 4b 3d af b6 75 be
       0.041010223 -0.01473626 0.049714588 -0.2399547
000040 b7 69 e6 bd 60 4a 7c 3d 7a e2 8d 3e 12 e6 1f be
       -0.11250632 0.061594367 0.2771185 -0.15615109
000050 6e f7 23 3e 77 ec ce 3c a3 af 12 be 53 c9 80 3e
       0.16012356 0.02525924 -0.14324813 0.25153598
000060 17 ef 43 be 1a 3c d2 bd 27 4d 34 3d 34 bf 95 be
       -0.19134174 -0.1026537 0.04401889 -0.2924744
000070 9b d6 c3 3d 80 98 7d 3e 85 e3 63 3e ca 47 a0 be
       0.09562417 0.24765205 0.2225476 -0.3130477
000080 54 9e a1 3d c3 e1 50 be ab 76 17 be 9c cf 3c 3e
       0.07891527 -0.20398621 -0.14791362 0.18438572
000090 3b 9d d6 3d 12 07 c5 3d 01 89 49 be 37 fc a5 3e
       0.10479208 0.09620489 -0.19681169 0.32418987
0000a0 71 e7 ba bd 5f 7a 34 be 0b 78 a3 bd 37 b6 9c be
       -0.09126175 -0.17624806 -0.07981881 -0.3060777
0000b0 27 3e d7 3d db 7c df bd 9d 3a b5 3d 8c 73 e7 bd
       0.105099015 -0.10912486 0.0884907 -0.11301336
0000c0 98 2c 9a bd ce 92 77 bc c3 61 7f be b1 96 23 be
       -0.07528037 -0.015110685 -0.24939637 -0.15975453
0000d0 89 65 ef 3d 1b a6 9b 3e b3 ae ce bd f0 8f 71 be
       0.11689288 0.30400166 -0.10091915 -0.23590064
0000e0 18 e8 89 3d a1 4f 71 be c5 98 bb 3d 5f fb 64 be
       0.067337215 -0.23565532 0.09159998 -0.22361515
0000f0 2e de 7e 3e 85 cb c2 bd be e4 68 3e a2 bb 8e 3e
       0.24889442 -0.095114745 0.22743508 0.27877527
000100 ec ca 8b be c7 fa 82 be cf ad 2a 3e 1e 61 62 3d
       -0.27303255 -0.25581953 0.16667865 0.0552684
000110 bd 5f 39 3e a2 a4 65 be 26 03 4c be f1 80 0f be
       0.18102928 -0.22426084 -0.19923076 -0.14014031
000120 d9 a1 03 be dc d5 72 3e 1c 09 80 3e 15 61 4f be
       -0.12854709 0.23714393 0.2500695 -0.20251878
000130 a2 d8 ff bd 9f 4a 28 be 1d 40 00 3e ed f9 8f 3b
       -0.12492491 -0.16434716 0.12524457 0.004393807
000140 e6 05 6b bd d7 0a ff 3d 8f 6d 4d 3e 16 6f 0d be
       -0.057378672 0.124532394 0.20061325 -0.13811907
000150 0f be f9 bd 56 69 33 3e 3d db 99 3e b4 72 f4 bd
       -0.12194454 0.17520651 0.30050078 -0.119359404
000160 9e 2f 27 3e 52 91 4a bd ce 37 6c 3e 1e f4 16 3d
       0.16326758 -0.049454994 0.23068163 0.036853902
000170 20 5b 75 be ae f7 1f 3e f0 e1 27 be ca 07 0d 3d
       -0.23960543 0.15621826 -0.16394782 0.034431256
000180 cf a5 a2 3d 7f 81 81 3e 92 7f d4 3d 55 e8 0d be
       0.07941782 0.2529411 0.103758946 -0.13858159
000190 f8 75 4d bd 59 19 29 be 9e ef 55 be cd 34 89 be
       -0.050161332 -0.16513576 -0.20892188 -0.26798096
0001a0 42 3f 8e be a8 a8 41 3e d9 6e 73 3d af 35 56 bd
       -0.27782637 0.18911994 0.059431884 -0.05229729
0001b0 45 35 87 be f0 50 11 3e b0 3f c4 3d 15 7e 43 be
       -0.2640783 0.14191031 0.0958246 -0.19091065
0001c0 d0 d3 85 3e 45 e5 3b 3e 16 59 7a 3e f7 f6 4f be
       0.26138163 0.18349178 0.24448046 -0.20309053
0001d0 7b 98 42 3d c3 fa 4d be 71 b7 25 3d bf 26 27 3e
       0.047508698 -0.20115189 0.040458146 0.16323374
0001e0 9e 82 57 be fb f8 04 3d ca 51 35 3e 32 92 0d be
       -0.2104592 0.03246401 0.17706981 -0.138253
0001f0 c0 5e 3c 3e 48 f5 7d 3d 0c 60 8b 3e 9e 89 10 3e
       0.1839552 0.062001497 0.27221715 0.14114997
000200 f3 18 30 be f8 3c 41 bd 90 8f 9d be 1b b5 05 be
       -0.17197017 -0.047177285 -0.30773592 -0.13057368
000210 43 56 34 3e 47 47 e5 3d de 23 09 bb f3 9d b7 3e
       0.17611031 0.11195236 -0.002092592 0.35862693
000220 82 26 2e 3e af b4 83 3d 40 42 a6 3c 98 2e e2 3d
       0.17006877 0.06430947 0.020295262 0.11044043
000230 cf 82 a6 3e 37 04 98 be ce 12 3e bd 18 ad 5f 3e
       0.32521674 -0.29690716 -0.046404652 0.21843374
000240 12 45 44 3e 94 cb 49 bc b3 06 fd 3d 81 60 3b 3d
       0.19166973 -0.012316603 0.123547934 0.04574633
000250 14 20 d1 3d 47 b3 09 3e 84 aa 64 3e 7a 76 4d 3e
       0.102111965 0.13447295 0.22330672 0.20064726
000260 79 12 72 3d 9a bb b4 bd fd 6f 2d be 04 dc 80 be
       0.05909965 -0.08824845 -0.16937251 -0.2516786
000270 35 91 64 3e bb 8c 21 bd 6d 3e 68 bc 61 09 4e 3e
       0.22321017 -0.03944085 -0.01417504 0.20120765
000280 9d e2 8a be f4 72 29 be 54 94 5d be 23 ed 30 be
       -0.27126017 -0.16547757 -0.21638614 -0.1727796
000290 7d 8d fa 3d e1 58 4b 3e 2b 66 92 be c6 25 cc 3e
       0.12234018 0.19858123 -0.28593573 0.3987257
0002a0 88 9b 8e 3d ae 61 82 3d 06 ec 4a 3e ed 95 92 3e
       0.06963259 0.06366287 0.19816598 0.2863001
0002b0 fc 8b 43 3e 85 f0 34 be f0 d6 82 be f5 8d 2b be
       0.19096369 -0.17669876 -0.2555461 -0.16753371
0002c0 aa 75 25 3e e3 83 8b be 9d 70 39 3e c7 ec fb 3d
       0.16158167 -0.2724906 0.18109365 0.12301021
0002d0 ba 5f 75 be b7 20 d9 bd 95 b5 6a be 3f 33 e3 bc
       -0.23962298 -0.10601943 -0.2292083 -0.027734397
0002e0 1a 89 4b be 92 f7 93 be 7d 7b a4 be e4 29 db bd
       -0.19876519 -0.2889982 -0.32125464 -0.107013494
0002f0 22 9b 4a be 26 f2 12 3e 04 12 6a 3e b5 d9 8e 3c
       -0.19785741 0.14350185 0.22858435 0.017437795
000300 83 d0 42 be 0a c5 00 be 4d a8 46 be 08 71 61 be
       -0.19024853 -0.12575164 -0.19400139 -0.22015774
000310 13 4d 9e 3e 17 b6 69 3e 1e 63 63 be 77 06 b3 3d
       0.30918178 0.22823368 -0.22205779 0.087414674
000320 56 9f d3 3d 73 7f 82 bd 92 19 72 3e 59 44 ec bd
       0.10333125 -0.06371965 0.23642567 -0.11536474
000330 96 d4 32 3e b0 bd 76 be 76 01 76 3e 88 61 2b 3e
       0.17463908 -0.24095798 0.24023995 0.16736424
000340 ff fd 34 3c 34 48 d8 3c 2f 59 91 3d 3e 1b 6c be
       0.0110468855 0.026401617 0.070970885 -0.23057267
000350 52 2d 90 3d 50 a5 44 be a8 0a cd 3c 3b 3e 78 bd
       0.07039894 -0.19203687 0.025029495 -0.060606223
000360 8a 87 95 bd 13 f1 25 3e 8e 43 90 bd 3f 29 4c be
       -0.07301243 0.16205244 -0.07044135 -0.19937609
000370 63 e3 4b bd 35 3b 89 3e 7b 9a 7a bc fb ab 57 be
       -0.0497774 0.26802984 -0.01529562 -0.21061699
000380 1a fb 03 3d 09 10 70 bc f0 2f 35 be 14 43 4d 3d
       0.03222189 -0.014652261 -0.17694068 0.0501128
000390 3f b4 9a 3c 0a 96 1a be 7b 14 8e be 5c eb ee bc
       0.018884776 -0.15096298 -0.2775 -0.029164962
0003a0 60 75 c7 3d 6e 1d 90 be 30 8b b9 3d 35 7b f1 3d
       0.097391844 -0.28147453 0.09059751 0.11791078
0003b0 4d fa 43 3d d4 05 f4 3d dc f4 6a 3d 97 0d 51 3d
       0.047846127 0.11915174 0.057362422 0.05103835
0003c0 36 c5 3b bb 56 15 84 3e 69 d6 8d 3e 0b 4d 82 be
       -0.0028651482 0.25797528 0.27702644 -0.25449404
0003d0 f9 89 b7 bd 59 e9 6d 3e 74 a4 42 3e 89 63 21 bd
       -0.08961863 0.23233546 0.19008046 -0.039401565
0003e0 31 be 77 be 3d 5f 0c 3e e1 c1 27 be 51 3f e3 bd
       -0.24193646 0.13708206 -0.16382553 -0.11096061
0003f0 26 e8 68 be 90 2a 4d be 6d aa c6 3d b8 f6 6a 3e
       -0.22744808 -0.20035768 0.09700475 0.22945678

conv_layers.0.att_dst f4 [1, 4, 64]
000000 49 56 7e bc 53 4a 4e 3d be c1 71 3c f5 80 8e 3e
       -0.015523502 0.05036385 0.014755664 0.2783276
000010 96 81 bc 3d de 1f ab bb ed 08 0d be 1d 2d 8f bd
       0.09204404 -0.0052223047 -0.13772936 -0.069910266
000020 42 57 ae bd 86 26 16 3d ec a8 c5 bd 00 3f 32 be
       -0.08512737 0.036657833 -0.0965136 -0.17406845
000030 06 f7 99 3c b8 a1 7f 3e 72 dd 06 3e 08 12 7e bd
       0.018794548 0.24964035 0.13170412 -0.062028915
000040 b9 38 18 3e 9e ab 6f 3c 65 c4 36 be cf 1e 26 be
       0.14865388 0.014628319 -0.17848356 -0.1622269
000050 42 f2 48 3d e9 ad 9a be 66 04 9f bd 62 e1 e2 3d
       0.04905916 -0.30210808 -0.07764511 0.110781446
000060 b9 28 b3 3d b9 6f ba 3d 06 e7 f1 3c 96 2c 0f 3d
       0.087480016 0.09103341 0.029529106 0.03495463
000070 2a 21 11 bd a2 be 7b 3e 0c 26 35 3d b3 d9 64 bc
       -0.03543202 0.2458444 0.044225737 -0.013967919
000080 99 48 18 bd 13 08 a9 bd fc 02 14 3e 4b 4f 60 3e
       -0.03717861 -0.08253493 0.14454263 0.21905248
000090 23 56 49 bd 2a 2b 80 3c d5 33 37 be 46 e7 8f 3d
       -0.049154412 0.015645582 -0.17890866 0.07026534
0000a0 50 b2 3e be 1c ff 71 3e a9 8b a4 3d 12 32 73 be
       -0.18622708 0.23632473 0.080344506 -0.23749569
0000b0 4c ec 90 be ee e3 3a be 5e 37 89 3d 46 5d 9e be
       -0.2830528 -0.18251011 0.067000136 -0.30930537
0000c0 f3 eb cf bd 76 55 4b bc 45 bb 59 3d 3f 4f c9 bd
       -0.101524256 -0.012410512 0.05315711 -0.09829568
0000d0 10 95 8a bd 49 fe 4a 3e ca c6 67 3e 12 7c 2d be
       -0.06766713 0.19823565 0.22634426 -0.1694186
0000e0 15 20 48 3e 30 8e 37 be 56 92 0b 3e d8 cf 1a be
       0.19543488 -0.17925334 0.13630041 -0.15118349
0000f0 4c 3c 82 3d 73 d1 aa 3d 83 ec 15 bc 9f e9 87 bd
       0.06359157 0.083407305 -0.009150627 -0.066363566
000100 b4 44 39 be 3f 94 b6 bd 5a 12 98 3e ec 15 ed 3d
       -0.18092614 -0.089149944 0.297015 0.11576447
000110 3a ef e8 bd db f8 21 3e 20 d1 16 3e 4a e5 03 bd
       -0.11373754 0.15817587 0.14728212 -0.03220109
000120 c2 ad 5f 3e aa c1 13 3d 30 3c fe bd c8 1b 95 bd
       0.21843627 0.036073364 -0.124138236 -0.072806895
000130 0c e3 ec bd 9b f6 60 3e 9f fa 89 3d f8 92 81 be
       -0.11566743 0.21969073 0.06737255 -0.2530744
000140 70 2d 83 bd 77 e0 12 be 5a 96 e1 bd b6 90 8e be
       -0.06405151 -0.14343439 -0.110150054 -0.2784478
000150 5f d3 87 be 53 94 4f be 47 fc 93 3c a4 d9 57 bb
       -0.2652845 -0.20271425 0.018064631 -0.003293612
000160 95 94 46 3e c5 bd 89 3e 03 7d b7 bd 98 59 f3 3d
       0.19392617 0.26902595 -0.08959391 0.11882323
000170 60 a5 26 bd cf 70 08 be 3e 64 83 3d 7a b5 4b 3e
       -0.040685058 -0.13324283 0.06415604 0.19893447
000180 f9 aa 2e 3e 3c 38 67 be d5 5f f3 3d 0e a9 9c 3e
       0.17057408 -0.22580045 0.11883513 0.30597728
000190 85 9f ba bb 09 89 2a be 17 1f fe 3d 68 0b 1a 3e
       -0.0056952857 -0.16653837 0.12408274 0.15043414
0001a0 87 de 72 be 8b 0c e7 3d 8a 67 7b 3e 29 30 a4 bd
       -0.237177 0.11281689 0.24551216 -0.08016998
0001b0 a1 b2 99 be c9 be 96 be e5 5d 8c 3e f8 1f 93 be
       -0.30019096 -0.29442433 0.27415386 -0.28735328
0001c0 9d ac 0a 3c f1 09 99 be f5 22 36 3c e7 08 a0 bd
       0.008464006 -0.29890397 0.011116733 -0.07814198
0001d0 e8 ba 50 3e 9f 39 1b 3e e0 14 80 3e 18 72 35 be
       0.20383799 0.151587 0.25015926 -0.17719305
0001e0 21 a2 cc 3d 13 e0 78 3d b4 45 9e 3e f5 fe 5f 3e
       0.09991861 0.06076057 0.30912554 0.21874602
0001f0 d9 ed 1d 3d 05 0b a5 3d 25 ad 47 be 32 a1 2f 3e
       0.038556907 0.080587424 -0.19499643 0.17151335
000200 e1 0e ed 3d dd 4e 2f 3e 23 d6 9c be 83 7a 8b bd
       0.115751036 0.17119928 -0.30632123 -0.06810477
000210 3e af 67 3e 2d 5d ac be 46 8b 83 3c fe 95 1b bd
       0.22625443 -0.33664837 0.016057622 -0.03798484
000220 e2 07 9e 3b 4b 1d df 3d 94 78 17 be 18 5c 50 bd
       0.004822717 0.10894259 -0.1479209 -0.050869077
000230 8c 2b 98 3e 48 96 7f be 49 7d 1c 3e cf 3c 53 3e
       0.29720724 -0.24959671 0.15282167 0.20628665
000240 fa 5d 1c be 83 54 c7 bd a3 24 1a 3e 2e 63 80 be
       -0.15270224 -0.09732916 0.15053038 -0.25075668
000250 b0 24 a8 be 50 bf 15 be 9b 24 33 3d df c7 26 be
       -0.3284049 -0.14623761 0.04373608 -0.16287182
000260 25 f7 78 be 4e ef 5a be e0 80 8a be 5e 0a 6f 3e
       -0.24313028 -0.2138035 -0.2705145 0.23343799
000270 7c 56 96 be f9 06 c3 bc a3 8f 22 be f4 68 4b be
       -0.29362857 -0.023807036 -0.15875106 -0.19864255
000280 dc 41 ba bd de 07 18 bd 77 61 dd 3d 59 36 b6 3d
       -0.09094593 -0.037116878 0.108096056 0.08897085
000290 56 d3 22 3e 3b 31 a4 bd 52 77 85 bb 5b 84 cb bd
       0.15900931 -0.080172025 -0.004073062 -0.09937354
0002a0 40 c5 40 3e 1e 3f 84 3e 8a a4 df 3c 43 4f ac 3e
       0.18825245 0.25829405 0.027300138 0.33654222
0002b0 35 3a be be c5 f7 ed 3c 70 df 6e 3e de ad 09 be
       -0.37153783 0.02904881 0.23327422 -0.13445231
0002c0 a4 bf 6c 3e 88 e3 ed bd 6f f7 ad be a6 28 b2 bd
       0.2311998 -0.11615664 -0.3397784 -0.08699159
0002d0 9d 72 fb 3d 66 ce 49 3e c2 81 ed 3c f6 15 39 3e
       0.1227772 0.19707641 0.028992537 0.18074784
0002e0 4d 31 38 be a6 cd e2 bd 18 6a 47 3e fd 3f 77 3d
       -0.17987557 -0.110743806 0.19474065 0.06036376
0002f0 06 7c 7c 3c e7 f5 96 3e 36 14 46 3e 26 d8 76 be
       0.015410429 0.29484484 0.19343647 -0.24105892
000300 13 f9 08 ba ac 50 52 bb c5 75 97 3a 5e c4 85 ba
       -0.0005225103 -0.0032091541 0.0011555484 -0.0010205617
000310 6d 00 40 3b 0b 73 f3 3b ad 57 ea ba b8 46 95 bb
       0.0029297129 0.0074294857 -0.0017878913 -0.0045555495
000320 32 1c 19 3b ff 36 7c 3b be 2b bc ba f9 8c 61 3b
       0.0023362753 0.0038484929 -0.0014356298 0.0034416302
000330 8c 31 66 3a 21 42 48 bb e1 90 aa b9 d4 85 a7 bb
       0.0008781187 -0.0030556994 -0.0003253287 -0.005112389
000340 53 ad 80 bb 3b 00 23 bb b3 40 78 3b 70 e4 19 3a
       -0.003926912 -0.0024871964 0.003788036 0.00058705267
000350 68 e9 b3 ba 66 fc 2e 3a cb 30 7c bb 2b ba 1a bb
       -0.0013726177 0.00066751835 -0.0038481231 -0.00236095
000360 aa 6d fc bb 3b 2b f1 ba a1 39 06 bc da c3 85 bb
       -0.0077035027 -0.0018399725 -0.008192451 -0.004082185
000370 05 20 a8 ba 30 79 ba 3a 51 4b c2 3a d3 66 97 3a
       -0.0012826925 0.001422679 0.0014823471 0.001155103
000380 56 dd eb ba df 99 6f bb 79 2c a8 3b a4 bb bc 39
       -0.001799504 -0.003656022 0.0051322547 0.00035997957
000390 42 57 e2 b9 bc 4b 9c bb 3e 0b 84 bb a9 a8 0f ba
       -0.0004317109 -0.0047697704 -0.0040296605 -0.00054801494
0003a0 d5 7a be 3a 83 7c 35 ba 21 15 f3 3a fe 9e d6 3a
       0.0014532456 -0.0006923156 0.0018545726 0.0016374288
0003b0 a5 1a 4e bb 50 d8 59 3b b7 d2 92 b9 15 10 cf b9
       -0.0031448987 0.0033240505 -0.00028004285 -0.000394941
0003c0 07 b0 f2 ba 64 0c 6d 3b 8e 6a 39 ba 00 1c 71 3a
       -0.0018515595 0.0036170715 -0.0007073068 0.0009197593
0003d0 3c 17 26 bc e9 f2 cf 39 f5 68 32 3c 49 32 d5 b9
       -0.010137375 0.000396631 0.0108892815 -0.0004066399
0003e0 8d cf f9 ba f1 c0 d2 3a 0e 4b f7 b9 9c d3 29 b9
       -0.0019059047 0.001607923 -0.0004716743 -0.00016195927
0003f0 10 a0 18 3b bc f5 f3 bb 1b 24 44 3a 9b 12 61 3b
       0.0023288764 -0.0074450653 0.0007482187 0.0034343365

conv_layers.0.bias f4 [256]
000000 24 e4 9e 3c 87 e5 09 ba 7b de 83 3c 1b 75 05 3a
       0.019395895 -0.00052603375 0.016097298 0.00050909974
000010 9b 42 4c bc 28 c6 41 3b 96 8a 73 3c ac be 99 3b
       -0.012467052 0.0029567573 0.014864584 0.0046919193
000020 7d c6 cc 3c 83 98 c1 3c d7 02 80 bb 41 99 7a 3c
       0.02499699 0.023632294 -0.0039065885 0.015295328
000030 e1 b7 97 bb 10 23 10 3d e3 2f 64 bb 75 0e 05 bc
       -0.0046300744 0.03518969 -0.0034818582 -0.008121123
000040 1d 0a 84 bc 62 7c 86 3c 72 83 0c bc 3d 41 1c 3c
       -0.016118104 0.016416732 -0.008576261 0.009537038
000050 3e 9a 72 3c e6 55 ff bb 75 ac 1f bc e9 78 5d bb
       0.014807282 -0.0077922223 -0.009745707 -0.0033793992
000060 e7 4c 8b bb a2 18 1e 3c 50 2d 1f 3c 2f 50 64 3b
       -0.004251111 0.009649428 0.009715393 0.0034837832
000070 88 8f 64 3c 35 e9 e9 3c 18 a8 1c bc ac 01 e7 3b
       0.013950236 0.028553585 -0.009561561 0.00704976
000080 ee da 09 3c 7f 18 16 3c 42 fc 89 3a 70 ea 5f bc
       0.008414013 0.009161114 0.0010527449 -0.013666734
000090 ac 14 e9 b9 94 0b 5c bc 96 ab 78 bc f2 e0 88 bc
       -0.00044456625 -0.013430495 -0.015177628 -0.016708825
0000a0 ca ab 2a 3c 95 7e b3 3b d2 6b f4 3a 91 d9 0e 3c
       0.010416934 0.0054777362 0.0018647856 0.008718864
0000b0 f7 7d 73 ba b4 1f 20 ba 6b 1c 2c 3c c4 12 29 3c
       -0.00092884846 -0.000610824 0.010504822 0.0103194155
0000c0 43 03 22 3c 62 9b 24 3b a0 7d 51 3a e5 97 7f 3c
       0.009888473 0.002511703 0.0007991437 0.015600179
0000d0 ce 5e 3f 3c ce e1 e6 3a e6 b9 37 bb f1 b3 d1 b9
       0.011680318 0.0017614902 -0.0028034388 -0.00039997653
0000e0 f1 61 fb 3a dd 10 8a 3a fb cf 9f 3b 7d da 09 3c
       0.0019178969 0.001053359 0.004877088 0.008413908
0000f0 f8 de ca ba 02 74 37 ba 78 b3 e1 bb d1 15 21 3c
       -0.0015477827 -0.00069981825 -0.0068878494 0.009831862
000100 de 7e 80 3c 98 d6 51 3c 81 ab 27 3d 65 31 6d 3c
       0.015685495 0.012807511 0.040935043 0.014477109
000110 ec 14 39 3b 46 0e b7 ba 3e 12 ff bc 2d 24 a2 3a
       0.002824123 -0.0013966046 -0.031136628 0.00123704
000120 dc 40 f3 3a 4e a8 87 bb 14 f8 93 3c ac b7 76 bb
       0.0018558758 -0.0041399365 0.018062629 -0.0037646098
000130 59 0b da b9 06 2c b5 3a 57 28 95 3b ee 9b 99 bc
       -0.00041588655 0.0013822324 0.004551928 -0.01875111
000140 7a 05 fa bc 50 84 b1 3b 76 0b 14 3b 69 4c c2 bb
       -0.03052019 0.005417384 0.002258984 -0.005929519
000150 48 dd cd 3a 98 36 47 3b 2a e5 38 3c b3 24 db 3b
       0.0015706206 0.003039753 0.011285106 0.0066877245
000160 91 f4 f1 bb 06 8f b8 3a 99 07 f7 ba f9 da 4c bb
       -0.007383891 0.001408071 -0.0018846869 -0.0031258448
000170 ea 72 dc 3b 3c 97 fd 3b 96 8f 17 bc 83 01 9f 3b
       0.006727566 0.007738976 -0.009250542 0.004852475
000180 44 be ba bb f3 fc a5 3c b8 77 85 3b 7e 4e 9f 3b
       -0.005698951 0.020262217 0.0040731095 0.004861652
000190 80 5f 3b 3d da 63 c3 3a 7f 54 7a 3b b2 a5 82 3b
       0.045745373 0.0014907077 0.0038197336 0.0039870376
0001a0 c7 07 80 bc 1d 76 8c 39 5f 82 31 39 99 a6 2f bc
       -0.015628709 0.00026790882 0.00016928602 -0.010720872
0001b0 81 07 2e 38 81 1c 08 3c ee 60 38 3c b6 84 09 3c
       4.149182e-05 0.008307577 0.011253579 0.008393457
0001c0 43 9f 77 bb 96 34 19 bc b3 58 e0 3b 36 c4 a2 ba
       -0.0037784136 -0.009350916 0.0068465113 -0.0012418095
0001d0 fb d0 1b bc 28 5c 48 bb 89 aa b9 3c 70 0b 73 bb
       -0.009510274 -0.0030572508 0.022664325 -0.0037085675
0001e0 4b 08 80 bb 2f 00 cb 3b b3 8d 16 3c 71 1e 22 bb
       -0.0039072386 0.0061950902 0.009189057 -0.0024737383
0001f0 bc c1 82 bc 45 0d ab bc 14 b7 72 bc 7a 83 ef 3b
       -0.01596152 -0.02088035 -0.014814157 0.0073093744
000200 4e f9 8f bb 2e b2 9b bc fc bd d0 3b 70 8c 65 3c
       -0.004393733 -0.019005861 0.006370304 0.014010534
000210 6e 8e d4 bb dd cc ec bb 71 e4 70 3b d3 b1 e1 3b
       -0.0064867055 -0.00722657 0.0036757255 0.0068876534
000220 56 57 92 3d 45 2c ca 3d 3e 66 47 bd ab 30 82 bc
       0.07145564 0.09871725 -0.04868149 -0.015892347
000230 de 94 cf ba a5 4a 98 ba 66 1e 25 bb d4 95 0f ba
       -0.0015837213 -0.0011618925 -0.002519512 -0.0005477343
000240 d2 cc e1 ba 79 57 c4 3c 67 d9 7f 3b d3 23 98 bb
       -0.0017227179 0.023967491 0.0039039494 -0.0046429425
000250 e4 7f 90 3c fd 13 15 bc 13 09 0b bb bd 56 09 bc
       0.017639108 -0.009099004 -0.0021215125 -0.008382496
000260 a1 36 31 bc e7 65 59 3b 06 d2 e4 bb ed 53 ab 3c
       -0.010816247 0.003317231 -0.0069830446 0.020914042
000270 ee 43 82 3b 80 ef 76 bc 8d 89 a6 ba 87 cc a1 bb
       0.003975383 -0.01507175 -0.0012705788 -0.0049377116
000280 2c be d9 3a 15 3b d4 bb bc ed 43 bb 59 52 a3 3a
       0.0016612462 -0.0064767697 -0.002989634 0.0012460455
000290 48 86 14 3b 13 06 87 bc 2f 64 a8 bb fa 37 47 3c
       0.0022663046 -0.016482389 -0.005138896 0.012159342
0002a0 4c 38 7b 3c 4b bc 1f 3b ff c3 c8 bc c9 03 d7 3c
       0.015333246 0.0024373706 -0.02450752 0.026246922
0002b0 97 55 ef 3b d7 39 2a 3b b2 58 fb bb 2a 49 1f 3c
       0.0073039043 0.0025974417 -0.0076704854 0.0097220335
0002c0 01 56 04 bc 04 8a 47 3a f7 09 99 bc 22 e5 3c bb
       -0.008077146 0.00076118135 -0.01868151 -0.0028823097
0002d0 6c 82 76 bc 6d de 44 bb 51 f8 5e bc bd eb 62 3c
       -0.015045743 -0.0030039803 -0.013609008 0.01385015
0002e0 a8 1a 11 bc f0 bc d2 3a 7f f6 2f 3d 30 48 61 bb
       -0.008856453 0.0016078036 0.042959686 -0.0034375302
0002f0 0f b9 1f bc 77 5f ee 3c 78 44 48 3b b2 75 1c 3a
       -0.009748711 0.029098256 0.0030558389 0.00059684657
000300 36 a7 34 bc d7 1e 09 bc 18 19 fd bb 0d 58 4e 3b
       -0.011026194 -0.008369169 -0.0077239387 0.0031485588
000310 b8 34 9d 3b 73 b6 31 3c 7c cc c4 3a 9d 92 43 3c
       0.0047975443 0.010846722 0.0015014554 0.011936811
000320 14 3d 97 3c ea c8 b6 3c e4 d1 8e 39 b4 d1 aa ba
       0.018461742 0.0223126 0.0002724073 -0.0013032467
000330 8b d7 20 3b f9 c9 67 bc b7 8f 30 3c d2 8d 38 bc
       0.0024542536 -0.014147275 0.010776452 -0.011264281
000340 fa 03 5a 3b 18 67 50 3c 68 65 86 3b e6 05 41 3c
       0.003326653 0.012719892 0.004101444 0.011781191
000350 d1 7d 53 3c 7c f9 32 3c d2 b4 a7 3c 32 19 96 bb
       0.012908415 0.0109237395 0.020471964 -0.0045806402
000360 b0 af 32 3d 45 e3 31 bc d1 21 e3 3c e3 bd 25 3c
       0.04362458 -0.010857408 0.027726086 0.010116073
000370 48 fe 1e 3c bc 06 81 3c a9 cc 0d bd be dd 79 3c
       0.00970418 0.015750282 -0.034619007 0.015250621
000380 a5 5f 08 3b a3 d3 c5 3b ae f1 c5 3c da fd 4e 3c
       0.0020808962 0.006037192 0.024163093 0.012633765
000390 9e a8 b8 3b 6c 25 e2 3c 06 9b 19 3a 9d 1b 22 3b
       0.005635335 0.027605735 0.0005859587 0.0024735697
0003a0 5a 35 69 3a 36 91 05 ba 83 22 c0 3c 61 0b 20 bc
       0.00088961946 -0.00050951855 0.023453956 -0.009768338
0003b0 2f 88 82 ba 10 ad 48 3b da 55 0c bc ee 06 fa 3a
       -0.0009958799 0.0030620731 -0.0085653905 0.0019075552
0003c0 98 72 29 bc 86 0c fb ba b2 64 42 bc fb e4 1f bc
       -0.010342263 -0.0019153513 -0.011864828 -0.009759183
0003d0 64 4d 01 3c f1 a8 92 3c ef 99 5b 3c 00 a4 0d bc
       0.0078919865 0.017902823 0.0134034 -0.008645058
0003e0 30 c1 c5 bb e6 36 93 3c b2 4d 09 bc 0b c8 7e bc
       -0.0060349926 0.017970514 -0.00838034 -0.015550624
0003f0 14 fa da bc 69 ec 54 3d 9b 0a a5 bb 2c ea 0a 3b
       -0.026730575 0.05198327 -0.0050366647 0.0021196706

conv_layers.0.lin.weight f4 [256, 22]
000000 39 67 d9 bc b4 69 6c 3d 63 3a c5 3d 58 14 07 be
       -0.026538478 0.057717994 0.09630277 -0.13191354
000010 08 11 97 bd ab 3b 12 be fa c2 db 3c dc 6e 3d be
       -0.07376295 -0.14280574 0.02682637 -0.18499321
000020 88 76 d5 3d dc c8 69 3d 1e b7 9f bd 4e 70 64 3d
       0.10422999 0.05707632 -0.07798599 0.055771165
000030 f1 6e 1e ba e4 fe 92 3d b8 19 3d 3d 2a 04 ef 25
       -0.0006043753 0.07177523 0.046167105 4.1462713e-16
000040 f4 56 15 be 99 54 b3 3e 8e ec af 3d 3c f1 22 3d
       -0.14583951 0.3502548 0.08590041 0.03978084
000050 d5 b9 f7 3d f9 be e9 3d e8 d6 01 be a5 57 01 3e
       0.120959915 0.11413378 -0.12679636 0.1263109
000060 66 03 e5 bc 22 6b 30 3e f4 45 9b 3d 65 e2 f0 3d
       -0.027955722 0.17228368 0.07581702 0.11761931
000070 f0 3f 03 3c 1c 8b f8 bd 77 62 53 bd cf ba b1 bd
       0.008010849 -0.12135908 -0.051607575 -0.08678209
000080 ec 64 df bd f0 5b 0c 3e 7a 36 0d 3e af 98 ca bd
       -0.10907921 0.13706946 0.13790312 -0.09892403
000090 f3 71 cb 3d 3f dc 1c 2f 91 c2 5a 3d 8c 10 1e 3d
       0.099338435 1.4266364e-10 0.05340821 0.03859
0000a0 3c 7f 85 bd 73 60 e6 bd ed 42 d5 bd b6 44 6f bb
       -0.06518409 -0.11248865 -0.10413156 -0.003650946
0000b0 7d 33 01 be d7 f2 f9 bd 08 5d 0e 3e be d5 a8 bd
       -0.12617297 -0.12204521 0.13902676 -0.08243893
0000c0 49 54 ea bd 93 1e 2e bc b2 90 21 3d 0b 16 29 3d
       -0.11441857 -0.010627407 0.039444633 0.041280787
0000d0 21 aa 00 3e fa 3f db 3d 79 15 4b be 85 8c 89 3d
       0.12564899 0.10705562 -0.1983241 0.06716255
0000e0 0b 41 bf bd 78 bc 97 3d 11 1f 28 3c 0f 91 13 29
       -0.09338578 0.074089944 0.010261313 3.2766375e-14
0000f0 a6 4a 59 bd b4 b1 4f 3d d9 65 f1 3d 67 d3 b9 bc
       -0.053049706 0.05070658 0.11787004 -0.022683812
000100 49 c4 92 3d 51 70 97 3d cf 64 1d b8 00 85 f3 bd
       0.07166345 0.073944695 -3.7525602e-05 -0.11890602
000110 58 7e c1 3c 84 84 00 be 07 62 da 3d 22 37 ee 3b
       0.023619816 -0.1255055 0.106632285 0.007269756
000120 26 11 91 bc d6 90 98 bc a1 68 a7 3c 95 3b da bd
       -0.017708372 -0.01862375 0.020435633 -0.106558956
000130 88 00 f9 3d cb c7 3e be 44 fa 77 bc 72 a6 bf 3d
       0.121583045 -0.18630902 -0.015135352 0.09357919
000140 a7 4d f1 3d 24 ed d4 a7 ba 3b 87 bd cb e1 23 3e
       0.11782389 -5.909893e-15 -0.06603189 0.16004102
000150 d9 f0 0a be 8d 14 02 3e 13 82 b6 bd d8 c7 42 be
       -0.13568439 0.12703152 -0.089115284 -0.19021547
000160 3d b5 4c bd 40 f9 02 3d d7 76 06 3e d5 c0 b1 3d
       -0.04997753 0.031975985 0.13131271 0.08679358
000170 0c c7 3b bd bd cf 7a 3d 08 ae 39 3c c8 1f 1e 3e
       -0.045844123 0.06123327 0.011332996 0.15441811
000180 98 1a b1 3d 03 7d 5d bd 94 2f b8 bd 50 5c 0c bd
       0.086476505 -0.0540743 -0.0899345 -0.034267724
000190 b2 2e 64 3c 85 03 0c 3d e9 d4 0d be a3 1d 6b af
       0.013927149 0.034183044 -0.1385075 -2.1383655e-10
0001a0 80 31 94 3d 93 b8 81 be 49 86 24 3d 5f 68 59 bd
       0.07236004 -0.2533613 0.040167127 -0.05307805
0001b0 ce 75 0f 3e aa e6 a5 bd a4 7d 9b bd 7c 9f 2f bd
       0.14009783 -0.08100636 -0.075923234 -0.042876706
0001c0 62 70 f4 bd 07 b3 15 3e b4 04 9b 3d 4a 03 10 bc
       -0.11935498 0.14619075 0.075692564 -0.008789847
0001d0 5c 57 f4 bd 96 d5 58 be f7 fb 59 bc 2f 0c c6 bd
       -0.11930725 -0.21175227 -0.013304702 -0.096702926
0001e0 79 34 54 3d 88 1a cc bd a6 a1 4f 3c 66 5d 23 bd
       0.051807854 -0.09965998 0.012672817 -0.039883994
0001f0 17 2c 00 be 41 72 d7 ac 88 a3 99 3d 4b ff 07 be
       -0.12516819 -6.1233523e-12 0.07501894 -0.1328098
000200 89 5c 97 bd 2e a6 93 3d 21 5b 94 bd e7 40 23 bd
       -0.073906966 0.07209431 -0.07243944 -0.039856818
000210 9a 35 93 bc 24 18 d9 3c 68 7b 4f 3d 0d af 1c be
       -0.017969895 0.026500769 0.0506548 -0.15301152
000220 5a 5e 6e 3d 4b 37 f3 bd 1b 20 d5 3d d2 1b cd 3d
       0.05819545 -0.11875781 0.10406514 0.10015072
000230 4b ba 83 3e ba e6 a9 3d a8 67 07 be 76 21 01 be
       0.25728068 0.08295961 -0.13223135 -0.1261042
000240 6a dc fa 3c 5d 8e 3c 3e f0 94 c0 bd ad 1f 8d 2a
       0.03062268 0.18413682 -0.094034076 2.506861e-13
000250 48 1d 05 bd 7f b1 a3 3d 04 2f 0f 3e 90 bb 62 bd
       -0.032498628 0.07992839 0.13982779 -0.055354655
000260 f2 ac 3b bd c1 30 f0 3d 2a 8b db bd d0 4c a8 bd
       -0.04581923 0.11728049 -0.10719903 -0.08217776
000270 c9 6b 8e bc 28 39 a3 bc 95 ec 21 3d 3e ae 17 3e
       -0.01738538 -0.019924715 0.039532263 0.14812562
000280 5a c1 0e 3b 7e 82 b6 bd 89 38 39 be 4a f9 04 bc
       0.0021782727 -0.08911608 -0.18087973 -0.008116076
000290 ba c6 12 be 9a cf 4d 3d 5c 5c db bc 2f 48 16 3e
       -0.1433362 0.050246812 -0.026777439 0.14675973
0002a0 63 be cc bd 09 c4 f0 2d 65 ec 50 bd c9 42 48 be
       -0.09997251 2.7371898e-11 -0.051006693 -0.19556727
0002b0 77 e6 19 3e 92 82 a4 3d 4c bf 25 3e 97 70 3d 3d
       0.15029322 0.08032717 0.16186255 0.046249952
0002c0 23 32 85 bc 15 37 f8 3d 05 24 e7 bc 42 3d 81 bc
       -0.016259259 0.12119881 -0.028215418 -0.01577628
0002d0 29 0c 75 bd 50 86 04 be cf 50 09 3e ff b6 2c bd
       -0.05982605 -0.12941861 0.13409732 -0.042166706
0002e0 1f 93 9a 3c da 3d 54 bd d9 4f 54 3e 0a 51 2c be
       0.01886898 -0.0518168 0.20733584 -0.16827789
0002f0 5c c1 f6 3d 9d bc 94 bd 3a f7 03 bd 74 25 b6 a6
       0.12048599 -0.07262538 -0.032218195 -1.2638939e-15
000300 ec b9 4e bd 71 d3 2e ba 6d 2e 8c bd 64 e6 b9 3d
       -0.050470278 -0.00066690805 -0.068447925 0.09077147
000310 6f 1b 21 3d 87 05 d2 bd 16 37 a2 3d c3 4c ad 3d
       0.039332803 -0.102549605 0.07920663 0.08461907
000320 28 ae 35 be 19 7c ef ba 7d 51 eb 3d 7b 6a be 3d
       -0.17742217 -0.0018271237 0.11490152 0.09297653
000330 30 09 58 bb 82 ed a2 bb 19 62 26 3e 24 ed 24 be
       -0.003296446 -0.004972161 0.16248359 -0.16106087
000340 0f b2 05 3e bb 87 c1 bc 6a 84 91 3d 3f 41 cf bd
       0.13056205 -0.023624292 0.07105334 -0.101198666
000350 54 6d 24 3d bb 1b d8 25 ca 5e e5 3c 22 52 f7 bd
       0.040143326 3.7488818e-16 0.0279993 -0.120762125
000360 7e ed fa 3d 54 03 de 3d d5 bf 02 3d d5 e7 59 be
       0.12252329 0.108404785 0.031921227 -0.21279843
000370 10 8f 78 bd 41 40 37 be 1d 45 fb 3d 30 3b 56 3c
       -0.06068331 -0.17895605 0.12269042 0.013075635
000380 5b cc ab 3d 24 e2 ee bd f1 15 06 bd c2 0b a6 bd
       0.08388587 -0.11664227 -0.03273577 -0.081077114
000390 e3 d9 7c ba ba 8c 79 bd bf d3 b1 bd 7c 3d 42 3d
       -0.0009645505 -0.060925223 -0.086829655 0.047421917
0003a0 54 ef b7 bd 13 3d 2a 3e 9c 16 7f 3d 45 bd 4c ae
       -0.08981195 0.1662486 0.06227742 -4.6552335e-11
0003b0 89 e3 91 bd ff 88 b5 3d fa 9c 26 3e 4e 50 cb 3d
       -0.07123477 0.088640206 0.1627082 0.09927426
0003c0 66 94 8d bd ef c8 6d bb 44 78 10 be 59 a6 0a bd
       -0.069130704 -0.0036283096 -0.14108378 -0.033850048
0003d0 1c 0d 1c 3e 4a 4b f4 3d bb fa 8d 3d 90 7a 4a 3d
       0.15239376 0.11928423 0.06932589 0.04943329
0003e0 94 36 cc 3d 53 48 28 be 89 fc a4 bc 16 6f 9f 3d
       0.099713475 -0.1643384 -0.02013995 0.0778486
0003f0 41 e3 28 3d 6a 3f bd bd c9 81 90 bd c7 25 09 3d
       0.04123235 -0.09240611 -0.070560046 0.033483293

conv_layers.1.att_src f4 [1, 4, 64]
000000 e3 87 01 3e a1 4d f5 bd 5c 6e 20 bd 7a 8a 30 3d
       0.12649493 -0.11977697 -0.039167747 0.04310081
000010 01 93 61 be 2d 89 91 3c 43 46 ae bc da 70 06 3e
       -0.22028734 0.017765606 -0.021273738 0.13128987
000020 05 6b 54 3e 71 ac 70 be 4e 0c 9d bd d7 2b 5f be
       0.2074395 -0.23503281 -0.076683626 -0.21794067
000030 e7 80 34 3e 3c fe ce 3c 28 7b 07 be a8 88 91 bd
       0.17627297 0.025267713 -0.13230574 -0.07106143
000040 82 e7 80 3d 9a d2 88 3c eb 08 45 be a6 6d 8e 3e
       0.062941566 0.016701985 -0.19241683 0.2781803
000050 f1 55 fe bd 73 96 5a bc ab ef 80 bd ff 38 1a 3e
       -0.12418736 -0.013341534 -0.06295713 0.15060805
000060 4d 9c 8c be 8b cc 3a 3e 48 c0 f6 bd 6d 50 db bd
       -0.27462998 0.1824209 -0.120483935 -0.107086994
000070 49 ec 23 bd 04 3c 22 be 20 49 15 3d 7d f2 87 be
       -0.04002026 -0.15843207 0.03644669 -0.2655219
000080 8b d1 94 be 37 89 ac 3c ab b8 33 3c 39 5d 2d be
       -0.2906612 0.021061523 0.010969321 -0.16930093
000090 3d a4 d1 bd 9d d5 07 be 94 3a 96 3e c6 84 09 3e
       -0.10236404 -0.13265081 0.29341567 0.13429555
0000a0 3d a7 4e bb 75 00 88 be d7 55 fd 3d d6 86 96 be
       -0.0031532787 -0.2656285 0.12369888 -0.29399747
0000b0 54 7f 9c be b2 f9 4e be d4 53 a6 bb 12 e3 46 3d
       -0.30565894 -0.20212439 -0.005075911 0.048556395
0000c0 4c ff 79 be 3a a6 7f be 3e 37 dc 3d 10 68 75 be
       -0.24413794 -0.24965754 0.10752724 -0.23965478
0000d0 94 45 61 3e 8a d8 2a 3e 94 17 14 3d d5 e9 9b be
       0.21999198 0.16684166 0.0361553 -0.30451837
0000e0 19 ac 8b 3e 5b 6e 85 be 76 a4 03 3e a8 60 0d be
       0.27279738 -0.26060757 0.12855706 -0.13806403
0000f0 b8 53 83 3e f4 e7 9b be 89 30 50 be b4 d8 34 be
       0.2564981 -0.30450404 -0.20331015 -0.1766079
000100 47 6f 67 3d 19 4c b8 bd 22 43 b5 bd b8 4a 7f bd
       0.056502607 -0.089988895 -0.08850695 -0.062327117
000110 12 db 9e 3e c4 de 0d be ad a6 2e 3d 80 f0 a8 3e
       0.31026512 -0.1385451 0.042639423 0.32995987
000120 d1 46 59 3e cd d1 fc 3d 1a ed 88 be 7c 33 7e 3e
       0.2121842 0.12344704 -0.26743394 0.24824327
000130 c8 c5 69 be 4f 44 63 be e7 ca a2 be bf 3a 7f be
       -0.22829354 -0.22194026 -0.31795427 -0.24924754
000140 85 40 81 3e a3 28 6f be 3e ba ae 3e bc 09 18 bc
       0.25244537 -0.23355345 0.34126467 -0.009279665
000150 e2 ef 3d 3d ef 0c 73 3e 0a 5f 02 3e 9c 19 b9 bd
       0.04637135 0.23735403 0.12731567 -0.09038088
000160 0e 48 9f 3e e0 82 69 be 7b 7e 99 3e 2f c4 5f 3e
       0.3110966 -0.22803831 0.2997931 0.21852182
000170 06 2d b6 3a 34 66 9c be 60 1a 80 bd 3c 91 8f 3e
       0.0013898916 -0.30546725 -0.06255031 0.28040493
000180 82 54 36 3d 5e d7 71 3d 12 05 46 3e d2 5d 2e 3e
       0.044514187 0.05904328 0.19337872 0.17027977
000190 1e b3 66 bc e3 cd 77 3e 71 68 4c 3e 91 14 ce bd
       -0.014080791 0.24199633 0.19961716 -0.100625165
0001a0 a9 bd 0e be 39 a8 24 3e 73 a4 6e be 28 62 42 be
       -0.13939537 0.16079797 -0.2330492 -0.18982756
0001b0 ee 1a 79 3e 86 db 1e 3c 91 6e 94 bc 86 df 64 be
       0.24326679 0.009695893 -0.018119128 -0.22350892
0001c0 74 7f 17 be 74 71 4a be 6b 88 3c be ab c2 23 be
       -0.14794713 -0.19769841 -0.18411414 -0.15992229
0001d0 f1 17 1e 3e bd 17 c3 3e ce 5c 79 3e 28 03 32 3e
       0.1543882 0.38104048 0.24351808 0.17384017
0001e0 7a cc 08 3d 52 61 c4 3e 76 22 85 3e b6 58 c4 bc
       0.03339813 0.383555 0.26002854 -0.023968082
0001f0 a3 48 91 be 85 69 80 be 0d 20 e2 3c 26 a8 39 3d
       -0.2837573 -0.25080505 0.027603174 0.045326374
000200 b9 6d 1a 3e 27 ea a8 bd 86 f0 38 be 76 98 bb 3d
       0.15080918 -0.08247786 -0.18060502 0.09159939
000210 70 e6 a3 3d 6f 82 6c 3e 10 b4 a9 3a 28 58 9c 3e
       0.08002937 0.23096631 0.001294734 0.30536008
000220 48 12 33 3e 68 61 91 bd 50 34 c0 bd 15 c8 10 be
       0.17487442 -0.07098657 -0.09384978 -0.14138825
000230 24 19 d5 bd 5f b1 84 3e 7e 99 af bd 42 0c f0 bc
       -0.10405186 0.25916573 -0.08574198 -0.02930272
000240 85 36 b5 3d 45 c1 6e be 5a 9a a2 bd 9e 1a 9f be
       0.088482894 -0.23315914 -0.079395965 -0.31074995
000250 dd 4a 3e be f4 04 84 be 25 b0 21 be a6 87 5d 3e
       -0.18583246 -0.2578503 -0.1578985 0.21633777
000260 87 ae c4 bd 00 64 03 be 99 6d 17 3e 5b b9 19 3e
       -0.09603601 -0.12831116 0.14787902 0.15012114
000270 9f 19 97 3e ef 37 1b be 69 a9 0e be af 95 04 be
       0.29511735 -0.15158056 -0.13931812 -0.12947725
000280 0a b0 9b bd 58 75 87 be 99 da 1e 3d bb 01 e0 bc
       -0.07601936 -0.26456714 0.03878269 -0.027344575
000290 8d 70 76 be 28 e6 e0 3d 02 c0 25 be 0e 50 70 3e
       -0.24066372 0.10981399 -0.16186526 0.23468038
0002a0 59 92 2a bc 87 05 78 be a7 bf 8f 3d f3 9e 69 bd
       -0.010410869 -0.24220859 0.07018977 -0.05703635
0002b0 92 c3 53 be 30 6a 82 be 0b 30 4c 3d c5 36 dc 3d
       -0.20680073 -0.2547164 0.049850505 0.10752634
0002c0 7e 32 d5 bd cc 2c 14 be b7 a4 4e 3d b4 5e 90 3d
       -0.10410021 -0.14470214 0.050450053 0.07049313
0002d0 58 ad 50 3e 42 f9 1b be a7 65 1d 3a c7 0a 03 be
       0.20378625 -0.15231803 0.0006004222 -0.1279708
0002e0 13 7e d7 bc 70 95 9e 3c 51 f0 0e bd 31 84 7c 3e
       -0.026305234 0.019358367 -0.034897152 0.24659802
0002f0 61 53 bd bd 74 dc 63 be f3 3f 7c 3d 3f 5b 06 3e
       -0.09244419 -0.22252065 0.061584424 0.13120745
000300 23 2a 69 be ba 70 22 be 1a 19 30 be 1a 6d 3d be
       -0.2276998 -0.15863314 -0.17197075 -0.1849865
000310 88 60 4c bd 83 27 83 3e 8c 1b 11 bd 54 92 35 3e
       -0.049896747 0.25616083 -0.03542666 0.17731601
000320 1d f6 7a 3e 5f 09 ed bd da e3 b7 3e 93 09 bc bd
       0.24507947 -0.11574053 0.35916024 -0.09181514
000330 73 4a 93 3d 55 04 6b bd 85 fe 6b 3d 31 1a 96 3e
       0.071919344 -0.05737718 0.057615776 0.29316857
000340 c8 30 3f 3d 96 05 30 3d 47 83 4b be c6 8b 54 be
       0.04667738 0.042974077 -0.19874297 -0.20756444
000350 f0 dd ce 3d 4b 10 3a be 67 8a cc 3d 66 3d 37 be
       0.10100925 -0.18170278 0.09987336 -0.17894515
000360 46 d1 7b 3e 5e 42 91 3e 33 f5 df bd 4a c1 c5 3d
       0.2459155 0.28370947 -0.1093544 0.096560076
000370 7c 1a 49 3e e1 43 82 bc 50 5f ce 3d 85 1a 30 be
       0.19639009 -0.015901508 0.10076773 -0.17197616
000380 2b b4 37 bd cf fc d9 3c aa e8 ff 3d 27 e9 97 3d
       -0.044849556 0.026609806 0.12495549 0.07417517
000390 97 94 97 3e 00 4b 33 3d 12 30 24 bd 07 08 12 bd
       0.29605553 0.043772697 -0.040084906 -0.035652187
0003a0 e1 d0 2f 3d 2f 0a 47 3e 0c 69 3c 3e b7 05 a5 3d
       0.04292381 0.19437478 0.18399447 0.08057731
0003b0 b1 15 4f bc 65 3e 76 3e 86 aa 15 3e 1b ae 49 bd
       -0.012639449 0.24047239 0.14615831 -0.049238306
0003c0 8e d3 1b 3b 6f 60 02 3c 77 8d 92 be d0 dd 05 bd
       0.002377722 0.007957562 -0.28623554 -0.03268224
0003d0 1b fe 8a be 5d ac 30 3c 5c 5b 98 3d 7e 38 01 3e
       -0.27146992 0.010783282 0.074393004 0.12619206
0003e0 ad 6e 95 3c 06 69 28 be ff 4d 29 3e f5 15 51 3e
       0.01824125 -0.16446313 0.1653366 0.20418532
0003f0 dd cb 11 3d 9b 36 91 be 47 56 94 3e db 54 f6 bd
       0.03559481 -0.28361973 0.28972074 -0.12027904

conv_layers.1.att_dst f4 [1, 4, 64]
000000 3e 6b aa bd 6d 72 44 3e 35 81 95 3e a6 7d 22 3e
       -0.08321236 0.19184275 0.2920014 0.15868244
000010 c0 05 f0 bd 19 0a 58 be 08 03 02 be 12 bc f9 3d
       -0.11719847 -0.21097602 -0.12696469 0.12194075
000020 ae 0f cc bb 51 73 4a 3c 04 16 00 bd 94 33 1c be
       -0.006227455 0.012356595 -0.031270996 -0.1525405
000030 fa 7f 26 3d 47 07 40 be 67 18 b4 3d 1f 7a 09 3e
       0.04064939 -0.18752776 0.08793717 0.13425492
000040 ee 27 3e 3e 48 14 27 3d 6d be 87 3e 86 15 14 be
       0.1856992 0.040790826 0.2651247 -0.14461336
000050 a7 4f d4 bd ef 17 23 be 02 bb 9f 3c 45 6a af bd
       -0.10366755 -0.15927099 0.019498352 -0.08565191
000060 36 9e 53 3e c3 f6 29 bd 8c c5 13 be a8 1b 80 3d
       0.20665821 -0.041495096 -0.14430827 0.06255275
000070 cd e1 5b bc 52 96 39 3e 8b 2f 1c be a3 e9 bc 3e
       -0.013420534 0.18123749 -0.15252511 0.36897
000080 8b 47 a8 bb 13 77 c7 be 14 ce e9 3d fc 93 3a 3d
       -0.0051354817 -0.38958034 0.114162594 0.045551285
000090 fa 06 7f bd f0 ee 4c be 49 b0 d2 3d bc 2c 24 3e
       -0.062262513 -0.20013022 0.1028753 0.1603269
0000a0 29 fd 7a be d8 98 1b 3e 1c 23 a0 be 34 be 2c be
       -0.24510635 0.15195024 -0.31276786 -0.16869432
0000b0 4c 41 a3 3e a1 df 77 3e dd a8 1a 3e 8c 2a 5c bd
       0.31885755 0.24206401 0.15103479 -0.053751513
0000c0 a2 a7 5a be a5 41 35 3e 43 52 fa bd de 6d 57 3d
       -0.2135301 0.17700823 -0.122227214 0.052595012
0000d0 27 dd 95 be 0c 05 48 be 7b 4f 08 be 0b d7 f2 bd
       -0.29270288 -0.19533175 -0.1331157 -0.118574224
0000e0 a9 5a c3 bd 05 ad 62 be 93 a2 34 3e 7f 21 80 be
       -0.095387764 -0.22136314 0.17640142 -0.25025555
0000f0 d5 50 18 be d5 6e 06 be 63 f0 b6 3e 69 eb 5b be
       -0.14874585 -0.13128217 0.35730276 -0.2147652
000100 ad 15 47 3e fc f0 59 be a4 60 d7 bd 10 ea da 3d
       0.19441862 -0.21283334 -0.105164796 0.10689175
000110 71 0b 68 bd fd 5e 80 3e 2c b4 30 3d 93 7b 22 3e
       -0.056651536 0.2507247 0.043140575 0.15867452
000120 b8 dc ab be bc bb af bc 30 53 85 3e 83 29 10 be
       -0.33566833 -0.021451823 0.2604003 -0.14078335
000130 ff 18 89 be 95 e5 f9 3d 0b 0c 2c bd b4 53 f3 3d
       -0.26776883 0.122019924 -0.042003673 0.118811995
000140 8d b8 02 3e 6c ef 5a 3e 01 f1 6c 3e 71 df 19 be
       0.12765713 0.21380395 0.2313881 -0.15026642
000150 dd d0 6a be ae f3 72 3d a5 a5 8c bd 80 57 e7 bc
       -0.22931238 0.059314422 -0.06867532 -0.028239965
000160 f1 68 5d be ee ee 3e 3e c5 1e 4c 3e 7b 67 d9 be
       -0.21622063 0.18645832 0.19933613 -0.42461762
000170 8d 2a b9 bd 5e b4 2f be 7e a9 2c be e5 d8 5c bd
       -0.09041319 -0.17158648 -0.16861531 -0.053917784
000180 d4 e1 ca 3d d0 e6 01 3d 23 ac b2 be 32 0d 11 be
       0.099063545 0.03171426 -0.34896955 -0.1416519
000190 2c 96 04 3e 11 4e 61 3e 11 da 9f be b0 00 27 be
       0.12947911 0.22002436 -0.3122106 -0.16308856
0001a0 95 13 28 3d 5c 17 3c be 82 ca 43 3e 17 39 60 3e
       0.0410343 -0.18368286 0.1912022 0.21896778
0001b0 fe fe 60 be b0 ae 9c 3e 01 89 45 bd 82 72 11 3e
       -0.21972272 0.30602026 -0.04822636 0.14203838
0001c0 dc 29 82 3e d7 a1 51 be 18 2e 6d 3e 96 77 94 3e
       0.2542256 -0.20471893 0.23162115 0.28997487
0001d0 79 40 c7 bc 5e 9e b6 bd 1c 88 01 3e 62 2d 81 3c
       -0.024322735 -0.08916925 0.12649578 0.01576871
0001e0 2c 09 0b 3d c7 60 43 3e a5 c7 8e 3d 41 ac 0e be
       0.033944294 0.19079886 0.06971673 -0.13932897
0001f0 eb e0 39 3d 11 9e a3 3e 9d 71 8d be cb 43 88 be
       0.045380514 0.31956533 -0.27625743 -0.26614222
000200 7a 2e 4d 3e 74 68 94 be b2 c4 86 be df af 81 3d
       0.2003726 -0.2898594 -0.26321942 0.06332373
000210 89 93 82 3e dc e8 09 3e 9e 41 15 be 74 ea d4 bd
       0.25503185 0.13467735 -0.14575812 -0.10396281
000220 12 ff 8e be 15 e3 a9 3e 7c f2 33 bd ce 73 11 3e
       -0.27928978 0.33181062 -0.043932423 0.14204332
000230 81 10 43 bd 8c b4 e0 bd ce c3 0c 3e fc fb 65 3e
       -0.04762316 -0.109719366 0.13746569 0.22459406
000240 50 54 8f 3e 87 80 7a 3d c5 f3 5a 3e 68 8a 7a 3d
       0.27994013 0.06115773 0.21382053 0.06116715
000250 45 07 4d be e5 83 95 bc 5c 9d 93 bd db 27 47 be
       -0.20022304 -0.018251369 -0.07207748 -0.19448797
000260 c4 35 64 be f5 d7 90 be d5 6e 36 3e 81 67 26 3e
       -0.22286135 -0.28289762 0.17815717 0.16250421
000270 a5 26 43 3e 25 53 50 be e4 bd 14 3e f4 8d 27 3e
       0.1905771 -0.20344217 0.14525563 0.16362745
000280 23 00 85 bc a9 e8 67 be 14 1e 13 3e 72 bf 5c 3e
       -0.016235417 -0.22647347 0.14366943 0.21557406
000290 b3 4d 89 be d1 a7 e2 bc 31 16 c1 bd 81 6c 79 be
       -0.26817092 -0.027667912 -0.09428061 -0.24357797
0002a0 c9 37 49 be 82 42 92 3e b5 6c 7f 3e 0b 3c 3d bd
       -0.19650187 0.28566366 0.24943812 -0.04619984
0002b0 9a d3 59 be a9 d8 ab bd b1 3a 8d 3d a6 e1 6c be
       -0.21272126 -0.08390934 0.0689596 -0.23132953
0002c0 dd ff 9b 3e 87 1d 2a be d0 78 70 be 49 66 48 3e
       0.30468646 -0.16612826 -0.23483586 0.19570269
0002d0 d5 33 70 3d df 24 32 be 39 70 a0 3d 9e 3d 38 3e
       0.05864318 -0.17396878 0.07833905 0.17992255
0002e0 9d 35 6b bd 6e 3c 3b be a7 ff c1 3d 79 df 54 be
       -0.057424176 -0.18284771 0.0947259 -0.20788373
0002f0 f2 d5 fc 3c db 2f 1c be 06 29 a8 3d 57 77 2b be
       0.030863736 -0.1525263 0.082109496 -0.16744743
000300 88 41 31 bd fd 0e 8b be d1 b3 e8 3d 2d bf 56 be
       -0.043275386 -0.27159873 0.11362422 -0.20971365
000310 30 43 49 bc 6f 8e 2a be bb d9 c7 bc 2b c9 88 3c
       -0.012284085 -0.16655897 -0.024395814 0.016697487
000320 db 45 ab be f9 5c dd bd ad f4 5f 3d fb b3 3f 3e
       -0.33451733 -0.10808749 0.0546767 0.18721001
000330 64 f5 11 3e ba 7c 1b 3e 0d 9b 8b be a0 18 3f 3e
       0.14253765 0.15184298 -0.27266732 0.18661737
000340 6b 8b 53 be 8d 52 d8 bc 58 13 81 3e fd 35 c7 bd
       -0.20658652 -0.02640655 0.2521007 -0.09727094
000350 02 b3 a7 be cd e6 70 3e 29 63 c4 3d 37 a5 74 3e
       -0.3275376 0.23525544 0.09589226 0.2389115
000360 40 81 8b be ba c2 ae bd 62 0f 3c bd a0 e2 0e 3e
       -0.27247047 -0.08533235 -0.045913108 0.13953638
000370 29 1e a2 3e f6 a0 29 be c7 20 26 be 61 7c b8 3e
       0.31663635 -0.16565308 -0.16223441 0.36032394
000380 36 31 3b 3e 96 c4 87 3e 0d cf dc bd eb 38 72 3e
       0.18280491 0.2651717 -0.10781679 0.23654525
000390 51 96 4b 3e 86 90 a9 bd 22 c6 6c bd ae 5e 36 3e
       0.1988156 -0.08279519 -0.05780614 0.17809555
0003a0 a3 65 29 be 70 cd 39 bd 9c 2b 9c bd 14 4c be bc
       -0.16542678 -0.045361936 -0.07625505 -0.023229636
0003b0 c1 12 45 be f5 9d b0 3e 0e 62 a5 3d e7 d6 be bd
       -0.19245435 0.34495512 0.08075343 -0.09318333
0003c0 cc 36 44 be 78 dc c2 3d d8 e3 7f bd f6 1e 80 3d
       -0.19161528 0.09514707 -0.062473148 0.06255905
0003d0 ff 52 97 3d 98 bc d8 3d a8 48 28 be 22 dc 27 be
       0.07388877 0.105828464 -0.16433966 -0.16392568
0003e0 26 02 81 be f5 64 94 3e 6e e7 2c be 64 42 43 3e
       -0.25196952 0.28983274 -0.16885158 0.19068295
0003f0 d3 7e 2e be 06 2f ec 3d 53 b8 31 3d d7 57 76 3e
       -0.17040567 0.115324065 0.043388676 0.24056946

conv_layers.1.bias f4 [256]
000000 97 11 e3 38 6a 4b be b8 84 ee 6c b8 e6 13 e9 38
       0.0001082748 -9.073953e-05 -5.648892e-05 0.00011114012
000010 53 a4 0d b9 40 cd 15 b9 b5 2d 3f b7 20 3a 4c 39
       -0.00013508023 -0.00014286209 -1.1395129e-05 0.0001947661
000020 7e 6f a6 b9 5b b1 06 39 99 b3 f1 38 52 4e 1f b9
       -0.00031745055 0.00012845306 0.00011525228 -0.00015192598
000030 29 95 44 38 0c ba 07 39 1a 71 a2 b8 e8 94 1f b9
       4.6868958e-05 0.00012943911 -7.745829e-05 -0.00015218894
000040 63 8e 09 b9 47 93 9b 37 03 af 05 37 ad 61 02 b9
       -0.00013118381 1.8546021e-05 7.968166e-06 -0.00012434153
000050 85 84 81 b9 d3 af ac 38 01 12 7a 39 7b 44 33 38
       -0.00024703532 8.234349e-05 0.00023848565 4.2740703e-05
000060 b4 86 d2 b9 ce fb b2 38 3f 44 08 b8 64 bc 29 39
       -0.00040154683 8.534604e-05 -3.2488486e-05 0.00016187277
000070 ea a6 38 38 85 53 69 39 0a 9a 26 39 3b 6c 9a b6
       4.402447e-05 0.00022251725 0.00015888378 -4.6021573e-06
000080 15 6f 07 b9 8a 8a f3 b9 fa 96 55 b9 56 17 fd 38
       -0.00012915985 -0.0004645179 -0.00020369506 0.00012068327
000090 05 a9 31 38 43 f7 d6 38 cf 82 b8 b8 c2 ab 69 b7
       4.23575e-05 0.00010250371 -8.798169e-05 -1.3927873e-05
0000a0 e4 68 a8 38 76 46 64 38 26 a2 06 39 b7 90 14 3a
       8.030402e-05 5.4425058e-05 0.00012839641 0.0005667316
0000b0 5b 33 95 b8 44 aa cb b8 b9 f7 63 b9 24 e6 35 b9
       -7.114439e-05 -9.711509e-05 -0.00021740691 -0.00017347239
0000c0 95 06 7a b8 94 43 85 39 73 23 47 39 85 78 c4 b8
       -5.9610775e-05 0.00025418086 0.00018991325 -9.368457e-05
0000d0 25 94 1e 39 e6 10 57 b8 99 74 a0 38 29 c7 62 b8
       0.00015123242 -5.1275732e-05 7.6511125e-05 -5.406808e-05
0000e0 59 13 f8 b7 99 1f cd 38 48 8c 08 38 74 c2 d9 38
       -2.9572913e-05 9.781047e-05 3.2555574e-05 0.00010383586
0000f0 aa 31 74 39 59 96 c8 b8 d0 73 ab 38 c0 0f b2 37
       0.00023288155 -9.5647476e-05 8.175487e-05 2.1226588e-05
000100 d5 e4 1b 39 3a 0f 3f 39 e3 28 4b 38 b2 80 ab b8
       0.00014867198 0.00018220852 4.843705e-05 -8.177887e-05
000110 f0 4c 8f 39 2f 5f d2 38 72 fa cf b8 e1 7d 99 38
       0.00027332408 0.0001003131 -9.917178e-05 7.319055e-05
000120 a3 47 2e b9 0b 45 61 38 dc 55 b3 38 88 9a aa 38
       -0.0001662062 5.370848e-05 8.551378e-05 8.1350154e-05
000130 21 7a d8 38 88 72 80 b9 87 01 42 b8 a6 3a db b7
       0.00010322431 -0.00024499395 -4.6254627e-05 -2.6134145e-05
000140 c6 45 43 38 a5 90 87 b8 05 ca e5 b8 67 82 65 38
       4.6556605e-05 -6.464244e-05 -0.000109572 5.47193e-05
000150 20 f8 f8 b7 0e 08 a1 b7 44 a3 01 b9 7c 17 fa b8
       -2.9679446e-05 -1.9196446e-05 -0.0001236322 -0.00011925303
000160 12 1c 17 ba 73 83 b5 38 94 d7 96 b8 2c e2 3d b5
       -0.00057643757 8.655237e-05 -7.192712e-05 -7.073711e-07
000170 d1 c6 98 b6 8d fb 56 b9 ec 9f ee 38 68 1c 44 39
       -4.5530983e-06 -0.0002050234 0.00011378512 0.00018702599
000180 d9 95 63 37 c2 88 e2 b8 8a 23 d4 b8 40 28 f2 b8
       1.35651435e-05 -0.00010801993 -0.000101155674 -0.000115469564
000190 4a c6 4c b9 ea 39 ee b8 31 a9 e3 38 ac f3 50 38
       -0.00019528824 -0.00011359512 0.00010855718 4.9818e-05
0001a0 5b 9e 29 b8 fa 92 58 39 c8 b0 f6 b8 1c d6 bc 38
       -4.044022e-05 0.00020654118 -0.00011763122 9.0044196e-05
0001b0 d6 33 62 b8 96 81 37 39 02 46 50 b9 cc 7c f0 b7
       -5.3930875e-05 0.00017500515 -0.00019862506 -2.8668343e-05
0001c0 03 d6 1d 3a f7 ff ae b5 03 0b 82 b7 84 e1 f1 37
       0.0006020965 -1.3038506e-06 -1.5502335e-05 2.8834453e-05
0001d0 d1 e1 89 b9 f9 32 a8 39 f5 51 a0 b9 42 19 02 b8
       -0.00026298923 0.00032081435 -0.0003057864 -3.101794e-05
0001e0 09 99 f9 36 3c 06 f2 b9 51 e8 a0 b9 17 bc 82 39
       7.438594e-06 -0.00046162482 -0.00030690667 0.0002493567
0001f0 f1 ff 02 b9 fb 8e c0 38 d7 ba a9 b8 91 02 4e 39
       -0.00012493112 9.1819056e-05 -8.0933496e-05 0.00019646647
000200 fb b0 f1 b8 1e 6f 83 39 42 ff 58 39 d9 cf b6 37
       -0.00011524741 0.00025069056 0.00020694456 2.1792877e-05
000210 6a d5 91 38 24 32 7f b2 df 55 e9 b7 9f bf 3d 38
       6.95389e-05 -1.4854354e-08 -2.7815751e-05 4.5239573e-05
000220 09 63 35 38 87 16 aa 38 d0 69 f5 b7 03 bc 00 b7
       4.3245996e-05 8.110428e-05 -2.9255549e-05 -7.673169e-06
000230 1e 94 31 b9 3f 94 0b b9 8c 00 20 b8 03 8d 2a b9
       -0.00016935213 -0.00013311299 -3.8147482e-05 -0.00016264994
000240 5c 58 8d 39 a4 45 2d 37 e4 b0 5d b8 49 10 a2 b7
       0.0002695945 1.0327818e-05 -5.285525e-05 -1.9319488e-05
000250 54 c6 0a 38 3f d9 8a 38 a7 a2 97 b9 ca 84 b9 38
       3.308647e-05 6.620818e-05 -0.0002892215 8.846221e-05
000260 2f ac 77 39 48 14 e4 b7 17 c0 b0 b7 30 58 7d b8
       0.00023619899 -2.7189162e-05 -2.1070284e-05 -6.040203e-05
000270 78 60 3b b7 0e 23 fd b7 18 5a 69 b7 89 91 99 b8
       -1.1168529e-05 -3.0176274e-05 -1.3908859e-05 -7.3227166e-05
000280 9f a7 20 b8 d2 37 1d 39 f6 e2 c1 38 7c 51 ca b8
       -3.8303082e-05 0.00014993481 9.245232e-05 -9.647288e-05
000290 c7 b7 29 39 66 48 93 39 72 a0 21 39 47 6d 89 34
       0.00016185558 0.00028091966 0.00015413927 2.5597748e-07
0002a0 61 c0 5d 39 38 3e ea 37 d9 34 af 38 52 62 83 b8
       0.00021147869 2.7923947e-05 8.354494e-05 -6.26488e-05
0002b0 a5 1c 15 b8 3a 9a a1 b8 00 d8 c4 38 68 28 1a b9
       -3.5551046e-05 -7.705805e-05 9.3862414e-05 -0.00014701637
0002c0 52 ab 61 b8 52 12 92 b7 ed 17 5b b9 83 d4 40 39
       -5.3803735e-05 -1.7413087e-05 -0.0002089438 0.00018389714
0002d0 db 29 d9 b8 bf fe 43 39 ad 10 e4 b8 63 f7 0b 39
       -0.000103551625 0.0001869155 -0.00010874993 0.00013348232
0002e0 62 4b 07 b9 e3 49 0d 39 76 4c f8 b8 f9 3d 6d 38
       -0.00012902686 0.00013474333 -0.000118398035 5.656292e-05
0002f0 46 f7 e6 39 a5 e0 e1 37 ed 5c 33 b7 1b 55 ab 38
       0.00044053252 2.6926698e-05 -1.0690867e-05 8.1697675e-05
000300 ac b0 41 39 fc 55 c0 b8 e6 ae 8c b8 08 e3 3b b8
       0.0001847173 -9.171289e-05 -6.7082976e-05 -4.4795714e-05
000310 84 58 7f b7 17 6b 91 38 57 51 04 38 92 75 9e 37
       -1.5219794e-05 6.934086e-05 3.1547006e-05 1.8889816e-05
000320 22 b9 84 39 c1 54 c9 b7 e8 7a 46 39 66 94 17 38
       0.00025314937 -2.4000534e-05 0.00018928538 3.6139412e-05
000330 a6 1f 06 39 61 bf 36 b8 b0 34 f5 b8 22 cb 51 39
       0.00012791026 -4.3570417e-05 -0.00011692324 0.00020007466
000340 75 29 9a b7 60 9b 29 39 3f ea 7d b7 27 e5 b5 38
       -1.8377536e-05 0.00016174978 -1.5134515e-05 8.6734355e-05
000350 cd d1 81 38 dd 76 c0 b8 0c 68 09 37 43 f3 c3 37
       6.190278e-05 -9.1774134e-05 8.190062e-06 2.3359089e-05
000360 b5 b4 81 38 14 ff 9f 36 76 a5 ee 36 76 0a c1 38
       6.184859e-05 4.7682643e-06 7.112215e-06 9.204906e-05
000370 23 bb 52 39 70 06 4b 39 86 29 9f b8 74 af b4 38
       0.00020096875 0.00019361987 -7.589445e-05 8.6157495e-05
000380 cb 5a 46 b9 51 7b f2 38 6b d3 53 b7 29 60 38 38
       -0.00018916574 0.00011562429 -1.2625805e-05 4.3958575e-05
000390 9b 9e 35 b6 5b 19 32 b8 2f b7 10 38 62 10 55 b9
       -2.7063422e-06 -4.246212e-05 3.450288e-05 -0.00020319366
0003a0 e1 28 41 b8 bf 25 a8 37 6f 74 8a 39 7c 58 5a b9
       -4.6052857e-05 2.0044738e-05 0.0002640816 -0.00020823063
0003b0 3e be ab 38 da 73 4e 39 7a 8c 18 b9 2d 00 0a 38
       8.189351e-05 0.00019688849 -0.00014548181 3.2901928e-05
0003c0 26 63 97 37 1b dd 35 b9 01 45 19 39 b7 5e 04 39
       1.8046772e-05 -0.00017343873 0.00014616923 0.00012623785
0003d0 bc 9d 4f b7 ca 78 8c b8 5c 74 da 38 40 7d 32 b8
       -1.2374887e-05 -6.698219e-05 0.00010416724 -4.2555155e-05
0003e0 a2 90 4e 38 63 a2 d7 b9 54 d6 fe 37 2f cb 74 b8
       4.9248927e-05 -0.00041128983 3.0378964e-05 -5.8363363e-05
0003f0 ff 70 64 b9 ac 25 1d b6 cc 3d c6 b8 1e 63 1e b7
       -0.00021785869 -2.341675e-06 -9.452886e-05 -9.440611e-06
