models/gnn_fold_3.pth (torch, 959138 bytes, 45 tensors)

conv_layers.0.att_src f4 [1, 4, 64]
-0.16408516 0.23897192 0.2508939 -0.2563564 -0.16063152 0.12528634 0.3154888 -0.26734388
-0.009539049 0.3808079 -0.10303261 0.02840337 -0.10481264 -0.003364416 -0.22932106 0.044682544
-0.18940932 0.0013796564 -0.22111993 -0.12737407 -0.25525525 0.034384057 -0.16976593 0.026662933
0.020748036 -0.18973644 0.18980156 -0.13780062 -0.008326028 -0.06886282 0.2588148 0.19875872
-0.15283348 -0.02468776 0.23563258 -0.20645058 -0.19678107 -0.25730333 -0.18700562 -0.12675065
0.0027211548 -0.22576752 -0.05409285 0.061608218 -0.19143245 0.0005672933 -0.1004547 -0.40829915
0.26277122 0.050346732 -0.21089663 -0.17526737 -0.009951202 -0.014480777 0.064648055 0.017363744
-0.014832973 0.09058295 -0.13042545 0.17183994 0.11903711 -0.09433965 0.0031418349 -0.031836327
-0.2755049 0.043223538 0.07145972 -0.12566902 0.103484124 -0.095445774 -0.06730787 -0.14100856
0.07003648 0.14766346 0.17721237 0.39602754 0.10873093 -0.2100013 -0.29757836 0.21204698
-0.23570406 0.23606956 -0.0025827982 -0.08542511 -0.11579672 -0.25080937 -0.26266012 0.14829212
0.2323052 0.08445869 0.00447367 0.012111227 0.23904315 0.009108783 -0.15452458 -0.25692427
0.19647896 -0.22108963 0.18063982 -0.004376602 0.13631831 -0.16554753 0.39099434 0.011099547
-0.16677947 0.124864064 0.14563324 0.1169671 -0.06606012 -0.059701696 -0.056162704 0.13546416
-0.19833721 0.1234049 0.009732427 0.18592505 0.0266023 0.35277373 -0.1338221 -0.11042978
-0.04962729 -0.07111089 -0.3813101 -0.115591876 -0.08985194 0.21194896 0.053056512 -0.3409011
0.019517869 0.10631299 0.06689874 0.066919476 -0.04544435 0.16191763 0.09610671 0.14938642
0.27976668 0.22070798 0.22574523 -0.14323783 0.00026277543 -0.15143396 0.17201355 0.110982716
-0.2042423 0.07762341 -0.12076909 -0.11357237 -0.10352121 -0.049225736 -0.20689657 -0.04981498
-0.21418153 0.15183756 -0.068920225 0.055654094 0.071336314 -0.089786105 -0.06226413 0.25480342
0.16491854 0.2300137 0.2999873 -0.056078147 -0.23854874 0.2079869 0.08666591 -0.14107627
0.0504719 0.16737717 -0.24041575 -0.27004623 -0.009759976 0.15417197 0.07807623 -0.4013937
0.31465387 -0.31697586 -0.08526226 0.20072839 -0.1258443 -0.029275654 0.0036769465 0.17023914
0.11817442 0.043164946 -0.09735509 -0.1477516 -0.0931824 0.098488584 -0.2686301 0.07793987
0.39147958 -0.039786793 0.08931806 -0.04230701 -0.03311259 -0.06689153 -0.21016186 0.12663856
-0.12606035 0.100323774 0.3550581 0.03979293 0.029270869 0.1298349 -0.031588685 0.3400091
-0.10671037 0.22021112 0.20827879 0.011441981 -0.38265207 0.25868225 0.033098277 0.0050815907
-0.08786133 0.18076359 0.16279025 -0.16263361 -0.25692594 -0.12794417 0.004049631 -0.093030244
-0.08111485 0.22347726 -0.3173421 -0.17648573 -0.04575909 0.061076824 0.10922865 -0.34179762
-0.18704909 0.11730567 -0.30095693 -0.17494896 -0.025656804 0.08019172 -0.16377369 -0.12221092
-0.092185035 0.3168135 0.03528063 0.0344208 -0.017229222 -0.16859284 0.019317197 -0.21295536
-0.2445575 0.108776584 0.17887159 -0.19152822 0.08185119 0.4618791 0.44666812 -0.09175701
00000000: f105 28be 0eb5 743e 2a75 803e 2541 83be
00000010: 977c 24be 104b 003e bf87 a13e 4ce1 88be
00000020: ac49 1cbc 41f9 c23e c302 d3bd 2fae e83c
00000030: 02a8 d6bd 897d 5cbb 24d3 6abe 0b05 373d
00000040: 84f4 41be 96d5 b43a 436d 62be 596e 02be
00000050: d1b0 82be 4cd6 0c3d 1fd7 2dbe 396c da3c
00000060: c9f7 a93c 454a 42be 575b 423e 9b1b 0dbe
00000070: e469 08bc f307 8dbd 6083 843e 6887 4b3e
00000080: 6180 1cbe fc3d cabc ab49 713e c867 53be
00000090: fa80 49be 43bd 83be 677e 3fbe ecca 01be
000000a0: 6755 323b 9a2f 67be 7790 5dbd e658 7c3d
000000b0: de06 44be 69b6 143a 32bb cdbd 960c d1be
000000c0: f389 863e 6038 4e3d 49f5 57be 4a79 33be
000000d0: 5e0a 23bc c840 6dbc 3366 843d 693e 8e3c
000000e0: ff05 73bc 8e83 b93d 408e 05be cff6 2f3e
000000f0: bac9 f33d 2535 c1bd 3ee7 4d3b cf66 02bd
00000100: fa0e 8dbe 2a0b 313d 7959 923d 61af 00be
00000110: 7cef d33d 1379 c3bd b5d8 89bd 8c64 10be
00000120: 496f 8f3d 1735 173e 2977 353e 1fc4 ca3e
00000130: 52ae de3d 950a 57be 315c 98be d822 593e
00000140: 685c 71be 38bc 713e 2a44 29bb 5cf3 aebd
00000150: d526 edbd 166a 80be 637b 86be e4d9 173e
00000160: 6ae1 6d3e adf8 ac3d dd97 923b 2b6e 463c
00000170: bac7 743e 013d 153c b13b 1ebe 948b 83be
00000180: c831 493e 5265 62be a5f9 383e 9969 8fbb
00000190: 0797 0b3e 4b85 29be 6930 c83e e0da 353c
000001a0: 3dc8 2abe bbb8 ff3d e120 153e 728c ef3d
000001b0: 874a 87bd c489 74bd dd0a 66bd 1eb7 0a3e
000001c0: e918 4bbe b5bb fc3d c274 1f3c 2363 3e3e
000001d0: 11ed d93c c29e b43e a908 09be 0229 e2bd
000001e0: fc45 4bbd 96a2 91bd 143b c3be 6fbb ecbd
000001f0: 4b04 b8bd 2609 593e c951 593d 978a aebe
00000200: f0e3 9f3c a0ba d93d 3502 893d 140d 893d
00000210: db23 3abd bccd 253e 98d3 c43d c1f8 183e
00000220: 943d 8f3e 4601 623e c229 673e f0ac 12be
00000230: 1fc5 8939 8111 1bbe 5224 303e e84a e33d
00000240: e524 51be 06f9 9e3d c955 f7bd a198 e8bd
00000250: ee02 d4bd eda0 49bd b2dc 53be cb0a 4cbd
00000260: 6752 5bbe 4e7b 1b3e 0c26 8dbd 8cf5 633d
00000270: c618 923d c7e1 b7bd ac08 7fbd 9875 823e
00000280: 68e0 283e b688 6b3e ef97 993e 33b2 65bd
00000290: 1f46 74be 85fa 543e e67d b13d 4c76 10be
000002a0: 9fbb 4e3d ec64 2b3e 8c2f 76be 8043 8abe
000002b0: 4ee8 1fbc 42df 1d3e 6ee6 9f3d 7a83 cdbe
000002c0: 501a a13e a94a a2be fb9d aebd be8b 4d3e
000002d0: 54dd 00be 7fd3 efbc edf8 703b 2b53 2e3e
000002e0: 6e05 f23d bacd 303d 1b62 c7bd 324c 17be
000002f0: 6ad6 bebd 62b4 c93d e289 89be f09e 9f3d
00000300: 0370 c83e 7af7 22bd 63ec b63d 1e4a 2dbd
00000310: 11a1 07bd 6dfe 88bd ac34 57be 8aad 013e
00000320: f715 01be 8d76 cd3d 2dca b53e e9fd 223d
00000330: 76c9 ef3c 71f3 043e 2363 01bd ac15 ae3e
00000340: f78a dabd 067f 613e 0947 553e 2677 3b3c
00000350: f9ea c3be 0072 843e 0f92 073d 7983 a63b
00000360: a4f0 b3bd 171a 393e 7db2 263e 6d89 26be
00000370: cc8b 83be cc03 03be c4b2 843b a486 bebd
00000380: 8b1f a6bd 39d7 643e aa7a a2be adb8 34be
00000390: e26d 3bbd b12b 7a3d 45b3 df3d 1900 afbe
000003a0: cc89 3fbe f53d f03d 0717 9abe d225 33be
000003b0: 382e d2bc 8e3b a43d 4ab4 27be b849 fabd
000003c0: 82cb bcbd 6135 a23e 6c82 103d d3fc 0c3d
000003d0: 4c24 8dbc 9aa3 2cbe 193f 9e3c f810 5abe
000003e0: 486d 7abe 42c6 de3d 1d2a 373e f91f 44be
000003f0: 99a1 a73d 6b7b ec3e afb1 e43e 19eb bbbd

conv_layers.0.att_dst f4 [1, 4, 64]
0.0088749705 -0.059176758 0.014190629 0.06470127 -0.039683267 0.07430334 0.010076801 -0.004969591
0.033012725 0.10111043 0.010196206 -0.043930143 0.100111306 0.0029505475 0.014633179 -0.06424585
0.040396005 -0.09106787 -0.02701341 0.01615358 0.07226171 -0.035541568 -0.00830731 0.042077526
0.0027048104 -0.050953284 0.047353316 -0.01624878 -0.074278675 0.05395462 -0.039480254 0.028096918
0.045287993 0.06686813 0.078461364 -0.0060568117 -0.041095894 0.05519294 0.045605868 -0.014395978
0.04481298 -0.0333988 0.055693645 -0.06331874 0.061986703 -0.032769118 0.042477477 -0.022374569
-0.047818508 -0.07670889 -0.030614313 0.03518492 -0.01726186 0.036043968 0.03194941 -0.10073121
0.030955944 -0.04379563 -0.026555965 0.022470023 -0.042681005 0.020034134 -0.013579492 0.017864723
0.09981555 0.13436039 0.00041232904 0.06394058 0.21962115 0.15872706 0.17376196 -0.2838158
0.19658917 0.2098562 -0.07434189 0.28441274 0.07941725 -0.059473775 0.17396091 0.21753697
0.13040155 -0.04581645 -0.1556823 0.17468023 -0.06708926 0.046369273 0.28317976 -0.18024676
0.2833046 0.2569254 -0.19773664 -0.0832682 -0.06945881 0.12631646 0.19581643 -0.06871139
0.046831485 0.16949196 -0.025058052 -0.06125499 -0.06781605 -0.12605841 -0.122969635 0.22795512
0.2566379 0.07917626 -0.042709097 -0.21035619 0.13797566 -0.12830226 -0.058254834 0.27242878
-0.06683421 0.14291747 -0.18682627 0.23781829 0.24959686 0.09453643 0.23028398 -0.1401565
-0.1769701 0.17011748 -0.2770128 0.030552585 0.04176748 0.012109996 0.1805022 0.06996658
0.103845544 0.0797376 -0.20281474 0.05832396 0.26586735 0.3446016 -0.21235573 0.17411672
-0.084420554 0.08269815 -0.051819917 0.16483973 -0.275286 -0.31159487 0.14743957 -0.26683092
-0.17810316 -0.17613156 0.10745204 0.023816112 0.1438595 -0.11608693 0.0617104 0.09306628
0.17635575 -0.028901767 -0.1789255 -0.15383469 -0.18289326 0.01225252 0.13085817 0.09319928
-0.25305763 -0.3065306 0.13388863 0.28057852 0.30202195 0.13933398 0.18734309 0.020476226
-0.18629165 0.2818003 0.22280756 0.10966597 -0.25938976 -0.06508437 0.24325591 -0.17665304
0.22503696 0.022053385 -0.22820896 0.019238124 0.26621038 -0.18666695 -0.10988456 0.18486851
-0.0012847328 0.04096285 -0.0217797 0.00036684322 -0.21976739 0.019877821 0.30392754 0.022695104
-0.007435566 -0.06380164 0.043362156 0.002986519 0.040412474 -0.042048134 -0.018352533 0.0068195183
-0.0043544127 -0.040526822 0.05277346 -0.08157342 -0.050773457 -0.06889115 0.025322253 -0.027832298
0.0016694303 -0.063093424 -0.0068370057 -0.03884684 -0.024882395 0.025119081 -0.15656488 0.004976441
0.0035108104 -0.025206827 0.0039989064 -0.08244666 -0.053966224 -0.012121301 0.052554283 -0.028427497
-0.024441797 0.03240188 0.045366205 0.003408637 -0.0112859905 0.0028498005 0.03171253 0.04915466
0.0045663537 -0.021674091 -0.011590056 0.11727466 0.05047759 -0.06502016 -0.011263115 0.008681498
-0.009318823 0.03556535 -0.028974622 -0.02950721 -0.040808488 -0.040639304 -0.011953301 -0.059557166
0.027306318 -0.0016898449 0.03114943 0.073002405 -0.057794467 0.012887932 0.07744444 -0.03859254
00000000: 5368 113c 5463 72bd d07f 683c 1982 843d
00000010: ec8a 22bd 592c 983d 2b19 253c f3d7 a2bb
00000020: 5a38 073d fc12 cf3d fd0d 273c 18f0 33bd
00000030: 2807 cd3d f95d 413b 00c0 6f3c 5493 83bd
00000040: 4876 253d cb81 babd 3a4b ddbc 8354 843c
00000050: f3fd 933d 0994 11bd 621b 08bc 7c59 2c3d
00000060: 3043 313b 64b4 50bd 8df5 413d 291c 85bc
00000070: 6b1f 98bd 85ff 5c3d 0cb6 21bd 822b e63c
00000080: e77f 393d 28f2 883d 5ab0 a03d 3878 c6bb
00000090: 2b54 28bd fe11 623d 38cd 3a3d 1cdd 6bbc
000000a0: d18d 373d 2ecd 08bd 051f 643d 41ad 81bd
000000b0: c5e5 7d3d e938 06bd ddfc 2d3d df4a b7bc
000000c0: 57dd 43bd 8d19 9dbd deca fabc 101e 103d
000000d0: bf68 8dbc d7a2 133d 62dd 023d 2a4c cebd
000000e0: 5297 fd3c 0c63 33bd e58b d9bc 0e13 b83c
000000f0: 47d2 2ebd a01e a43c 857c 5ebc 0a59 923c
00000100: 186c cc3d c595 093e de2d d839 47f3 823d
00000110: 5ee4 603e 5989 223e a8ee 313e 4e50 91be
00000120: ac4e 493e 8be4 563e 9040 98bd 8c9e 913e
00000130: 83a5 a23d c69a 73bd cf22 323e 03c2 5e3e
00000140: fc87 053e 08aa 3bbd 2e6b 1fbe 60df 323e
00000150: 1866 89bd b5ed 3d3d f0fc 903e 9b92 38be
00000160: 4d0d 913e ba8b 833e 797b 4abe 8588 aabd
00000170: 6c40 8ebd 1a59 013e 1a84 483e 8fb8 8cbd
00000180: 5fd2 3f3d 4d8f 2d3e 8b46 cdbc 83e6 7abd
00000190: 24e3 8abd 7515 01be 81d7 fbbd 116d 693e
000001a0: 0b66 833e 2a27 a23d bcef 2ebd 9d67 57be
000001b0: 7e49 0d3e ab61 03be 9f9c 6ebd c97b 8b3e
000001c0: 60e0 88bd f558 123e 634f 3fbe a386 733e
000001d0: 5296 7f3e 519c c13d 90cf 6b3e 2f85 0fbe
000001e0: a637 35be 4733 2e3e 9fd4 8dbe 6a49 fa3c
000001f0: 6114 2b3d 0169 463c 92d5 383e a34a 8f3d
00000200: f9ac d43d 784d a33d abae 4fbe 1be5 6e3d
00000210: c41f 883e 9f6f b03e c873 59be a74b 323e
00000220: afe4 acbd a65d a93d 1f41 54bd bfcb 283e
00000230: 49f2 8cbe 5d89 9fbe 66fa 163e 109e 88be
00000240: ad60 36be d55b 34be d10f dc3d 021a c33c
00000250: e84f 133e fcbe edbd 0bc4 7c3d 8999 be3d
00000260: 9a96 343e 66c3 ecbc 3f38 37be d786 1dbe
00000270: 5f48 3bbe cbbe 483c afff 053e 44df be3d
00000280: c590 81be 94f1 9cbe 1a1a 093e fda7 8f3e
00000290: 9fa2 9a3e 91ad 0e3e ded6 3f3e c2bd a73c
000002a0: 3dc3 3ebe 2148 903e aa27 643e 8d98 e03d
000002b0: bcce 84be f44a 85bd 1418 793e 89e4 34be
000002c0: 1770 663e 4da9 b43c 9caf 69be 4599 9d3c
000002d0: ba4c 883e 9f25 3fbe 280b e1bd 2c4e 3d3e
000002e0: 7b64 a8ba a9c8 273d 576b b2bc dd54 c039
000002f0: b40a 61be d0d6 a23c 649c 9b3e 15eb b93c
00000300: 0ca6 f3bb 6faa 82bd 849c 313d 79b9 433b
00000310: 8d87 253d aa3a 2cbd 0d58 96bc 4476 df3b
00000320: 76af 8ebb 74ff 25bd fc28 583d f70f a7bd
00000330: d4f7 4fbd ce16 8dbd 9d70 cf3c 8f00 e4bc
00000340: c9d0 da3a 2037 81bd f608 e0bb dd1d 1fbd
00000350: 2ad6 cbbc 88c6 cd3c 8b52 20be 6a11 a33b
00000360: a015 663b 8c7e cebc 4209 833b cbd9 a8bd
00000370: b00b 5dbd 6c98 46bc 2943 573d c8e0 e8bc
00000380: 2a3a c8bc d5b7 043d ead1 393d 7063 5f3b
00000390: e0e8 38bc b8c3 3a3b ffe4 013d 6656 493d
000003a0: 5aa1 953b dd8d b1bc 38e4 3dbc b22d f03d
000003b0: 97c1 4e3d 4a29 85bd ee88 38bc d73c 0e3c
000003c0: faad 18bc f9ac 113d 305c edbc 1bb9 f1bc
000003d0: cd26 27bd 6675 26bd c7d7 43bc 37f2 73bd
000003e0: 80b1 df3c c97d ddba 172d ff3c 4982 953d
000003f0: e4b9 6cbd e827 533c 319b 9e3d 3613 1ebd

conv_layers.0.bias f4 [256]
0.004550707 -0.02926856 0.033904154 -0.053926677 -0.005323663 -0.019710282 -0.013676296 -0.003328001
-0.002990663 0.00088310736 -0.003595356 0.010350592 0.006885912 0.012458077 -0.0076194955 -0.0049730623
-0.026415357 -0.009056892 0.006274182 -0.00085421005 -0.0014610927 0.008768564 -0.009627738 -0.0035048882
0.004598948 0.011918212 -0.024215763 -0.005255506 0.0055665933 -0.011111685 -0.018981483 0.0095807295
-0.0070674038 -0.005768848 -0.0047607715 -0.0074163647 -0.014044332 -0.0036376955 0.0033306722 0.008382409
0.028794248 -0.013109957 0.0018893284 -0.001112387 -0.004527638 0.010188616 -0.0060680434 -0.020046456
-0.012671585 -0.007922358 -0.0134331025 0.011466668 -0.0019915665 0.010057624 -0.014039406 -0.00732761
-0.0010814944 -0.006966005 0.017058436 0.016029188 -0.013949658 -0.009693868 -0.01582446 0.0015486282
-0.017594028 -0.0018818183 -0.007048988 0.009220697 0.0038708036 -0.004248209 0.0017142785 0.015014247
-0.007848836 -0.012002589 -0.025275549 0.013311339 -0.0050829328 -0.00030012275 0.00878511 -0.0067129773
0.01127884 -0.006504846 -0.008475077 0.015495939 -0.009084011 -0.0005709769 -0.008856989 -0.024538932
-0.017154012 -0.0008633092 0.006613376 -0.013412492 0.014067308 -0.018596206 -0.01897647 -0.0126251215
0.0105078 0.0121488515 -0.009530058 -0.0061764135 0.011482739 0.0031838256 -0.0033948377 -0.00031195578
-0.006503593 -0.003029243 -0.0030391607 0.015240321 -0.0021146964 0.0048958287 -0.007010348 -0.000927447
0.0013832067 -0.0020389936 0.0006312352 0.0020130223 -0.020348012 0.00058809144 0.015061379 -0.00027825398
-0.0011337887 0.012364743 0.0052171685 -0.0043481225 0.002727693 -0.00450012 0.004607847 0.009850998
-0.0059578493 -0.021456033 -0.0026846204 -0.025502857 0.0033780662 -0.051731974 -0.004520613 -0.015200698
0.006428278 0.008521153 -0.007202864 0.0048951097 0.004695461 0.01019092 0.0014116646 0.007377235
0.018740438 0.017934693 0.004185457 0.033132132 -0.009249044 -0.018287903 -0.0110131735 6.901195e-06
0.0011832752 0.007876156 0.006813658 0.0012580323 0.0025549259 0.0018861297 0.053058024 -0.0050195893
-0.048058145 -0.014878665 0.0017241384 0.00191453 -0.0061478913 0.0045777815 -0.013258061 0.0028220695
-0.013599363 -0.0038054187 -0.007931644 0.0027792344 -0.013380201 0.0036573417 -0.02021207 -0.00942379
0.0071192468 0.004340197 -0.011657938 0.022747966 0.004004721 -0.018036893 0.00040153696 -0.011539383
0.006920104 -0.009400785 0.034390397 -0.0037171848 0.010362562 0.014217274 0.010374876 -0.0020244906
0.0049186316 -0.016285652 -0.015462436 -0.00771581 -0.0036742054 -0.0029685488 -0.0055878246 0.01580514
-0.02099782 -0.006989313 0.009823485 -0.004047623 -0.00010592197 0.0040194294 0.003753441 0.002277395
0.017118445 -0.0006121577 0.0019903549 0.0017085087 0.005405764 -0.006595743 -0.0023427554 -0.009299018
0.012448967 0.004789244 0.008596439 0.004660266 -0.0070164725 0.0017109215 -0.008277278 -0.0074848337
-0.0044360985 -0.0054738005 -0.0002167008 0.008287705 -0.018840129 -0.006315672 0.0032060589 -0.012775915
0.008310022 0.008991858 0.007014529 0.015751747 -0.018198514 0.002279864 0.0006550441 0.01351633
-0.0054777465 0.0026972622 -0.0010863633 -0.0038920494 -0.004959521 -0.0139249265 0.006205511 0.014020073
0.004861006 -0.00052928884 -0.0063524535 0.017513705 0.0021726904 -0.0033066205 0.0017747367 -0.007445269
00000000: 191e 953b 9fc4 efbc 15df 0a3d 38e2 5cbd
00000010: 1f72 aebb 7577 a1bc 8b12 60bc 971a 5abb
00000020: 00ff 43bb 5580 673a 10a0 6bbb 8895 293c
00000030: 37a3 e13b f61c 4c3c f6ac f9bb 12f5 a2bb
00000040: 0565 d8bc 5c63 14bc a797 cd3b 11ed 5fba
00000050: 2382 bfba 06aa 0f3c a9bd 1dbc 44b2 65bb
00000060: c6b2 963b 9b44 433c 2360 c6bc 6136 acbb
00000070: f867 b63b c90d 36bc 0e7f 9bbc 7ef8 1c3c
00000080: ae95 e7bb 9b08 bdbb 3f00 9cbb fa04 f3bb
00000090: 331a 66bc 6766 6ebb 6847 5a3b 5f56 093c
000000a0: eae1 eb3c 25cb 56bc 57a3 f73a 84cd 91ba
000000b0: 955c 94bb 27ee 263c 70d6 c6bb 7738 a4bc
000000c0: 7b9c 4fbc c7cc 01bc 8416 5cbc b1de 3b3c
000000d0: f184 02bb bcc8 243c 8905 66bc 731c f0bb
000000e0: eec0 8dba 1643 e4bb 22be 8b3c a54f 833c
000000f0: 1b8d 64bc 08d3 1ebc 4ca2 81bc 57fb ca3a
00000100: 5a21 90bc 58a7 f6ba 32fb e6bb 6812 173c
00000110: 4fad 7d3b 8f34 8bbb a4b1 e03a 51fe 753c
00000120: 6798 00bc 82a6 44bc ab0e cfbc cd17 5a3c
00000130: bb8e a6bb cb59 9db9 6cef 0f3c 89f8 dbbb
00000140: e2ca 383c 9a26 d5bb 0ddb 0abc aee2 7d3c
00000150: 1bd5 14bc 9cad 15ba e81c 11bc df05 c9bc
00000160: 9286 8cbc b34f 62ba 05b5 d83b 12c0 5bbc
00000170: 917a 663c 1257 98bc 8b74 9bbc 99d9 4ebc
00000180: e828 2c3c fa0b 473c f623 1cbc 8363 cabb
00000190: 1922 3c3c bba7 503b ed7b 5ebb ff8d a3b9
000001a0: 181c d5bb 4486 46bb a82c 47bb 8ab2 793c
000001b0: b896 0abb 306d a03b 10b7 e5bb ea1f 73ba
000001c0: b74c b53a a3a0 05bb 7a79 253a e9ec 033b
000001d0: e0b0 a6bc 262a 1a3a 01c4 763c 9ee2 91b9
000001e0: a39b 94ba 7e95 4a3c c8f4 aa3b b27a 8ebb
000001f0: 18c3 323b be75 93bb 6cfd 963b 1566 213c
00000200: 103a c3bb 90c4 afbc 75f0 2fbb 5eeb d0bc
00000210: 8c62 5d3b e8e4 53bd a621 94bb 590c 79bc
00000220: 4ea4 d23b 4e9c 0b3c 0106 ecbb 2867 a03b
00000230: 62dc 993b d1f7 263c 9b07 b93a bcbc f13b
00000240: 8c85 993c c7eb 923c 2826 893b 8fb5 073d
00000250: 4d89 17bc 83d0 95bc 9970 34bc d090 e736
00000260: 2118 9b3a fe0a 013c 1b45 df3b 8fe4 a43a
00000270: 8b70 273b 0338 f73a 5f53 593d 5e7b a4bb
00000280: 9ed8 44bd a5c5 73bc 7cfc e13a f7f0 fa3a
00000290: 4074 c9bb 3701 963b 5738 59bc 78f2 383b
000002a0: ddcf 5ebc 5564 79bb baf3 01bc d123 363b
000002b0: a138 5bbc 03b0 6f3b c893 a5bc 3d66 1abc
000002c0: 9248 e93b 3638 8e3b f000 3fbc f159 ba3c
000002d0: 093a 833b 1bc2 93bc 6185 d239 ae0f 3dbc
000002e0: 0ac2 e23b c005 1abc f2dc 0c3d 039c 73bb
000002f0: bcc7 293c 92ef 683c 62fb 293c 51ad 04bb
00000300: 792c a13b 7d69 85bc 2856 7dbc e8d4 fcbb
00000310: f0ca 70bb fc8b 42bb 121a b7bb c879 813c
00000320: 9f03 acbc 9b06 e5bb aff2 203c eca1 84bb
00000330: 6d22 deb8 6bb5 833b 4afc 753b 5940 153b
00000340: fb3b 8c3c 3579 20ba 9d70 023b 0af0 df3a
00000350: d622 b13b 1a21 d8bb ea88 19bb e95a 18bc
00000360: c1f6 4b3c 17ef 9c3b 14d8 0c3c 25b5 983b
00000370: 70ea e5bb 0041 e03a 6c9d 07bc 5643 f5bb
00000380: b15c 91bb 915d b3bb 2e3a 63b9 27c9 073c
00000390: 9d56 9abc b2f3 cebb be1c 523b 1252 51bc
000003a0: c226 083c 9652 133c 22da e53b cf09 813c
000003b0: 0d15 95bc c569 153b 44b7 2b3a 9973 5d3c
000003c0: ab7e b3bb 8dc4 303b 4e64 8eba c111 7fbb
000003d0: 7a83 a2bb 6025 64bc 9957 cb3b 73b4 653c
000003e0: 1349 9f3b f9bf 0aba 3e28 d0bb e778 8f3c
000003f0: b263 0e3b e3b3 58bb 489e e83a 71f7 f3bb

conv_layers.0.lin.weight f4 [256, 22]
0.18806261 -0.041714963 -0.12220911 0.15724325 0.15380691 -0.06425442 -0.17864121 0.07584456
0.100584246 -0.013380587 -0.050496764 -0.17887922 -0.057562698 0.018497242 -0.035477776 -1.1258421e-21
-0.09915895 0.00014005836 -0.07746739 0.030202558 0.03903141 -0.12450603 0.12065526 -0.11338109
0.15317659 -0.09367311 0.09822169 0.030789012 0.1642536 0.030043999 -0.108849876 0.27749673
0.082518786 0.21409403 0.055664804 0.09581222 0.1219729 1.6391689e-20 0.19785567 -0.07707645
0.22498292 0.14681226 -0.036461476 -0.08085557 -0.19956994 0.10215746 0.06822822 0.019921513
0.1099469 0.11698685 0.15875757 -0.054311782 -0.08840664 0.09970184 0.04813195 -0.013070391
-0.11098227 -0.06701889 0.09881407 -2.0589417e-20 -0.111527845 0.14027444 0.021187177 0.11333336
-0.05369883 -0.0929863 0.1610678 -0.0661893 -0.16643314 -0.09910793 0.04460886 0.04487362
0.056227136 -0.12335194 0.01167348 -0.014229919 0.03659166 -0.13405609 -0.0912753 -0.15288535
0.030734597 2.0483412e-20 0.14283915 -0.13497001 -0.06947075 -0.018252965 -0.15561612 -0.062297136
-0.040629845 0.087587684 0.008254786 0.14423764 -0.16035452 0.17234915 0.079841666 -0.15865871
-0.065228336 0.014853699 0.12686153 0.07476365 0.11550328 -0.042111304 0.011506833 -3.9385563e-21
-0.08426497 -0.016765965 -0.09361102 0.01598512 -0.1554326 -0.058974832 0.14621529 -0.004423218
-0.115498796 0.08692528 0.14781019 0.024266269 -0.06694253 -0.19239567 -0.064612746 -0.15663497
0.06543916 -0.10608606 -0.0808489 -0.15058105 -0.016397808 -2.1061103e-21 -0.098068975 -0.1625161
-0.19977936 0.09107663 0.040262923 0.1467334 0.1593771 -0.1269553 0.045159407 -0.06400672
-0.0071409256 0.03801157 -0.059170365 -0.0639284 0.32189313 0.03791755 0.004514727 0.19599722
-0.017520733 0.019483201 -0.120973095 5.7555595e-20 0.09124417 -0.067384206 0.19971229 -0.07730858
-0.15805106 -0.0005796868 0.031734798 0.20318241 -0.034006577 -0.13748685 0.123026446 0.11362271
0.03497872 -0.030823609 0.014297946 0.049456205 -0.08959073 0.0076461276 0.038493287 -0.0042063915
0.13673618 3.7202154e-17 -0.073087946 0.05314892 0.046456315 -0.11874369 0.07645313 0.09301503
0.043416638 -0.1619206 -0.11386814 0.085816965 0.11538947 -0.028708555 0.09603247 0.06821089
-0.025178513 0.21782267 -0.08588349 0.031384174 0.10018436 0.068752326 -0.045681372 1.3130858e-21
-0.027161645 -0.09660344 0.13306837 -0.10978765 0.13228317 0.021083595 0.18831429 -0.0912884
0.011761784 0.01299784 0.031932946 0.14421545 -0.0062983073 -0.1312629 0.09258222 -0.1182078
0.030412637 0.21996571 -0.14734343 -0.092664994 -0.067213416 -8.1583455e-22 -0.008617449 0.07384196
0.17976123 -0.016705036 0.029399252 -0.07819462 -0.015794871 0.08976653 -0.013019806 0.12620044
0.16613497 -0.003914246 -0.10596214 -0.14274088 -0.009115695 -0.046921592 -0.14289245 0.07048602
0.030170232 -0.029880783 -0.023857024 2.1902513e-21 -0.05011756 -0.07695287 -0.022043766 -0.022538029
-0.12710002 -0.058251172 0.03139105 -0.05734679 -0.07219374 -0.055629253 -0.045796607 -0.10914094
-0.13243936 0.04917909 -0.048616707 0.10376556 0.16546014 -0.04413793 -0.036744475 0.028948756
00000000: 7c93 403e 4fdd 2abd c548 fabd 6004 213e
00000010: 8f7f 1d3e d297 83bd b9ed 36be 6554 9b3d
00000020: 1dff cd3d 403a 5bbc b2d5 4ebd 1d2c 37be
00000030: ddc6 6bbd 8787 973c 2551 11bd e821 aa9c
00000040: d913 cbbd a1dc 1239 39a7 9ebd 5b6b f73c
00000050: 66df 1f3d 04fd febd 1b1a f73d 5834 e8bd
00000060: 53da 1c3e b0d7 bfbd 7428 c93d 3d39 fc3c
00000070: 1932 283e d51e f63c afec debd 0d14 8e3e
00000080: 9cff a83d 773b 5b3e c700 643d 3239 c43d
00000090: eecc f93d acd0 9a1e ad9a 4a3e 42da 9dbd
000000a0: ec61 663e f455 163e a158 15bd 9b97 a5bd
000000b0: 105c 4cbe ee37 d13d 3dbb 8b3d 7132 a33c
000000c0: d72b e13d cd96 ef3d 5891 223e 0876 5ebd
000000d0: 8a0e b5bd 7a30 cc3d 0226 453d 3125 56bc
000000e0: ac4a e3bd 3341 89bd 085f ca3d 2876 c29e
000000f0: b668 e4bd 1aa4 0f3e bb90 ad3c 521b e83d
00000100: 4ef3 5bbd 9a6f bebd f5ee 243e 418e 87bd
00000110: 736d 2abe 19f9 cabd c8b7 363d 67cd 373d
00000120: 6d4e 663d f19f fcbd 2042 3f3c 9b24 69bc
00000130: 23e1 153d 0046 09be 8bee babd fa8d 1cbe
00000140: 1fc7 fb3c da75 c11e 6d44 123e 9435 0abe
00000150: ae46 8ebd 3e87 95bc d559 1fbe 482b 7fbd
00000160: 7b6b 26bd 2c61 b33d 153f 073c 08b3 133e
00000170: fa33 24be 4c7c 303e 0784 a33d 6e77 22be
00000180: 6f96 85bd ee5c 733c fde7 013e af1d 993d
00000190: fc8c ec3d e77c 2cbd 2887 3c3c 61cb 949d
000001a0: 1d93 acbd c758 89bc 22b7 bfbd 3af3 823c
000001b0: b929 1fbe 988f 71bd 76b9 153e a4f0 90bb
000001c0: a28a ecbd e205 b23d 8e5b 173e 0eca c63c
000001d0: 2a19 89bd 5f03 45be b053 84bd eb64 20be
000001e0: f704 863d a643 d9bd 1c94 a5bd eb31 1abe
000001f0: b254 86bc 1922 1f9d 63d8 c8bd 9f6a 26be
00000200: f692 4cbe 6286 ba3d bcea 243d 4841 163e
00000210: c033 233e 9200 02be 12f9 383d f515 83bd
00000220: 6dfe e9bb 05b2 1b3d a05c 72bd e5ec 82bd
00000230: 2dcf a43e 6f4f 1b3d 46f0 933b 7fb3 483e
00000240: a487 8fbc 3c9b 9f3c bec0 f7bd 39e6 871f
00000250: 39de ba3d bb00 8abd 6181 4c3e f653 9ebd
00000260: 23d8 21be 1ff6 17ba 59fc 013d 0d0f 503e
00000270: 7b4a 0bbd 5ac9 0cbe 4af5 fb3d 06b3 e83d
00000280: d945 0f3d cb81 fcbc ef41 6a3c 9792 4a3d
00000290: 587b b7bd 5e8c fa3b 23ab 1d3d c5d5 89bb
000002a0: 9204 0c3e 8d90 2b24 22af 95bd afb2 593d
000002b0: fa48 3e3d e42f f3bd 7593 9c3d aa7e be3d
000002c0: a5d5 313d 84ce 25be b333 e9bd cec0 af3d
000002d0: 5051 ec3d 342e ebbc acac c43d 27b2 8b3d
000002e0: 2b43 cebc e80c 5f3e afe3 afbd b18c 003d
000002f0: 752d cd3d 05ce 8c3d 641c 3bbd 8c6d c61c
00000300: 1982 debc 06d8 c5bd 1343 083e 59d8 e0bd
00000310: 3d75 073e 81b7 ac3c 76d5 403e 6af5 babd
00000320: 7fb4 403c e4f4 543c 1fcc 023d 37ad 133e
00000330: 0862 cebb c869 06be bf9b bd3d ee16 f2bd
00000340: ec23 f93c b13e 613e 32e1 16be 25c7 bdbd
00000350: 30a7 89bd 2492 769c 3330 0dbc 743a 973d
00000360: 5413 383e 00d9 88bc b3d6 f03c 8024 a0bd
00000370: 3f64 81bc 84d7 b73d 0651 55bc b03a 013e
00000380: 491f 2a3e 1343 80bb ae02 d9bd aa2a 12be
00000390: ff59 15bc db30 40bd 6652 12be f95a 903d
000003a0: 9027 f73c 8bc8 f4bc ce6f c3bc 9f7d 251d
000003b0: 1248 4dbd 7799 9dbd 2195 b4bc aca1 b8bc
000003c0: 8226 02be c898 6ebd e793 003d 78e4 6abd
000003d0: 50da 93bd 80db 63bd 3995 3bbd 4985 dfbd
000003e0: 2f9e 07be 0370 493d 5022 47bd 0a83 d43d
000003f0: 626e 293e f9c9 34bd 6081 16bd f125 ed3c

conv_layers.1.att_src f4 [1, 4, 64]
0.18101893 0.20972136 -0.24392384 0.1987256 -0.19055866 -0.034377333 -0.14533757 -0.032494027
0.023825886 0.09055458 0.20456651 0.15571699 -0.29237625 0.040931042 -0.070021845 0.05749148
-0.09154883 0.04461306 0.10172061 0.043427072 0.056296878 -0.050386626 0.079277225 0.22571361
-0.08590159 -0.04908751 -0.23838528 -0.14542355 0.23756944 -0.13924348 -0.24946776 -0.3775083
0.025539152 0.14003508 0.10651426 -0.2811219 -0.21905626 0.24053678 0.2693641 -0.023970507
-0.12866686 -0.29550704 0.23663405 0.30587682 -0.06315054 0.08059032 0.2927993 0.03857108
0.04562682 -0.18039404 0.1975473 -0.0353399 0.23913532 -0.058375858 0.16263928 -0.05316485
0.11002685 0.13545623 0.0068934686 -0.23630475 0.07930338 0.2702207 -0.2730213 0.26861477
-0.023560625 0.2019945 -0.09017098 0.0759911 -0.0674728 0.06551923 -0.19106461 0.1924682
0.051475096 -0.10549968 0.16984491 -0.17223178 -0.062380232 -0.27081165 -0.2359161 0.07735442
-0.26004496 -0.12629212 0.2477895 -0.27722198 -0.34287626 -0.25922725 0.23269916 -0.18845126
0.23977803 -0.26695085 -0.22327757 -0.18849261 -0.12789002 0.24293205 -0.16013056 -0.043583296
-0.14084996 -0.25059804 0.12190302 0.09353012 -0.17283487 -0.03797983 0.25243446 0.20743547
0.053609453 0.29458517 0.2735367 -0.20548831 0.114849985 -0.14701395 0.11930844 -0.11664671
0.17652266 -0.072643906 -0.03671345 0.2593999 -0.09075247 -0.06984302 0.008626918 0.063744344
-0.09294538 -0.049219023 -0.26523146 0.10660052 0.15147069 0.26912037 -0.15142563 0.34166044
0.109115 0.24704708 -0.19369514 -0.21503434 0.10468451 -0.24786125 0.27399996 0.11702969
0.10856226 0.12579955 0.22386083 0.120104395 0.25386113 -0.20633389 -0.24330938 -0.012744288
0.20659696 -0.029139088 -0.025981031 0.056064904 0.28677347 0.028932083 0.26361325 0.043078575
-0.2620097 0.14140277 -0.043643698 -0.20031202 -0.16208303 0.123140715 -0.028200045 0.097406015
-0.009578981 -0.099172965 0.21744135 0.14711152 -0.21134624 0.18999451 -0.19723497 -0.21964316
-0.015015375 -0.16367121 -0.094439976 0.18786864 -0.020696528 -0.04264425 0.15327959 -0.26445186
0.29461318 0.06135738 0.096587054 0.18029751 0.26252908 0.046760503 0.052231457 0.30966493
0.20765917 0.193189 0.1811224 0.3633667 0.19224104 0.38220018 -0.22131287 0.24685438
0.085027575 -0.067918465 -0.10546525 0.26202175 -0.11278982 0.05104878 0.20730835 0.31670377
0.2503704 -0.11770004 -0.24777769 -0.19876492 -0.009033274 0.07431559 -0.09151198 -0.02788792
0.11948932 -0.1909925 0.29649112 0.06658123 0.15357868 0.15593348 -0.13742846 -0.2451398
-0.25014073 0.039720085 0.11848423 -0.24112374 0.15105402 -0.18391177 -0.076044396 -0.12457962
0.10350542 -0.23625135 0.028535463 -0.18065625 0.043686513 -0.34737602 -0.259311 -0.12751493
-0.034760017 -0.085496426 0.005808619 0.13138399 -0.11382739 -0.17361397 -0.24073076 -0.032653037
-0.23493424 0.22386359 0.12941167 0.11065401 0.24495405 0.31463018 -0.2060382 -0.19791259
0.14160763 0.05463483 0.17674173 -0.27213588 0.07518949 0.00461192 0.14663848 0.24724711
00000000: 075d 393e 32c1 563e 2cc7 79be b97e 4b3e
00000010: cf21 43be 3fcf 0cbd 5fd3 14be 7518 05bd
00000020: 812e c33c ae74 b93d e279 513e 4674 1f3e
00000030: 57b2 95be 4fa7 273d 9d67 8fbd 307c 6b3d
00000040: f47d bbbd 2fbc 363d e552 d03d 96e0 313d
00000050: 8e97 663d 3562 4ebd 195c a23d 7821 673e
00000060: 2ced afbd fc0f 49bd 451b 74be e9e9 14be
00000070: 6745 733e d895 0ebe 7a74 7fbe c548 c1be
00000080: 7c37 d13c 5b65 0f3e 2624 da3d 36ef 8fbe
00000090: 4950 60be 464f 763e 17ea 893e cc5d c4bc
000000a0: 3fc1 03be b34c 97be 3250 723e e39b 9c3e
000000b0: 1255 81bd 8a0c a53d cae9 953e b5fc 1d3d
000000c0: 30e3 3a3d 37b9 38be d749 4a3e 92c0 10bd
000000d0: e4df 743e 861b 6fbd e98a 263e 63c3 59bd
000000e0: c255 e13d 0ab5 0a3e 9be2 e13b dff9 71be
000000f0: cf69 a23d 5e5a 8a3e 73c9 8bbe e087 893e
00000100: 3602 c1bc a5d7 4e3e 90ab b8bd 39a1 9b3d
00000110: 2e2f 8abd f22e 863d 71a6 43be 6216 453e
00000120: 8dd7 523d 3710 d8bd d3eb 2d3e 875d 30be
00000130: 6a82 7fbd d3a7 8abe fd93 71be ff6b 9e3d
00000140: 9d24 85be b952 01be 88bc 7d3e 0af0 8dbe
00000150: 7a8d afbe 6fb9 84be b048 6e3e 5ef9 40be
00000160: 5f88 753e c8ad 88be e0a2 64be 3504 41be
00000170: 9af5 02be 2ec3 783e 44f9 23be 6684 32bd
00000180: f93a 10be 634e 80be 4aa8 f93d b88c bf3d
00000190: a0fb 30be bd90 1bbd 173f 813e f769 543e
000001a0: 9695 5b3d ded3 963e 010d 8c3e 876b 52be
000001b0: 7836 eb3d d38a 16be fc57 f43d 78e4 eebd
000001c0: 5bc2 343e 54c6 94bd d860 16bd 10d0 843e
000001d0: 6edc b9bd db09 8fbd eb57 0d3c 658c 823d
000001e0: 265a bebd e399 49bd 6bcc 87be 6051 da3d
000001f0: 221b 1b3e 25ca 893e 520f 1bbe 1eee ae3e
00000200: af77 df3d e9f9 7c3e 0558 46be f631 5cbe
00000210: d564 d63d 57cf 7dbe b949 8c3e 43ad ef3d
00000220: e455 de3d 99d1 003e c63b 653e 4bf9 f53d
00000230: 16fa 813e 3149 53be 1826 79be 6bcd 50bc
00000240: 278e 533e 19b5 eebc 2cd6 d4bc 50a4 653d
00000250: f9d3 923e fa02 ed3c 51f8 863e 2973 303d
00000260: 2326 86be e3cb 103e bcc3 32bd 981e 4dbe
00000270: 18f9 25be 3331 fc3d c803 e7bc ce7c c73d
00000280: 29f1 1cbc 321b cbbd f2a8 5e3e 67a4 163e
00000290: 266b 58be ec8d 423e f7f7 49be 23ea 60be
000002a0: 0c03 76bc 6d99 27be bf69 c1bd a360 403e
000002b0: c48b a9bc bdab 2ebd 53f5 1c3e 3c66 87be
000002c0: 8ad7 963e e051 7b3d 6fcf c53d e99f 383e
000002d0: 366a 863e f187 3f3d a7f0 553d 678c 9e3e
000002e0: 9ba4 543e 56d3 453e 2778 393e 330b ba3e
000002f0: d6da 443e beaf c33e d79f 62be 65c7 7c3e
00000300: f022 ae3d d618 8bbd 2afe d7bd b727 863e
00000310: 59fe e6bd 8718 513d a448 543e ff26 a23e
00000320: 8d30 803e b80c f1bd 6fb9 7dbe 0889 4bbe
00000330: 4c00 14bc c632 983d a26a bbbd 3575 e4bc
00000340: d1b6 f43d 8a93 43be afcd 973e bd5b 883d
00000350: bb43 1d3e 07ad 1f3e 0cba 0cbe ed05 7bbe
00000360: 7212 80be 87b1 223d dca7 f23d 24e9 76be
00000370: e8ad 1a3e 5e53 3cbe 2abd 9bbd 9a23 ffbd
00000380: a6fa d33d e0eb 71be 34c3 e93c f4fd 38be
00000390: a1f0 323d 45db b1be 69c4 84be 4693 02be
000003a0: 8560 0ebd c018 afbd 3a56 be3b 8689 063e
000003b0: 561e e9bd dcc7 31be 2082 76be 31bf 05bd
000003c0: 9a92 70be 7f3c 653e 7e84 043e 929e e23d
000003d0: 3cd5 7a3e 3517 a13e aefb 52be 99a9 4abe
000003e0: 9701 113e c6c8 5f3d c9fb 343e 6555 8bbe
000003f0: f3fc 993d 971f 973b 6628 163e 592e 7d3e

conv_layers.1.att_dst f4 [1, 4, 64]
-0.051189665 -0.16660956 0.16647679 0.24839237 -0.16002579 -0.0192885 -0.065199494 -0.2251323
0.13333614 -0.111659855 -0.124215506 -0.3180746 -0.010979385 -0.2724037 -0.047882777 0.19555968
-0.2083084 -0.26198417 0.20356056 0.23870638 -0.024014896 -0.23666598 0.07625386 0.21401092
0.23571952 0.10195462 0.3168739 0.23662364 -0.19692647 0.2100665 0.23193233 0.219215
-0.23313934 0.05368096 -0.02778676 0.21300338 0.17256778 -0.135426 -0.15852536 -0.21447058
-0.052762315 -0.2462272 -0.26095188 -0.08665697 0.11334315 0.16346149 -0.1983443 -0.19737841
-0.06727566 0.18202533 -0.02394859 0.22676104 -0.016773744 -0.25367057 0.037194606 -0.12907246
0.29545966 -0.2218468 0.26582813 0.05085614 -0.06424925 -0.23182619 0.1294115 -0.10273403
0.23102176 -0.098958544 0.37536928 0.042697787 0.25723824 -0.21225724 -0.14677794 -0.2804919
-0.37612078 0.25628307 0.1973666 -0.20647128 -0.009923383 0.03422391 0.12117965 0.06591896
0.0048998827 0.19098088 -0.20411989 -0.2587299 0.05271773 0.2629278 0.09431898 0.16748527
-0.116634555 0.12400595 0.29802138 0.2734314 -0.21641432 -0.2757703 -0.025403991 0.3087411
0.20984809 0.20721187 0.2343288 -0.15895517 0.1967607 0.09432603 0.03777525 0.16006221
-0.08675914 -0.36803192 -0.15316373 -0.14087924 -0.027598143 0.2183985 0.009981234 -0.15026991
-0.2528415 -0.1865401 -0.22333345 -0.35134068 -0.16597813 -0.25604388 0.22394139 0.0576372
-0.1181519 0.033668313 -0.22201131 -0.21665272 -0.014921533 -0.14453095 -0.09231781 0.059254594
-0.25912276 0.17366831 -0.3341398 -0.36690995 -0.22724056 -0.017162379 0.14568458 0.15184088
-0.17576586 0.06190154 -0.09574186 0.024784617 -0.13587134 0.16039026 -0.06865452 -0.12829971
-0.2618731 -0.024543138 0.27067697 -0.18800345 0.24580711 -0.034825347 -0.009313914 0.089329384
0.07977168 -0.08872898 0.12983362 -0.24008577 0.053057555 -0.24026102 0.020804118 0.1733132
-0.07429451 -0.24504662 0.114711955 0.048131086 -0.34206113 -0.11575942 0.13109212 -0.20907986
0.30096295 -0.11150165 -0.014785598 0.015157942 -0.012657718 -0.3313769 -0.16687033 -0.07770677
0.21117958 -0.17973031 0.23557748 0.17801277 -0.118269436 -0.18634745 0.022436213 0.2625817
-0.28560388 -0.12714429 -0.10164955 -0.09856552 0.33444375 0.19978242 0.035575517 0.12831606
-0.06096514 -0.059456296 0.039438616 -0.19919755 -0.08707536 -0.09873094 0.40709707 0.17666967
-0.13181156 -0.25702685 -0.15391144 0.064664654 0.23314333 0.084663495 -0.07713845 -0.25513223
-0.32276395 -0.10617069 0.32368287 0.12158442 0.14493348 0.21804303 -0.17077433 0.064052485
0.16905214 -0.17994094 -0.03347193 -0.17574297 -0.1613209 -0.24164335 0.27164394 0.051338173
0.11103057 0.013434253 0.1789928 0.04815113 0.17500849 0.19473419 0.19172621 0.066628754
-0.016995586 -0.024526417 0.14009117 0.24455012 0.17685574 -0.18040182 -0.023377482 0.11635003
-0.05309477 0.10653119 0.17166571 -0.08612185 0.27551034 0.09486068 -0.1726898 0.013394563
0.13625334 -0.01079532 -0.34539488 0.27479565 -0.14930339 0.023372957 0.29894042 0.045815144
00000000: 41ac 51bd b29b 2abe e478 2a3e 925a 7e3e
00000010: cddd 23be eb02 9ebc 5087 85bd 1589 66be
00000020: 4589 083e ecad e4bd b364 febd adda a2be
00000030: e1e2 33bc 7f78 8bbe bb20 44bd cc40 483e
00000040: cc4e 55be ca22 86be 2e72 503e 726f 743e
00000050: e3ba c4bc 9158 72be fc2a 9c3d ae25 5b3e
00000060: 7560 713e 95cd d03d 4c3d a23e 784d 723e
00000070: 18a7 49be ac1b 573e ab7f 6d3e e679 603e
00000080: 14bc 6ebe 91e0 5b3d 0fa1 e3bc 8f1d 5a3e
00000090: 9cb5 303e 1dad 0abe 7954 22be 2d9e 5bbe
000000a0: 4c1d 58bd fc22 7cbe 7c9b 85be 3679 b1bd
000000b0: 7420 e83d 7362 273e c51a 4bbe 911d 4abe
000000c0: d2c7 89bd d964 3a3e d52f c4bc 0c34 683e
000000d0: 1769 89bc 1ce1 81be 5f59 183d 922b 04be
000000e0: 7d46 973e cf2b 63be a01a 883e 874e 503d
000000f0: 1c95 83bd d863 6dbe 7384 043e 3866 d2bd
00000100: f890 6c3e c7aa cabd 6730 c03e e0e3 2e3d
00000110: bbb4 833e f659 59be f54c 16be a29c 8fbe
00000120: e792 c0be 8937 833e 781a 4a3e 356d 53be
00000130: af95 22bc 5f2e 0c3d 092d f83d 8500 873d
00000140: 328f a03b 7e90 433e ce04 51be 3f78 84be
00000150: 8cee 573d 799e 863e 4f2a c13d 4281 2b3e
00000160: 19de eebd d5f6 fd3d 4296 983e 33ff 8b3e
00000170: b79b 5dbe c431 8dbe 081c d0bc 5013 9e3e
00000180: 6be2 563e 592f 543e e4f3 6f3e 25c5 22be
00000190: a37b 493e 012e c13d 38ba 1a3d 59e7 233e
000001a0: c7ae b1bd ae6e bcbe f4d6 1cbe a642 10be
000001b0: 8015 e2bc dba3 5f3e 5488 233c 5be0 19be
000001c0: 7174 81be 5e04 3fbe 86b1 64be ede2 b3be
000001d0: 2cf6 29be 2f18 83be e450 653e fc14 6c3d
000001e0: a0f9 f1bd c9e7 093d ef56 63be 36da 5dbe
000001f0: 7279 74bc ecff 13be 1f11 bdbd f2b4 723d
00000200: bdab 84be 1bd6 313e 5f14 abbe 9fdb bbbe
00000210: c0b1 68be 1e98 8cbc 572e 153e 2d7c 1b3e
00000220: f7fb 33be 788c 7d3d 4f14 c4bd 1c09 cb3c
00000230: db21 0bbe 583d 243e be9a 8cbd 0061 03be
00000240: 3b14 86be b10e c9bc 2c96 8a3e fa83 40be
00000250: dcb4 7b3e 06a5 0ebd 6399 18bc 53f2 b63d
00000260: 565f a33d 8ab7 b5bd 1bf3 043e 0bd9 75be
00000270: e152 593d fc06 76be 666d aa3c 0479 313e
00000280: b827 98bd 80ed 7abe 1aee ea3d 1a25 453d
00000290: a322 afbe 4613 edbd 033d 063e 0819 56be
000002a0: d117 9a3e fa5a e4bd 4b3f 72bc 0459 783c
000002b0: 5162 4fbc 3caa a9be 0ee0 2abe ba24 9fbd
000002c0: 763f 583e 390b 38be 393b 713e fb48 363e
000002d0: 3f37 f2bd ded1 3ebe 26cc b73c 1c71 863e
000002e0: ac3a 92be 1d32 02be a42d d0bd b8dc c9bd
000002f0: 363c ab3e c393 4c3e a2b7 113d 4965 033e
00000300: 95b6 79bd 7288 73bd 638a 213d 71fa 4bbe
00000310: 9154 b2bd 7233 cabd 076f d03e e5e8 343e
00000320: 9cf9 06be 0699 83be f69a 1dbe e76e 843d
00000330: 20bd 6e3e 0e64 ad3d c4fa 9dbd b1a0 82be
00000340: 5141 a5be 0570 d9bd c3b9 a53e 4101 f93d
00000350: 7169 143e ac46 5f3e 77df 2ebe f32d 833d
00000360: 011c 2d3e 7042 38be dd19 09bd f7f5 33be
00000370: 4e31 25be 5b71 77be ea14 8b3e fa47 523d
00000380: ff63 e33d 571b 5c3c e349 373e 1f3a 453d
00000390: 6d35 333e 6668 473e e053 443e a874 883d
000003a0: 543a 8bbc a0eb c8bc 0f74 0f3e 596b 7a3e
000003b0: ac19 353e 41bb 38be 2282 bfbc ed48 ee3d
000003c0: e779 59bd 062d da3d 23c9 2f3e a760 b0bd
000003d0: b10f 8d3e 5146 c23d 98d5 30be df74 5b3c
000003e0: ff85 0b3e dbde 30bc 99d7 b0be 04b2 8c3e
000003f0: fde2 18be a578 bf3c b80e 993e a9a8 3b3d

conv_layers.1.bias f4 [256]
0.00029712755 -0.00013696619 7.441667e-05 0.00020204419 0.00015298415 -7.92914e-05 -0.00026861235 0.00019575172
0.0001827836 0.00010630244 -4.8729777e-05 -5.1883828e-05 0.00017923822 0.00061976555 5.67718e-05 0.00014835095
0.00056922936 0.00027372685 5.9032977e-06 0.00024701012 3.90955e-05 0.00010586334 -2.8770328e-05 -6.2591457e-06
0.00012935235 4.504101e-06 0.00023393231 -0.000109666435 0.0001787251 0.00040575085 0.00027709224 8.118487e-05
0.00011213537 -4.3395894e-06 8.747683e-05 -3.37311e-06 0.0004449253 -0.00013803103 -0.00010559461 0.00030456003
0.00014059503 -1.2351136e-05 -0.00020704533 0.0003129757 -6.484525e-05 -5.240614e-05 0.00018114719 5.4360145e-05
1.6287335e-05 -0.0005521997 -1.3388028e-05 -0.00018373206 0.00015229777 0.00012213753 -0.00015929055 8.012759e-05
-9.965049e-05 0.0005191824 -8.5762396e-05 -0.00010034801 -0.00019874008 -0.00012840675 -0.00018044893 -0.00016532768
0.00022859112 -0.00018722838 8.877163e-05 -0.0003689985 -0.0003076579 0.0004710216 -7.861547e-05 0.00020681514
-0.00021259961 0.00010483963 -0.00021006749 -1.0649051e-05 8.65788e-05 -1.6566364e-06 -0.00016859456 -0.0004983413
0.00024404896 -0.0005897737 -0.00021083879 0.00024641768 0.00014213387 2.4292345e-05 0.00021820942 -0.00015812385
2.351096e-05 3.492167e-05 -9.408534e-05 0.00044577388 0.00029203307 -5.4265306e-06 4.859058e-05 0.00034797867
-0.0002290624 6.45288e-06 0.00048664797 0.00048063486 0.00022664265 0.00031197985 7.191393e-05 0.00016993517
0.00011234626 0.00012670457 -9.9044766e-05 -0.000111700865 0.00038276467 0.0001563139 0.00038129336 0.00010702076
-0.00012709729 -0.00017114483 -0.0001535041 -0.00021342805 0.00012045612 -1.8237875e-05 -0.00024777852 0.00017809276
5.9443242e-05 0.000224991 -5.3110554e-05 0.00033787038 2.0423866e-05 -9.011378e-05 0.00020147934 -9.586642e-05
-0.00017499436 7.348241e-05 -4.3055443e-05 -0.0001336571 -1.4198592e-05 -9.028222e-06 1.7544538e-05 -0.00015800822
-8.241543e-05 -7.170042e-05 0.00010314399 0.0002205541 4.410479e-05 -0.0002437393 -5.3933873e-05 1.375181e-05
8.572072e-05 -0.00017483755 -4.3949804e-05 -0.00017657639 -8.299578e-05 -7.9224264e-05 3.339788e-05 0.00040895023
8.841785e-06 -0.00039330134 5.9186474e-05 0.00017833668 -1.3014639e-05 0.00027345718 9.762081e-05 -1.7239849e-05
0.00017059462 6.611751e-05 -0.00010349141 0.00023560811 -0.00017847243 -0.000108016065 -0.00032261343 -0.00013812585
-0.0001460998 0.00032021257 -7.0127026e-05 -0.00017295824 0.00026921768 2.0271915e-05 -2.9528328e-05 -0.00014201849
-0.00051072176 0.00012710491 0.00038892578 -0.00019885499 0.00021106067 0.00018173865 0.0002563827 9.681182e-05
0.0001417195 0.00028197165 8.0772414e-05 9.9949975e-05 -1.1137166e-05 -7.0522e-05 -0.00017091198 7.682674e-05
4.6946163e-05 2.8035132e-05 -0.00031530045 0.00018663486 -0.0003584992 0.00030492235 -8.7345834e-05 -1.47673845e-05
-1.4548218e-05 7.5919896e-05 -0.00015797224 0.00013830024 -1.0795061e-05 2.8936498e-05 -0.00013470495 -0.0003570333
-0.00011110592 -0.00016071269 -0.00013071878 -0.00024396676 -0.00022155422 0.00016750251 0.00011681267 6.839783e-05
4.604483e-05 -7.585619e-05 8.232987e-05 -2.5052019e-05 -0.00023678741 -3.891088e-05 -0.00016585046 6.280339e-07
0.00015506538 0.00013541566 1.6270771e-05 0.00018421169 -0.0002948322 0.00020450172 0.00024797206 2.5615525e-05
1.3940454e-06 -0.00016889753 0.00013291057 -4.1244813e-05 1.3010619e-05 -0.00014553747 0.0003947892 0.00021484095
-0.00010758529 -0.0002735027 -0.00017709578 -0.00015555283 1.8312236e-05 -8.74547e-06 6.936441e-05 -6.5416293e-06
-0.00012407092 0.00034013533 -5.9278766e-05 0.00013339917 0.0004484523 -9.30324e-05 0.00016602957 4.1860072e-05
00000000: c9c7 9b39 959e 0fb9 2510 9c38 d3db 5339
00000010: 5f6a 2039 3f49 a6b8 8ad4 8cb9 b442 4d39
00000020: 99a9 3f39 b0ee de38 3363 4cb8 d69d 59b8
00000030: e5f1 3b39 c377 223a 421e 6e38 a88e 1b39
00000040: 5638 153a ff82 8f39 f114 c636 2381 8139
00000050: 79fa 2338 f302 de38 cf57 f1b7 a705 d2b6
00000060: c2a2 0739 ef21 9736 ba4b 7539 b8fc e5b8
00000070: 2768 3b39 f5ba d439 b146 9139 cc41 aa38
00000080: 382a eb38 ca9c 91b6 c473 b738 975d 62b6
00000090: dd44 e939 6cbc 10b9 ad72 ddb8 5bad 9f39
000000a0: b16c 1339 ba37 4fb7 4f1a 59b9 e316 a439
000000b0: 87fd 87b8 aace 5bb8 54f2 3d39 c300 6438
000000c0: c9a0 8837 7fc1 10ba 249d 60b7 33a8 40b9
000000d0: 1fb2 1f39 0b12 0039 3b07 27b9 2c0a a838
000000e0: 73fb d0b8 be19 083a 56db b3b8 ed71 d2b8
000000f0: e264 50b9 eda4 06b9 e436 3db9 d05b 2db9
00000100: f6b1 6f39 bc52 44b9 e82a ba38 2476 c1b9
00000110: 254d a1b9 73f3 f639 5cde a4b8 84dc 5839
00000120: 46ed 5eb9 59dd db38 9045 5cb9 53a9 32b7
00000130: a491 b538 9859 deb5 c2c8 30b9 1ea3 02ba
00000140: 65e7 7f39 0b9b 1aba 9b14 5db9 9f31 8139
00000150: c509 1539 6ac7 cb37 25cf 6439 0cce 25b9
00000160: 6739 c537 dc78 1238 af4f c5b8 c2b6 e939
00000170: 041c 9939 8b15 b6b6 bdcd 4b38 e870 b639
00000180: 7830 70b9 d185 d836 c924 ff39 b8fd fb39
00000190: eca6 6d39 3a91 a339 7fd0 9638 a030 3239
000001a0: 709b eb38 00dc 0439 41b6 cfb8 f240 eab8
000001b0: cead c839 31e8 2339 54e8 c739 5570 e038
000001c0: 6b45 05b9 5775 33b9 f1f5 20b9 a8cb 5fb9
000001d0: 639d fc38 8afd 98b7 45e8 81b9 69be 3a39
000001e0: b252 7938 90eb 6b39 06c3 5eb8 3224 b139
000001f0: eb53 ab37 78fb bcb8 3344 5339 e40b c9b8
00000200: b17e 37b9 921a 9a38 6e96 34b8 4e26 0cb9
00000210: 7d36 6eb7 eb77 17b7 9c2c 9337 02af 25b9
00000220: 72d6 acb8 df5d 96b8 024f d838 8a44 6739
00000230: 28fd 3838 4594 7fb9 0e37 62b8 93b7 6637
00000240: f6c4 b338 9954 37b9 be56 38b8 5d27 39b9
00000250: 050e aeb8 3425 a6b8 b314 0c38 5f68 d639
00000260: 2d57 1437 0334 ceb9 fe3e 7838 e3ff 3a39
00000270: 7359 5ab7 cd5e 8f39 c6b9 cc38 4b9e 90b7
00000280: a5e1 3239 91a8 8a38 8709 d9b8 920d 7739
00000290: 5424 3bb9 af86 e2b8 7124 a9b9 e0d5 10b9
000002a0: 5e32 19b9 34e2 a739 2911 93b8 205c 35b9
000002b0: c925 8d39 9b0d aa37 9ab3 f7b7 ccea 14b9
000002c0: f5e1 05ba 7747 0539 bce8 cb39 bb83 50b9
000002d0: 2b50 5d39 1991 3e39 1a6b 8639 7307 cb38
000002e0: 8a9a 1439 98d5 9339 5c64 a938 3c9c d138
000002f0: c4d9 3ab7 36e5 93b8 d636 33b9 0b1e a138
00000300: 0fe8 4438 fd2c eb37 e94e a5b9 6ab3 4339
00000310: f3f4 bbb9 fcdd 9f39 702d b7b8 6fc1 77b7
00000320: 1f14 74b7 2f37 9f38 5aa5 25b9 b004 1139
00000330: 6f1c 35b7 a8bc f237 963f 0db9 3330 bbb9
00000340: 8901 e9b8 fc84 28b9 8e11 09b9 54d1 7fb9
00000350: 0251 68b9 9da3 2f39 53f9 f438 ce70 8f38
00000360: 4220 4138 fb14 9fb8 83a8 ac38 cd26 d2b7
00000370: 234a 78b9 3d34 23b8 25e8 2db9 2996 2835
00000380: 0c99 2239 5dfe 0d39 377d 8837 f328 4139
00000390: b593 9ab9 836f 5639 3f02 8239 ece0 d637
000003a0: 091b bb35 161a 31b9 e95d 0b39 48fe 2cb8
000003b0: 2f48 5a37 6b9b 18b9 b6fb ce39 ee46 6139
000003c0: 6a9f e1b8 e964 8fb9 c9b2 39b9 e51b 23b9
000003d0: 3a9d 9937 82b9 12b7 bc77 9138 2b80 dbb6
000003e0: 0919 02b9 3154 b239 17a2 78b8 11e1 0b39
000003f0: 401e eb39 641a c3b8 3918 2e39 e992 2f38
