models/gnn_fold_0.pth (torch, 959138 bytes, 45 tensors)

conv_layers.0.att_src f4 [1, 4, 64]
0.110335514 0.061274774 -0.16930877 -0.08500667 -0.2292905 0.0073329257 0.12031382 0.085115604
-0.03001406 0.012981662 -0.271413 0.31749144 -0.014850145 0.07154976 0.0650248 -0.28095284
0.08081048 0.17582728 0.18285164 0.09132799 0.133169 -0.04605504 0.058032267 0.14233813
0.19357096 0.16969869 -0.12669282 -0.12833323 0.22645107 0.16926312 -0.2568516 0.08857577
-0.24811193 0.0041667135 0.09930252 -0.1841077 0.17270307 0.23198585 0.15733944 0.13988274
0.08894217 -0.021278914 -0.21159227 0.12887087 -0.13859043 0.07524533 -0.2076065 -0.05753858
-0.22713037 -0.0974433 0.17213239 0.057756327 -0.015064093 0.27548245 0.08931909 -0.1691915
-0.15476398 0.28993276 -0.34260213 -0.13895418 -0.2216948 -0.32032815 -0.24105036 0.015589595
-0.101388305 0.33394024 -0.3484482 -0.25376368 -0.3214932 -0.24268043 -0.006961404 -0.1979928
-0.13876963 -0.13568363 -0.06259175 0.0143030975 0.26538935 -0.052477214 -0.019198835 0.18933572
0.17932643 0.17180082 -0.08814794 0.117939286 -0.13434663 -0.13533868 0.007003538 -0.16957124
-0.020627778 0.09805959 0.045791626 0.3433536 -0.16479243 -0.08089353 -0.38016298 0.23112324
-0.20101018 -0.17945157 0.15813081 -0.052625604 -0.112601124 0.25782883 -0.18145765 0.23955953
0.14813596 0.046716645 -0.12033659 0.2747573 -0.106678255 0.28336248 0.03468804 -0.109842695
-0.052095436 0.27114934 -0.1118627 0.334213 0.12019968 -0.19086266 -0.30310357 0.15546538
0.3181281 0.08028295 0.333578 -0.13762999 -0.1498645 -0.03495758 -0.28290027 -0.1297722
0.14377552 0.072044656 0.18483613 -0.088224106 0.23604211 0.015523268 0.13285404 0.27978003
0.015976196 0.23887274 0.103116214 -0.18642071 0.09590209 -0.14159018 0.0033369914 -0.19439445
-0.086361796 -0.15751705 -0.22587161 0.37914807 -0.142138 -0.16535793 0.047766984 -0.067121014
-0.17932351 0.14406237 -0.31176493 -0.122608386 -0.24993172 -0.25690833 0.18448915 0.04707552
0.25780204 -0.23929511 -0.2311833 0.15015395 -0.14849237 -0.12567665 -0.16067262 -0.32432416
-0.13386531 -0.122968316 0.23426548 -0.015478349 0.08139841 0.18821622 0.2241618 -0.1829529
0.15815696 0.21302386 -0.067797616 -0.12892988 0.06198684 0.00873711 -0.06911121 -0.110937886
-0.026653629 0.23350115 0.12652318 0.16369693 -0.008676884 -0.32852504 0.32045424 0.008019045
0.05390537 -0.16615923 -0.1205002 0.07642681 -0.109997295 -0.18755749 0.14071979 0.3196935
0.27616432 0.02856253 0.043448493 0.2856658 -0.12046122 0.33063442 0.16211775 -0.28409246
0.31275198 -0.012154575 -0.23340963 -0.24246736 0.23243941 -0.26548082 0.095239304 -0.17526928
-0.297474 0.1778776 0.20506622 0.3461191 -0.19556303 0.14918727 0.23470172 -0.052669458
0.12328681 0.27671123 -0.19881475 0.21272199 0.035195578 0.048218835 0.1866063 0.07879159
-0.05737744 0.22824964 0.22910234 0.052019678 -0.16423433 -0.3295814 -0.004413264 -0.07445568
-0.11631961 -0.11323539 0.21675344 -0.0833816 -0.36248296 -0.1615447 -0.31647322 0.14422497
0.054194823 -0.1680813 -0.21033116 0.02690712 -0.2837954 -0.2770144 -0.05090447 0.13926847
00000000: 96f7 e13d 42fb 7a3d 475f 2dbe fa17 aebd
00000010: 21cb 6abe 0a49 f03b 1867 f63d 1751 ae3d
00000020: 0ce0 f5bc 09b1 543c a5f6 8abe 3d8e a23e
00000030: 064e 73bc ae88 923d b92b 853d 0dd9 8fbe
00000040: f77f a53d 110c 343e 763d 3b3e 2b0a bb3d
00000050: 745d 083e 36a4 3cbd 3eb3 6d3d 16c1 113e
00000060: 7737 463e 7ec5 2d3e c3bb 01be c969 03be
00000070: cae2 673e 5053 2d3e 0e82 83be 3767 b53d
00000080: 0e11 7ebe ed88 883b 1f5f cb3d bb86 3cbe
00000090: 13d9 303e b38d 6d3e 971d 213e 6c3d 0f3e
000000a0: 5027 b63d 1e51 aebc a5ab 58be baf6 033e
000000b0: a6ea 0dbe 391a 9a3d cc96 54be 93ad 6bbd
000000c0: dd94 68be 5a90 c7bd 7943 303e e691 6c3d
000000d0: 63cf 76bc 090c 8d3e edec b63d 8940 2dbe
000000e0: 737a 1ebe 1172 943e 8c69 afbe 014a 0ebe
000000f0: f603 63be 0d02 a4be e8d5 76be 806b 7f3c
00000100: aca4 cfbd 37fa aa3e cd67 b2be 50ed 81be
00000110: c29a a4be 3881 78be 7d1c e4bb a0be 4abe
00000120: a019 0ebe a6f0 0abe 1a30 80bd 8a57 6a3c
00000130: 1de1 873e 59f2 56bd e046 9dbc 39e1 413e
00000140: 59a1 373e 8eec 2f3e e886 b4bd 278a f13d
00000150: 2a92 09be 3996 0abe ef7d e53b 15a4 2dbe
00000160: 96fb a8bc 77d3 c83d 0090 3b3d 0bcc af3e
00000170: 59bf 28be 82ab a5bd b9a4 c2be 92ab 6c3e
00000180: 9dd5 4dbe 27c2 37be 0bed 213e f28d 57bd
00000190: 6b9b e6bd 2402 843e 09d0 39be 184f 753e
000001a0: f4b0 173e f459 3f3d 0873 f6bd fdac 8c3e
000001b0: 217a dabd e314 913e 0c15 0e3d 35f5 e0bd
000001c0: 0662 55bd 16d4 8a3e 4518 e5bd f71d ab3e
000001d0: 402b f63d 8071 43be 6430 9bbe 5132 1f3e
000001e0: b0e1 a23e 636b a43d bcca aa3e e0ee 0cbe
000001f0: 1476 19be ae2f 0fbd 4ed8 90be 01e3 04be
00000200: e439 133e 268c 933d af45 3d3e d7ae b4bd
00000210: 06b5 713e 4e55 7e3c e40a 083e 543f 8f3e
00000220: 83e0 823c 0e9b 743e 982e d33d 12e5 3ebe
00000230: 5168 c43d 04fd 10be 6db1 5a3b 570f 47be
00000240: 74de b0bd 264c 21be e34a 67be b21f c23e
00000250: a08c 11be 9753 29be 50a7 433d be76 89bd
00000260: 95a0 37be 1685 133e a79f 9fbe 1b1a fbbd
00000270: 1aee 7fbe 7d89 83be b9ea 3c3e 43d2 403d
00000280: a1fe 833e c709 75be 51bb 6cbe f5c1 193e
00000290: 620e 18be 61b1 00be 5d87 24be d10d a6be
000002a0: fd13 09be d0d6 fbbd 4ae3 6f3e e798 7dbc
000002b0: 36b4 a63d c1bb 403e ac8a 653e 0158 3bbe
000002c0: e6f3 213e ed22 5a3e 7ad9 8abd 3206 04be
000002d0: eae5 7d3d 1826 0f3c 2e8a 8dbd 6733 e3bd
000002e0: b658 dabc ed1a 6f3e 4b8f 013e 2ba0 273e
000002f0: 7d29 0ebc 6f34 a8be 9412 a43e 5062 033c
00000300: e1cb 5c3d a525 2abe cfc8 f6bd a985 9c3d
00000310: 4346 e1bd 120f 40be d918 103e deae a33e
00000320: 6965 8d3e f8fb e93c 0cf7 313d ca42 923e
00000330: 5fb4 f6bd ea48 a93e 3202 263e 9174 91be
00000340: 0721 a03e fc23 47bc ef02 6fbe 5d49 78be
00000350: 9904 6e3e 1aed 87be d30c c33d ca79 33be
00000360: 834e 98be 8c25 363e e1fc 513e 8636 b13e
00000370: ad41 48be 8cc4 183e a655 703e eebb 57bd
00000380: cc7d fc3d 18ad 8d3e 1896 4bbe cbd3 593e
00000390: 3d29 103d 1d81 453d b915 3f3e 7c5d a13d
000003a0: 9b04 6bbd 46ba 693e ce99 6a3e 9612 553d
000003b0: 0b2d 28be e5be a8be 249d 90bb 387c 98bd
000003c0: fa38 eebd f5e7 e7bd 9df4 5d3e f9c3 aabd
000003d0: 5e97 b9be f96b 25be c708 a2be b6af 133e
000003e0: 64fb 5d3d 811d 2cbe 0d61 57be 526c dc3c
000003f0: a14d 91be d5d4 8dbe 3581 50bd 659c 0e3e

conv_layers.0.att_dst f4 [1, 4, 64]
-0.23980552 -0.14131798 0.064997286 -0.3065272 0.23167405 0.15872023 0.1452471 0.23771876
0.27865168 -0.13678251 0.14057022 0.16619056 0.117179185 -0.04447577 -0.14869417 -0.15661621
0.08062075 -0.024511244 0.030064458 0.2689518 -0.24247544 0.052370038 0.06448476 -0.028722892
0.18492284 0.19939132 -0.19663587 0.07233919 -0.14953892 -0.19867703 -0.27273172 0.10059162
-0.056831304 -0.18897457 -0.049443383 0.0006563131 0.10896749 0.23743169 -0.22031431 0.017258916
0.28960213 0.15489285 0.18716636 -0.062597066 0.06274492 0.06295715 -0.028318768 0.17773083
-0.11013374 -0.027291762 0.20089312 0.09575801 -0.3046021 -0.0768253 0.19894584 0.16511132
0.19197896 -0.16802576 -0.1891225 0.10896249 0.25346577 0.25290433 0.09030648 0.15575083
-0.18974642 0.08085608 -0.03486732 0.040405758 0.117863104 -0.26456502 -0.0030441594 -0.051210202
0.14357816 -0.22142714 -0.17666946 -0.21692505 0.1750336 0.14639807 0.27708694 0.34814453
0.112263344 -0.004421087 0.10052628 0.037548356 0.07507162 -0.16577494 0.28893203 -0.21568862
0.24917574 0.1631698 0.114721276 0.0769548 0.07622448 -0.11155247 -0.1747324 -0.16609856
-0.14254339 0.15735303 0.05771159 0.030444808 0.018272968 0.29171327 0.003205451 -0.13590287
-0.25503424 0.267208 -0.20550449 0.15808304 0.2802507 0.16465494 0.005496823 -0.00086545455
0.23400767 -0.13090591 0.13084836 -0.14109437 0.18609871 -0.09683529 -0.21849863 -0.11729046
0.20584522 0.11483729 -0.17943478 -0.16604824 -0.10412991 -0.031409483 -0.08668811 0.16892765
-0.0017580127 -0.047027856 -0.0663198 0.17810343 -0.19234785 -0.2969686 -0.2897309 0.1627389
0.09499493 -0.20308033 0.22216213 0.21768542 -0.2839582 0.16638204 0.039580878 0.069739975
0.29609665 0.1895037 0.08716735 -0.09096629 0.17822154 0.20558718 -0.022266155 -0.30516818
0.3370578 -0.082237475 -0.23856294 -0.22144264 0.1527047 0.05642334 -0.1724344 -0.3270159
0.16417497 0.058638044 0.3084573 -0.008548192 0.2189713 -0.12629387 -0.0929103 0.11435341
0.13318263 0.3322299 0.039448757 -0.2751453 -0.27704906 -0.07595094 -0.0025147737 -0.105564706
0.30025926 -0.11171605 0.039741665 0.12422835 0.008851558 0.050023858 0.16168143 -0.23824398
-0.2364289 0.08154418 -0.2708314 -0.31209728 -0.2616635 0.18782239 -0.23623362 0.19258755
0.16239691 0.018268256 -0.21391328 -0.31901112 -0.17334047 0.23479334 -0.1460605 0.007399841
0.081462234 0.0066452175 0.11822972 -0.18911888 0.29937288 -0.16091564 -0.1898437 -0.30837575
0.24124199 -0.08704172 -0.1611675 0.098558195 -0.012056777 0.27643198 0.03527543 -0.073061526
-0.12817219 -0.2263701 0.1442562 0.07242001 0.21215668 -0.2533749 0.007910036 0.16244723
0.12073311 0.09356547 0.0014687589 -0.3324223 -0.025299298 0.309289 -0.2744624 -0.1638544
0.22080007 0.01824767 -0.048762273 -0.014741095 0.08441125 0.06868121 0.29086742 -0.05559093
-0.13403964 -0.18902884 -0.06295305 -0.09362106 0.14710413 0.18071571 0.18188894 0.18787552
0.295303 -0.21537901 -0.104826085 -0.102961324 0.16402139 -0.047265984 0.06404956 0.02543407
00000000: 948f 75be a9b5 10be 4c1d 853d 22f1 9cbe
00000010: f63b 6d3e 8e87 223e a8bb 143e 8c6c 733e
00000020: 6fab 8e3e b710 0cbe a4f1 0f3e dc2d 2a3e
00000030: a4fb ef3d 3a2c 36bd 4943 18be 0060 20be
00000040: 7e1c a53d cecb c8bc bd49 f63c 0db4 893e
00000050: 7b4b 78be f781 563d 9610 843d 454c ebbc
00000060: 6a5c 3d3e 3d2d 4c3e ea5a 49be 9226 943d
00000070: bb20 19be fe71 4bbe 7ea3 8bbe fb02 ce3d
00000080: f1c7 68bd 8d82 41be 2585 4abd 6d0c 2c3a
00000090: 592a df3d 4b21 733e 139a 61be 9262 8d3c
000000a0: bb46 943e 3b9c 1e3e 8aa8 3f3e e432 80bd
000000b0: 6980 803d aeef 803d c3fc e7bc 12ff 353e
000000c0: cc8d e1bd f992 dfbc edb6 4d3e c71c c43d
000000d0: cef4 9bbe 9556 9dbd 75b8 4b3e f112 293e
000000e0: 2296 443e f20e 2cbe 54a9 41be ba27 df3d
000000f0: 44c6 813e ad7c 813e 9bf2 b83d 257d 1f3e
00000100: e34c 42be df97 a53d 09d1 0ebd 8280 253d
00000110: 3662 f13d 1175 87be 8580 47bb cac1 51bd
00000120: 2706 133e ccbd 62be d7e8 34be 9a21 5ebe
00000130: 023c 333e 60e9 153e 57de 8d3e 0040 b23e
00000140: 53ea e53d c4de 90bb b9e0 cd3d 4ecc 193d
00000150: 26bf 993d e8c0 29be e6ee 933e 7add 5cbe
00000160: ed27 7f3e fc15 273e fdf2 ea3d 7a9a 9d3d
00000170: 951b 9c3d 9f75 e4bd 0ded 32be be15 2abe
00000180: e5f6 11be 2721 213e fd62 6c3d 6467 f93c
00000190: 31b1 953c 715b 953e 8b12 523b 1f2a 0bbe
000001a0: d993 82be 7dcf 883e c56f 52be 85e0 213e
000001b0: 057d 8f3e 4e9b 283e b21e b43b acdf 62ba
000001c0: b59f 6f3e 330c 06be 1dfd 053e 0b7b 10be
000001d0: a990 3e3e 9551 c6bd 1bbe 5fbe fb35 f0bd
000001e0: 17c9 523e d02f eb3d c0bd 37be 8d08 2abe
000001f0: 1042 d5bd 3ba7 00bd 8989 b1bd 5ffb 2c3e
00000200: 1e6d e6ba 48a0 40bd add2 87bd bf60 363e
00000210: d6f6 44be 450c 98be 9c57 94be 07a5 263e
00000220: b48c c23d 4af4 4fbe 787e 633e ede8 5e3e
00000230: f862 91be 0e60 2a3e 8f1f 223d d5d3 8e3d
00000240: fb99 973e 420d 423e cc84 b23d 894c babd
00000250: b57f 363e 7285 523e 8367 b6bc 013f 9cbe
00000260: d792 ac3e 1f6c a8bd d849 74be dcc1 62be
00000270: 9f5e 1c3e 291c 673d a592 30be a16e a7be
00000280: 7c1d 283e 722e 703d 1dee 9d3e b70d 0cbc
00000290: 033a 603e 2e53 01be c147 bebd 1f32 ea3d
000002a0: 0761 083e 0a1a aa3e 0595 213d d8df 8cbe
000002b0: 60d9 8dbe 2b8c 9bbd e7ce 24bb 4f32 d8bd
000002c0: 95bb 993e 62cb e4bd 28c8 223d 6f6b fe3d
000002d0: 2006 113c d1e5 4c3d d18f 253e 3bf6 73be
000002e0: 6b1a 72be a300 a73d 6aaa 8abe 37cb 9fbe
000002f0: c2f8 85be 8354 403e 3ae7 71be ac35 453e
00000300: 604b 263e 4fa7 953c 150c 5bbe 6d55 a3be
00000310: 2a80 31be aa6d 703e e290 15be 5e7a f23b
00000320: acd5 a63d 20c0 d93b 6c22 f23d 61a8 41be
00000330: 6747 993e 12c7 24be 6366 42be 6de3 9dbe
00000340: 2408 773e ee42 b2bd 1809 25be e1d8 c93d
00000350: ca89 45bc 7e88 8d3e f87c 103d 48a1 95bd
00000360: 923f 03be 90cd 67be e6b7 133e f150 943d
00000370: 9a3f 593e 5bba 81be 1899 013c 9158 263e
00000380: ec42 f73d 419f bf3d 5f83 c03a 4133 aabe
00000390: 7940 cfbc 215b 9e3e 5686 8cbe 73c9 27be
000003a0: 6a19 623e 237c 953c f3ba 47bd a284 71bc
000003b0: cedf ac3d bca8 8c3d 93ec 943e 51b3 63bd
000003c0: b041 09be c790 41be 87ed 80bd 66bc bfbd
000003d0: 77a2 163e 8a0d 393e 1841 3a3e 7162 403e
000003e0: f431 973e 518c 5cbe 0faf d6bd 63dd d2bd
000003f0: 39f5 273e fa99 41bd 6a2c 833d 1c5b d03c

conv_layers.0.bias f4 [256]
-0.015205914 -0.0031031712 -0.001974994 0.005789142 -0.00504845 -0.00024184823 -0.05875186 0.012578333
-0.0029455265 -0.0020372418 0.008641986 -0.0030207657 0.012769361 0.0026167554 -0.0074063023 0.0022572011
-0.0037745961 -0.005795736 0.0050290516 -0.000665325 0.0036577205 -0.0010849766 -0.011015149 0.014544304
-0.013772416 0.0042952434 0.012357284 0.0073687374 -0.00491476 0.0003525514 0.0058960426 0.0021273207
-0.0015265561 -0.0022856398 -0.007188588 -0.0058909943 0.0030494004 0.002888877 -0.0053165727 0.0011749127
-0.008159558 -0.010145931 0.00045354068 0.020303447 0.0077284663 -0.003052867 0.0008867684 0.028107721
0.0108563425 -0.009468238 -0.029754493 0.0028270453 -0.0135647375 0.0009238452 -0.0063428017 0.004324424
0.0045108204 -0.03154518 0.01547902 0.005205991 -0.047213197 0.017904783 0.012373956 0.008267761
-0.0058705816 0.007870802 0.006515204 -0.003931125 -0.013463883 -0.012713156 0.0057259 -0.0011152202
0.005050021 -0.00486099 0.0015486814 0.0022428108 -0.022311477 -0.0014091231 0.004970362 -0.016977856
-0.0034302298 -5.5412274e-05 0.008251904 -0.002165005 -0.002180304 -0.0012726631 -0.0038303467 -0.0031668963
0.01111734 -0.00032970574 0.008655184 0.0006118763 -0.0032940742 0.003569675 0.016882917 0.0039048241
-0.0026202132 0.0018040705 -0.0109123895 -0.0010003945 0.0027719701 -0.004286287 0.0061189104 0.001983487
0.019453764 -0.021414595 -0.010201493 -0.0079668425 -0.0008215075 0.00084392395 -0.00217323 0.0028409236
-0.0016103089 -0.019099884 -0.010959979 -0.001985954 -0.00475915 0.001541905 0.0055361264 0.002367733
-0.00082791183 -0.0023048352 0.0049944036 0.0018214233 0.0048986883 -0.0060624103 -0.013278302 -0.00033346048
-0.004802392 -0.014126064 0.0019074717 0.0036952386 0.005515051 0.0014457474 -0.0055299294 0.0011534478
0.003604772 0.0099335555 0.00018616089 -0.00471036 -0.0017284238 -0.006352215 0.002853906 0.005054763
-0.0025328142 -0.009069836 -0.0055611418 0.003676724 -0.0044904025 0.0035955706 -0.004130505 0.00011361256
0.014128477 0.005456163 -0.0014265947 -0.01594638 -0.012135784 0.028312199 -0.00024422695 -0.0015640812
-0.0021419593 0.0002089165 -0.004917111 -0.008181301 0.0058720545 -0.0117485775 0.017744295 -0.005384885
0.006744672 0.01410131 0.0036949478 0.0071085594 0.017697772 -0.00023442379 0.009641533 -0.00816235
-0.012496675 -0.0035016104 -0.0042080283 0.00048897904 0.0040937746 0.00049983157 -0.016466137 0.0073571703
-0.0030573993 -0.0005399132 0.0070713395 -0.017983137 0.0016117111 -0.0073284353 -0.0013138187 0.0020960378
-0.0038260072 0.025498109 0.0012267684 -0.0057323854 0.0002792167 0.004023743 -0.007858731 -0.0050619324
-0.00067782647 -0.00040151083 -0.0025806092 0.031592045 0.013978303 -0.005213206 0.011146415 -0.007906629
-0.00425394 -0.0013262755 -0.0044324426 0.007179189 -0.0026904752 0.00048764708 0.017675504 -0.0100728925
0.013140432 -0.026016926 0.008493059 0.004968581 -0.008126065 0.006532439 -0.02368268 -0.017089497
0.0068181977 0.011900567 0.004137539 -0.0015189479 -0.0029839082 0.0029086838 -0.0005279542 -0.023847071
-0.013553112 0.0033767195 -0.034479618 0.011691839 -0.008121548 -0.0015086094 -0.00014462181 -0.003324153
0.0020555516 -0.0011288055 0.008396185 0.00057220395 -0.0013464766 -0.0034759766 -0.00054185686 -0.0015354304
-0.0021639047 -0.00313133 -0.016350763 -0.007903539 -0.03271835 -0.030737596 0.022491409 0.0046397313
00000000: 3a22 79bc 935e 4bbb e76e 01bb d8b2 bd3b
00000010: 786d a5bb a498 7db9 caa5 70bd 5a15 4e3c
00000020: bc09 41bb 3f83 05bb 1e97 0d3c 0af8 45bb
00000030: 9536 513c df7d 2b3b 91b0 f2bb 8ded 133b
00000040: 375f 77bb 28ea bdbb beca a43b 3469 2eba
00000050: 5eb6 6f3b c635 8eba e278 34bc 3c4b 6e3c
00000060: b3a5 61bc 1dbf 8c3b 3576 4a3c 7375 f13b
00000070: ff0b a1bb a6d6 b839 9733 c13b 856a 0b3b
00000080: b916 c8ba acca 15bb 3f8e ebbb 3e09 c1bb
00000090: 73d8 473b 5053 3d3b a536 aebb 87ff 993a
000000a0: abaf 05bc 1e3b 26bc 33c9 ed39 6a53 a63c
000000b0: 133f fd3b 9c12 48bb 0576 683a 2a42 e63c
000000c0: cdde 313c ab20 1bbc b2bf f3bc f345 393b
000000d0: a23e 5ebc 342e 723a 47d7 cfbb e6b3 8d3b
000000e0: 81cf 933b 8535 01bd b79b 7d3c 0597 aa3b
000000f0: a062 41bd 0dad 923c 22bc 4a3c 8175 073c
00000100: 025e c0bb 89f4 003c 7e7d d53b abd0 80bb
00000110: 9e97 5cbc d74a 50bc 55a0 bb3b 952c 92ba
00000120: a67a a53b f148 9fbb 20fd ca3a 1ffc 123b
00000130: 8fc6 b6bc 53b2 b8ba 6bde a23b 2515 8bbc
00000140: b5cd 60bb 7a6a 68b8 fe32 073c c2e2 0dbb
00000150: 6ee3 0ebb 7dcf a6ba 8e06 7bbb b48b 4fbb
00000160: 8125 363c 5bdc acb9 79ce 0d3c 5366 203a
00000170: 65e1 57bb 35f1 693b 0b4e 8a3c 14e8 7f3b
00000180: e2b7 2bbb 9076 ec3a e1c9 32bc ab1f 83ba
00000190: f1a9 353b fb73 8cbb 2481 c83b 64fd 013b
000001a0: 805d 9f3c a96d afbc 2a24 27bc 5c87 02bc
000001b0: 6f5a 57ba c73a 5d3a c06c 0ebb ca2e 3a3b
000001c0: 0011 d3ba 5c77 9cbc 7c91 33bc c726 02bb
000001d0: a5f2 9bbb bf19 ca3a 6568 b53b f82b 1b3b
000001e0: 3908 59ba b80c 17bb 18a8 a33b d3bc ee3a
000001f0: 2d85 a03b 2fa7 c6bb 3c8d 59bc 4fd4 aeb9
00000200: 625d 9dbb 0271 67bc 2104 fa3a d12b 723b
00000210: 9ab7 b43b 3c7f bd3a 6934 b5bb 492f 973a
00000220: 0a3e 6c3b 5ac0 223c 2f34 4339 5d59 9abb
00000230: 478c e2ba 3e26 d0bb 9908 3b3b 6da2 a53b
00000240: 92fd 25bb a699 14bc 3d3a b6bb 31f5 703b
00000250: 3a24 93bb aaa3 6b3b 3059 87bb 4743 ee38
00000260: 217b 673c 9dc9 b23b 93fc baba fca1 82bc
00000270: 2bd5 46bc fcee e73c 960b 80b9 db01 cdba
00000280: 1d60 0cbb 9910 5b39 b71f a1bb dd0a 06bc
00000290: 5d6a c03b 1b7d 40bc 7c5c 913c b073 b0bb
000002a0: 6902 dd3b 2e09 673c f026 723b ebee e83b
000002b0: ebfa 903c a8cf 75b9 85f7 1d3c 61bb 05bc
000002c0: dbbe 4cbc 467b 65bb 80e3 89bb d42e 003a
000002d0: 1225 863b 2107 033a fee3 86bc 6b14 f13b
000002e0: a65e 48bb f688 0dba b2b6 e73b 5f51 93bc
000002f0: 0d40 d33a 5f23 f0bb 7134 acba ae5d 093b
00000300: c0bd 7abb 69e1 d03c 84cb a03a bcd6 bbbb
00000310: d563 9239 9ad9 833b e8c1 00bc 91de a5bb
00000320: 2ab0 31ba df81 d2b9 701f 29bb a966 013d
00000330: 4105 653c 8bd3 aabb 749f 363c ce8a 01bc
00000340: a364 8bbb 6cd6 adba 063e 91bb 673f eb3b
00000350: af52 30bb e2aa ff39 38cc 903c c608 25bc
00000360: f74a 573c 7321 d5bc 7926 0b3c 7acf a23b
00000370: 3023 05bc 120e d63b 2e02 c2bc 46ff 8bbc
00000380: 306b df3b 99fa 423c 3194 873b 6f17 c7ba
00000390: ac8d 43bb 9e9f 3e3b 6866 0aba ef5a c3bc
000003a0: df0d 5ebc f44b 5d3b 803a 0dbd 218f 3f3c
000003b0: 3e10 05bc 88bc c5ba 9fa5 17b9 08da 59bb
000003c0: 6fb6 063b 6df4 93ba 2790 093c f5ff 153a
000003d0: 427c b0ba 36cd 63bb 660b 0eba 7f40 c9ba
000003e0: 4cd0 0dbb 0037 4dbb 09f2 85bc d87d 01bc
000003f0: ad03 06bd 69cd fbbc e73f b83c e308 983b

conv_layers.0.lin.weight f4 [256, 22]
-0.009241498 -0.2500031 0.05038496 -0.18325692 -0.15218559 -0.09372751 0.07464166 0.08879183
0.27342558 0.14482911 -0.07759485 0.28019968 0.090198584 -0.133696 -0.04070228 -2.6371372e-35
0.1637186 -0.012872866 0.11444506 -0.025142666 -0.11559078 0.093958944 0.22116795 -0.20008263
-0.14622235 0.1164306 -0.15106583 0.024241315 0.093764104 0.14103878 -0.42733738 0.0224924
0.07313742 -0.03094468 -0.0652198 0.010671715 -0.06332367 2.5135926e-38 -0.21301425 -0.063549675
-0.17968093 -0.014103738 0.050257318 0.051949542 0.079604276 0.15385565 -0.15078487 0.24636921
-0.11180818 0.007923527 -0.12887955 0.20669463 0.15597326 0.13726158 0.02387749 -0.17701744
0.088293985 0.01818671 -0.10496464 1.2297293e-37 0.056873284 -0.0942566 -0.14436941 -0.040635634
-0.00080645253 -0.06889618 -0.07725772 -0.099355206 0.08397564 0.11065508 0.17395672 0.07964281
-0.26970008 -0.23399569 -0.04471083 0.033427626 -0.030980634 -0.017516747 0.03778014 0.017822396
0.1108522 2.19358e-40 0.019884754 0.040526718 0.06696848 -0.14648622 -0.09383389 0.0161794
0.16342491 -0.117154576 0.06570529 0.06700551 0.023030454 0.011328792 -0.11916653 -0.2628725
0.15116785 0.08486464 -0.13232115 0.023089245 -0.0635275 0.19592349 0.04306361 1.8306361e-38
-0.03870806 -0.250107 0.089079745 0.17227006 0.034954295 0.07268077 -0.10881656 -0.1889863
0.08716439 -0.0162153 0.16072942 0.09342163 0.17368165 -0.11821376 0.021420555 0.011509064
-0.14082147 0.08013246 0.1741636 0.088022925 -0.06792748 9.52585e-39 0.052447136 0.006375044
0.08022673 -0.11094695 0.0549687 -0.0437608 -0.06891752 -0.0036070598 -0.09908856 -0.13575439
0.07729816 -0.035128366 -0.007039577 0.027642366 -0.18824722 0.12994759 -0.061969228 -0.050409093
-0.21415295 -0.13222164 0.14419477 -2.7737263e-34 0.07673785 -0.101969995 0.014725065 0.056958362
0.09053054 -0.025680447 -0.050239347 0.12744534 0.1447892 -0.17120007 0.08262826 -0.14990991
0.1379014 -0.0020755935 -0.12951678 0.0059352773 0.01703171 0.07548435 0.0833481 0.02203584
-0.017118672 -3.856927e-35 0.1588692 0.13391882 -0.052293763 -0.13205633 0.07616943 0.048138086
0.035049736 -0.11447128 -0.19232863 0.027907688 -0.12864639 0.15566391 0.025552783 0.111853376
-0.013053669 0.07900881 0.05565037 -0.06622451 0.025156738 0.1330916 0.093035184 4.2314357e-37
0.08230078 0.0974976 -0.11223074 -0.005225601 0.14521234 0.0673806 0.0072781225 -0.11806865
0.15356147 -0.039153926 -0.059848525 -0.123830244 -0.019357517 0.3256473 0.28080434 0.16567828
-0.028542582 -0.08079139 -0.011663347 -0.0356133 -0.042383272 6.437538e-34 -0.05883946 0.20865427
0.21078715 0.21137473 -0.15983026 0.09259599 -0.12968072 0.03863324 0.18611911 -0.08453537
-0.03280209 -0.063826695 -0.049928382 -0.046849366 0.26064166 -0.013477892 -0.018643089 0.008203207
0.19274274 0.041577764 -0.060103413 1.058311e-38 -0.11188636 -0.119962506 -0.046430916 -0.042467333
-0.086365886 0.039621793 -0.047990162 0.20645548 0.03198062 -0.19803679 -0.080629624 -0.039641634
0.04924877 -0.06257626 -0.1362395 0.014846262 0.13740088 -0.01267068 -0.10133856 -0.03013146
00000000: a769 17bc 6800 80be 7660 4e3d b4a7 3bbe
00000010: 8ad6 1bbe 35f4 bfbd badd 983d 7ed8 b53d
00000020: 70fe 8b3e 154e 143e 0cea 9ebd 5576 8f3e
00000030: 09ba b83d 9be7 08be 6fb7 26bd da36 0c86
00000040: d9a5 273e b7e8 52bc 2c62 ea3d fef7 cdbc
00000050: dcba ecbd 8c6d c03d da79 623e 76e2 4cbe
00000060: 50bb 15be 2b73 ee3d 00b1 1abe b995 c63c
00000070: 6507 c03d 786c 103e f7cb dabe fb41 b83c
00000080: 12c9 953d b37f fdbc f591 85bd 6bd8 2e3c
00000090: d7af 81bd 5eda 0801 6820 5abe 5526 82bd
000000a0: 47fe 37be 5d13 67bc 9eda 4d3d 0bc9 543d
000000b0: 9107 a33d 568c 1d3e 5967 1abe 3648 7c3e
000000c0: b0fb e4bd aed1 013c 00f9 03be c2a7 533e
000000d0: 74b7 1f3e 4d8e 0c3e ba9a c33c 0f44 35be
000000e0: 7ad3 b43d 4cfc 943c b4f7 d6bd d061 2702
000000f0: f6f3 683d 9b09 c1bd 93d5 13be 8d71 26bd
00000100: 1d68 53ba 7119 8dbd 4c39 9ebd be7a cbbd
00000110: 6cfb ab3d 219f e23d b621 323e c51b a33d
00000120: 2116 8abe 919c 6fbe b422 37bd 68eb 083d
00000130: 19cb fdbc 487f 8fbc 59bf 1a3d 4600 923c
00000140: 7a06 e33d 7b63 0200 5ae5 a23c 58ff 253d
00000150: c526 893d 7c00 16be fc2b c0bd a98a 843c
00000160: dc58 273e bdee efbd 7f90 863d 2f3a 893d
00000170: 5daa bc3c 669c 393c 950d f4bd 3997 86be
00000180: bfcb 1a3e 83cd ad3d 327f 07be a825 bd3c
00000190: b51a 82bd 2ba0 483e 7863 303d b056 c700
000001a0: 588c 1ebd 060e 80be 716f b63d 9067 303e
000001b0: 3c2c 0f3d a8d9 943d 37db debd a085 41be
000001c0: 3e83 b23d f3d5 84bc 4196 243e d753 bf3d
000001d0: 9ad9 313e 0e1a f2bd 297a af3c 8390 3c3c
000001e0: 8133 10be 7d1c a43d f157 323e 5d45 b43d
000001f0: 901d 8bbd 32ba 6700 cfd2 563d bfe5 d03b
00000200: e94d a43d 2838 e3bd dc26 613d 863e 33bd
00000210: a124 8dbd 6c64 6cbb f1ee cabd 3303 0bbe
00000220: 7f4e 9e3d c3e2 0fbd 40ac e6bb 3e72 e23c
00000230: e1c3 40be fb10 053e 72d3 7dbd c479 4ebd
00000240: e94a 5bbe 1c65 07be cba7 133e 8258 b887
00000250: bc28 9d3d a5d5 d0bd 6641 713c 2c4d 693d
00000260: 1368 b93d cd5f d2bc c6c7 4dbd 0881 023e
00000270: 9f43 143e 124f 2fbe 0139 a93d fc81 19be
00000280: 0636 0d3e ae06 08bb 0ca0 04be b77c c23b
00000290: 1686 8b3c 8a97 9a3d 69b2 aa3d 8284 b43c
000002a0: 753c 8cbc c511 4d86 9cae 223e 0422 093e
000002b0: fc31 56bd c639 07be b8fe 9b3d 712c 453d
000002c0: 5090 0f3d eb6f eabd ccf1 44be aa9e e43c
000002d0: e1bb 03be 5c66 1f3e 1254 d13c 6213 e53d
000002e0: 0edf 55bc 5fcf a13d a4f1 633d b7a0 87bd
000002f0: 8115 ce3c 2a49 083e 3b89 be3d 01fd 0f03
00000300: 508d a83d d2ac c73d 3bd9 e5bd 853b abbb
00000310: 8bb2 143e d7fe 893d 517d ee3b facd f1bd
00000320: 383f 1d3e de5f 20bd ba23 75bd b69a fdbd
00000330: a893 9ebc 3ebb a63e 96c5 8f3e 91a7 293e
00000340: 22d2 e9bc f575 a5bd 9f17 3fbc 40df 11bd
00000350: 159a 2dbd 84ec 5508 a501 71bd 77a9 553e
00000360: 96d8 573e 9e72 583e 8baa 23be f7a2 bd3d
00000370: 06cb 04be e33d 1e3d 0296 3e3e e120 adbd
00000380: 7c5b 06bd 92b7 82bd b481 4cbd 1fe5 3fbd
00000390: d372 853e 60d2 5cbc 64b9 98bc be66 063c
000003a0: 5a5e 453e 724d 2a3d ff2e 76bd 683d 7300
000003b0: ad24 e5bd e7ae f5bd 582e 3ebd 3af2 2dbd
000003c0: 99e0 b0bd 764a 223d 5591 44bd 1169 533e
000003d0: 1cfe 023d 28ca 4abe 2521 a5bd 445f 22bd
000003e0: 14b9 493d fb27 80bd 5e82 0bbe bc3d 733c
000003f0: d1b2 0c3e af98 4fbc 978a cfbd 40d6 f6bc

conv_layers.1.att_src f4 [1, 4, 64]
-0.24731828 -0.02414013 -0.23372138 0.25347605 0.05310391 -0.005606359 0.28293672 0.044052888
-0.074750334 0.09305297 -0.36818814 -0.13923359 0.10782225 0.28942814 0.105045885 0.03184536
-0.22502746 0.29563725 -0.05819335 -0.18256104 -0.017957414 -0.18698421 0.21331462 -0.064343184
-0.20015441 0.17578797 0.10070083 -0.21020341 0.24765114 0.19732334 -0.28007647 0.21998388
0.060916394 -0.2972891 0.18533622 -0.26154414 -0.27130902 0.2566222 -0.1322085 0.09763782
-0.17098248 -0.05310197 0.026316479 0.2058772 -0.04591063 0.13929813 -0.05050374 0.1159168
-0.06675743 0.30544794 0.3620467 0.029535849 0.2314966 0.1299056 0.18234974 0.079278156
0.17793182 0.43594941 0.16808014 -0.13462155 -0.35992318 0.115587994 0.05435412 0.0018114399
0.23630664 -0.16401106 -0.012528598 -0.07879092 -0.34039277 0.027928298 0.048026156 0.19885057
0.08409986 0.12904058 0.10349751 0.025693325 -0.14238928 0.11700655 0.015104192 -0.14348847
0.1992663 0.1105105 -0.119255185 0.10283168 0.30048102 -0.24234976 0.002781076 -0.0610572
-0.26708576 0.12133263 0.25850478 0.050866723 -0.31668308 -0.0856195 -0.24249098 0.2573874
-0.021973528 -0.052112434 -0.20250642 -0.34458008 -0.40308115 -0.0668101 -0.02811446 -0.25596055
0.007266817 -0.37838593 -0.11574559 0.21034151 0.2420549 0.23139328 0.014992903 -0.32861507
-0.18256639 0.16405779 0.25886643 0.037667822 -0.13435675 0.16547874 -0.09193255 0.025178986
0.1266996 0.3803945 -0.31178522 -0.16902629 -0.07168178 -0.31443733 -0.09413151 0.0922349
-0.3598058 0.020274589 0.22921215 -0.041475363 -0.22054553 -0.1427136 -0.22420023 -0.0010424587
0.078427784 -0.40158293 -0.350709 -0.0037576677 0.28734756 0.3122103 -0.22304319 -0.006878121
0.20909828 -0.18492197 0.14737767 -0.26785064 0.099811755 -0.122010805 -0.04736204 0.24707295
-0.099024415 -0.25324285 0.2869964 -0.05996319 0.18317354 -0.01055302 -0.11928696 0.09819746
0.10476151 0.11987254 0.042200465 -0.12667258 0.32813337 0.04905736 0.17288361 -0.075201534
-0.19566242 0.04839313 0.3250973 0.24567622 0.12286845 -0.1909412 0.1975859 0.24608664
-0.31216213 0.16868888 0.15769263 0.11153333 0.2000603 -0.19942667 0.30233404 0.06049543
-0.19115704 -0.1000985 -0.13665801 0.0706216 -0.13991965 -0.11904633 0.30732036 0.09753944
0.27597252 -0.13505651 0.07958338 0.23227426 -0.12579359 -0.24729691 -0.20397559 -0.2864527
0.10996832 -0.20885174 0.26207635 0.02187742 -0.16427773 -0.22411345 -0.093542464 0.2865077
-0.22178727 -0.09755883 0.1449878 0.17108613 -0.07874711 0.054301657 -0.28772274 -0.051810656
0.229856 -0.008282692 0.24371617 0.034906507 -0.084841326 -0.19331263 -0.12143122 0.34413862
0.005030973 -0.110069476 0.03029507 -0.348859 0.2700126 0.25384197 -0.026080264 0.2031085
0.29735696 -0.23629968 -0.17664641 -0.061699346 0.15354317 -0.28143024 -0.3009356 0.118400656
0.04368032 0.08027122 -0.054438394 0.051210415 0.0027953119 -0.14870311 -0.07043918 0.120677575
-0.07107326 0.3447864 0.29755938 -0.20705746 -0.006489625 -0.23707767 0.31025818 0.029471423
00000000: 0141 7dbe 86c1 c5bc a854 6fbe 9dc7 813e
00000010: 7c83 593d 8cb5 b7bb 15dd 903e cd70 343d
00000020: b416 99bd 8e92 be3d 2883 bcbe 4093 0ebe
00000030: e9d1 dc3d ed2f 943e 4c22 d73d 4870 023d
00000040: 996d 66be c45d 973e 265c 6ebd 48f1 3abe
00000050: 6d1b 93bc ca78 3fbe 266f 5a3e 5cc6 83bd
00000060: 47f5 4cbe c301 343e 3d3c ce3d 903f 57be
00000070: 4398 7d3e 210f 4a3e 2f66 8fbe 7443 613e
00000080: 7883 793d 4736 98be c7c8 3d3e 1de9 85be
00000090: 04e9 8abe fc63 833e aa61 07be 56f6 c73d
000000a0: 0816 2fbe 7481 59bd a895 d73c 79d1 523e
000000b0: c90c 3cbd 2ba4 0e3e 02dd 4ebd ca65 ed3d
000000c0: 1fb8 88bd ac63 9c3e 2f5e b93e 2af5 f13c
000000d0: 720d 6d3e f905 053e e4b9 3a3e 965c a23d
000000e0: c233 363e c334 df3e 331d 2c3e 3bda 09be
000000f0: da47 b8be 66b9 ec3d 6da2 5e3d d66d ed3a
00000100: 5efa 713e 84f2 27be c044 4dbc 225d a1bd
00000110: f647 aebe e3c9 e43c 13b7 443d 7c9f 4b3e
00000120: 8c3c ac3d 3723 043e 81f6 d33d cf7a d23c
00000130: 7fce 11be 21a1 ef3d 9377 773c a4ee 12be
00000140: 770c 4c3e 5453 e23d 103c f4bd 6a99 d23d
00000150: a6d8 993e 892a 78be b642 363b 1d17 7abd
00000160: 77bf 88be 3e7d f83d bd5a 843e a059 503d
00000170: 4924 a2be 4759 afbd 8e4f 78be 48c8 833e
00000180: d401 b4bc d973 55bd d85d 4fbe cd6c b0be
00000190: a760 cebe bcd3 88bd 4c50 e6bc 430d 83be
000001a0: 7b1e ee3b cdbb c1be 060c edbd c463 573e
000001b0: 3ddd 773e 5cf2 6c3e cba4 753c 3c40 a8be
000001c0: aff2 3abe c4fe 273e 248a 843e 9349 1a3d
000001d0: d194 09be 4273 293e 2247 bcbd 2944 ce3c
000001e0: 8abd 013e 11c3 c23e 50a2 9fbe 3a15 2dbe
000001f0: e6cd 92bd eefd a0be 05c8 c0bd a7e5 bc3d
00000200: 7738 b8be e516 a63c 97b6 6a3e 12e2 29bd
00000210: b0d6 61be 8423 12be bf94 65be 1ca3 88ba
00000220: bf9e a03d 479c cdbe 2190 b3be 3443 76bb
00000230: 381f 933e 07da 9f3e 6f65 64be dc61 e1bb
00000240: dc1d 563e 2f5c 3dbe 2cea 163e b823 89be
00000250: 1b6a cc3d cde0 f9bd b3fe 41bd b100 7d3e
00000260: 50cd cabd 0ca9 81be 31f1 923e f69b 75bd
00000270: d891 3b3e 93e6 2cbc b94c f4bd c01b c93d
00000280: 348d d63d bc7f f53d 65da 2c3d 75b6 01be
00000290: 1901 a83e 5ff0 483d 6708 313e 4303 9abd
000002a0: bb5b 48be e037 463d 2773 a63e 8c92 7b3e
000002b0: 74a2 fb3d 1786 43be f553 4a3e 23fe 7b3e
000002c0: b7d3 9fbe c7bc 2c3e 2d7a 213e 966b e43d
000002d0: 9bdc 4c3e 8136 4cbe 87cb 9a3e 0eca 773d
000002e0: acbe 43be 7100 cdbd 14f0 0bbe 0fa2 903d
000002f0: 1947 0fbe 90ce f3bd 1859 9d3e c2c2 c73d
00000300: 454c 8d3e 414c 0abe 9cfc a23d 4ed9 6d3e
00000310: 09d0 00be 673b 7dbe fade 50be eea9 92be
00000320: 1237 e13d 3bdd 55be df2e 863e 4638 b33c
00000330: 6c38 28be ff7d 65be 3193 bfbd 23b1 923e
00000340: 341c 63be edcc c7bd af77 143e 3431 2f3e
00000350: 2a46 a1bd 6a6b 5e3d 6550 93be 6937 54bd
00000360: 5f5f 6b3e 21b4 07bc bb90 793e 20fa 0e3d
00000370: 4ac1 adbd bff3 45be eeb0 f8bd f032 b03e
00000380: dcda a43b 1b6c e1bd 5e2d f83c a69d b2be
00000390: 173f 8a3e 93f7 813e 47a6 d5bc adfb 4f3e
000003a0: 2c3f 983e 8bf8 71be cce2 34be 74b8 7cbd
000003b0: 6c3a 1d3e a017 90be 3b14 9abe 0b7c f23d
000003c0: 23ea 323d 3d65 a43d cbfa 5ebd 03c2 513d
000003d0: 8d31 373b a145 18be 6b42 90bd ce25 f73d
000003e0: db8e 91bd d887 b03e b459 983e df06 54be
000003f0: eca6 d4bb 7dc4 72be 29da 9e3e 0e6e f13c

conv_layers.1.att_dst f4 [1, 4, 64]
0.16760178 0.088128574 0.0720073 0.24247521 0.18493734 0.13654193 0.11996212 0.19655445
-0.27278703 0.08678295 0.20927098 0.16138563 -0.26618928 -0.100315705 0.18327318 -0.29775107
0.20380928 0.115356185 0.0848947 0.07729932 -0.20625821 0.16217388 0.21945691 -0.084509015
0.113428466 0.17914675 0.31311736 -0.18635449 0.28361642 0.07568497 0.2292761 0.19564006
-0.027521234 -0.22268595 0.12593758 0.029175438 -0.072429575 -0.052453186 0.14621696 0.108599834
-0.09767762 0.121341564 0.30116665 -0.0491789 0.016034864 -0.32093596 -0.023866883 0.1422833
0.0015119315 -0.13350295 0.0034785473 -0.004956358 -0.31125918 -0.07549436 0.2701906 0.18226416
0.02396054 -0.3137038 0.4331225 0.023509514 0.2371051 -0.2676402 -0.06413811 0.035160635
0.106153615 -0.04230155 0.22185355 -0.060294934 0.053222448 -0.21828546 0.35495806 0.12660094
0.22470799 0.13502829 0.08645906 -0.24744818 0.34157094 -0.16412719 0.33312458 0.09955629
-0.21678054 -0.1884409 -0.16112652 -0.0046795364 -0.16177249 0.07448014 -0.19339179 0.11534182
0.05868931 0.056494847 0.12117868 0.15059361 0.19568343 0.26615596 0.34444562 -0.32700706
0.021557497 -0.09689848 0.18095043 -0.067264654 -0.1787893 0.19722094 0.2727266 -0.34727922
0.12972718 0.11494653 0.06533622 -0.14220135 -0.29492018 -0.25604525 0.0843674 0.06354809
-0.10585574 0.31312925 -0.2579698 0.09375905 0.0051105563 -0.18885991 -0.2708778 0.10003001
-0.020230856 -0.17956574 -0.02866567 0.2893821 0.22261809 0.22305632 -0.009941797 -0.2645422
-0.18052231 0.025549816 0.31133518 0.19949749 0.107402705 -0.08668418 -0.17657483 0.09475512
0.103102796 0.11989552 -0.35544616 -0.3545645 0.39755368 -0.0786777 -0.17928937 0.23010834
-0.18034448 0.21279302 0.09736348 -0.101487085 -0.25426412 -0.042915974 -0.18383786 0.2882285
0.23019513 -0.112996295 -0.13253342 -0.10328545 0.264048 0.19090329 -0.4084311 -0.20453756
0.16439076 0.21958686 -0.23531596 0.054925416 0.066771075 -0.24591383 0.14891088 -0.085728005
0.10200425 0.19976181 -0.11230469 0.1610736 -0.15133238 -0.22669534 -0.058879983 0.23891889
-0.08130127 -0.08275762 0.07110232 -0.19849257 0.21077387 -0.09279225 -0.27661932 -0.3323551
-0.31573078 -0.02224446 0.16982003 0.15928309 0.00055084843 0.04433489 -0.022961015 0.3425115
-0.09056501 0.2101942 -0.048035324 0.18107612 0.039476275 -0.24718013 -0.11155225 -0.1652687
0.1787222 0.06631865 0.24734248 -0.12429616 -0.2650911 0.19626181 -0.28064927 -0.19317262
0.27715313 -0.1671039 0.1265915 -0.29111984 -0.15206549 -0.017966555 -0.053349797 0.20164533
-0.1433519 -0.22003704 0.1999843 0.023325775 0.124441616 0.14775895 0.04210975 -0.12424173
0.050000023 0.22706978 -0.21959218 -0.034554362 0.19918162 0.21436411 -0.19110113 -0.24148293
0.2519577 0.15674683 0.06058961 -0.033995766 -0.1491186 0.085815564 -0.17839462 -0.2351576
-0.17758226 -0.21195479 0.15320332 0.23914379 0.16082473 0.15963987 -0.3067436 0.028515454
0.1365714 0.2747393 -0.018588128 0.1479785 0.12532872 -0.26666155 0.2617022 -0.025045235
00000000: cd9f 2b3e c17c b43d 9078 933d 6c4b 783e
00000010: 3760 3d3e a6d1 0b3e b3ae f53d 9245 493e
00000020: beaa 8bbe 42bb b13d 224b 563e 4642 253e
00000030: f649 88be 5272 cdbd f7ab 3b3e d472 98be
00000040: 61b3 503e dd3f ec3d 46dd ad3d 1b4f 9e3d
00000050: 5a35 53be e910 263e 50b9 603e 1013 adbd
00000060: 2f4d e83d 3f72 373e eb50 a03e b6d3 3ebe
00000070: 2c36 913e b900 9b3d 5bc7 6a3e de55 483e
00000080: 3674 e1bc c907 64be c8f5 003e 5401 ef3c
00000090: f555 94bd 27d9 56bd e6b9 153e 9769 de3d
000000a0: 340b c8bd ed81 f83d 8432 9a3e d06f 49bd
000000b0: 8c5b 833c b851 a4be 7b84 c3bc b7b2 113e
000000c0: 012c c63a ffb4 08be 57f8 633b f268 a2bb
000000d0: 5d5d 9fbe c99c 9abd 6c56 8a3e 75a3 3a3e
000000e0: e548 c43c c99d a0be 3bc2 dd3e 0697 c03c
000000f0: aecb 723e 2308 89be d75a 83bd 9904 103d
00000100: 1167 d93d 6444 2dbd 942d 633e d2f7 76bd
00000110: c8ff 593d 3986 5fbe 10bd b53e ada3 013e
00000120: da19 663e db44 0a3e 7311 b13d 0e63 7dbe
00000130: 63e2 ae3e f510 28be 4e8f aa3e 2be4 cb3d
00000140: b8fb 5dbe a7f6 40be 5afe 24be cc56 99bb
00000150: b0a7 25be 0b89 983d 7f08 46be 5538 ec3d
00000160: 3464 703d 2467 673d 872c f83d 3635 1a3e
00000170: 3d61 483e 9845 883e 2d5b b03e 786d a7be
00000180: 5999 b03c b672 c6bd 124b 393e 0dc2 89bd
00000190: 8b14 37be 49f4 493e d2a2 8b3e 95ce b1be
000001a0: 34d7 043e 1669 eb3d ffce 853d 3b9d 11be
000001b0: c7ff 96be 5d18 83be d1c8 ac3d 8025 823d
000001c0: e5ca d8bd 7a52 a03e 9e14 84be bf04 c03d
000001d0: 7476 a73b 7e64 41be 7fb0 8abe 89dc cc3d
000001e0: 2ebb a5bc 15e0 37be 44d4 eabc e429 943e
000001f0: fff5 633e e068 643e ebe2 22bc 1372 87be
00000200: d7da 38be d94d d13c 5367 9f3e 1249 4c3e
00000210: f3f5 db3d 7a87 b1bd 08d0 34be f90e c23d
00000220: 8f27 d33d c88b f53d 0afd b5be 7a89 b5be
00000230: 288c cb3e c621 a1bd a297 37be 85a1 6b3e
00000240: 39ac 38be 6ae6 593e 8166 c73d 76d8 cfbd
00000250: e82e 82be a9c8 2fbd fe3f 3cbe b092 933e
00000260: 46b8 6b3e 9a6a e7bd d7b6 07be 5287 d3bd
00000270: 4d31 873e 277c 433e e21d d1be 4b72 51be
00000280: 0d56 283e 61db 603e abf6 70be 79f9 603d
00000290: 46bf 883d d6d0 7bbe 187c 183e 2a92 afbd
000002a0: 9be7 d03d 5c8e 4c3e 0000 e6bd 7af0 243e
000002b0: e0f6 1abe d322 68be 232c 71bd 27a7 743e
000002c0: 4881 a6bd d47c a9bd 189e 913d a341 4bbe
000002d0: 1bd5 573e dd09 bebd 0ca1 8dbe 732a aabe
000002e0: 77a7 a1be 043a b6bc 4de5 2d3e 1b1b 233e
000002f0: d066 103a 8098 353d bd18 bcbc ab5d af3e
00000300: 267a b9bd 263d 573e b0c0 44bd 056c 393e
00000310: e0b1 213d ca1c 7dbe 8275 e4bd 333c 29be
00000320: f402 373e 13d2 873d 5947 7d3e fc8e febd
00000330: 05ba 87be dbf8 483e 43b1 8fbe 0bcf 45be
00000340: 04e7 8d3e 491d 2bbe 34a1 013e a90d 95be
00000350: 0eb7 1bbe 992e 93bc 5185 5abd 1d7c 4e3e
00000360: d7ca 12be 6451 61be afc8 4c3e b215 bf3c
00000370: 3fdb fe3d 1f4e 173e 467b 2c3d 7372 febd
00000380: d3cc 4c3d fb84 683e c6dc 60be e088 0dbd
00000390: 44f6 4b3e 4482 5b3e 04b0 43be 4d47 77be
000003a0: 9a00 813e 3e82 203e d02c 783d 253f 0bbd
000003b0: 8cb2 18be 12c0 af3d 14ad 36be 27cd 70be
000003c0: 20d8 35be ad0a 59be 55e1 1c3e 1ce2 743e
000003d0: 3daf 243e a278 233e 7f0d 9dbe 3e99 e93c
000003e0: 60d9 0b3e a1aa 8c3e 2146 98bc ad87 173e
000003f0: 2c56 003e dd87 88be d5fd 853e aa2b cdbc

conv_layers.1.bias f4 [256]
0.000113078124 0.00020979045 4.065237e-05 6.6598834e-05 0.00031624344 0.00033200168 -8.8176515e-05 3.2884665e-05
-1.6874552e-05 -0.00017478528 1.1357138e-05 0.00013982414 0.0002424057 3.4089222e-05 -0.0001231408 0.000121314806
9.63952e-06 -3.4217952e-05 0.00016842184 -4.865093e-05 -6.62439e-05 -0.00013853118 7.5412485e-05 -0.00056159176
0.000116164825 -0.00011115803 7.148082e-05 -0.0001559085 -0.00010245712 0.00012384888 -0.00027930425 -1.21475105e-05
-4.3435866e-05 -8.773355e-05 0.00013833195 -4.1225547e-05 2.1593996e-05 -9.85797e-05 -6.53534e-05 0.00029179605
0.0002555594 0.00015721783 -4.0249528e-05 -1.862159e-06 0.0002578083 4.1142507e-06 4.6864527e-05 -0.00011038939
0.00018633883 -5.0519833e-05 5.7891657e-06 -7.12511e-05 3.465625e-05 9.303425e-05 6.868712e-05 0.0001396034
0.0002899456 0.00010319305 1.6801341e-05 3.3871427e-05 2.6687745e-05 -1.1097104e-06 -0.00017774239 0.00022854729
-0.00044939265 -0.00012567884 1.7848051e-05 0.00027191665 -8.025143e-05 5.8418867e-05 7.96929e-06 -0.00020463283
7.6069923e-06 5.095868e-05 -3.480704e-05 7.675944e-05 -9.543233e-05 -0.00010164329 3.121675e-05 0.00041200605
0.00020432733 -0.00012332818 6.833236e-05 8.748433e-05 0.00011231228 -0.0001089805 -6.409923e-05 -9.842103e-05
-4.0524837e-06 8.758129e-06 4.7820795e-05 -6.1928367e-06 0.00019538701 -0.00032212026 -0.00012070154 9.371927e-05
1.6822765e-05 -0.0007569831 0.0001153838 0.00029635796 4.8478123e-05 -0.00024671113 -0.0001577914 -7.630372e-05
0.00010863723 2.2771701e-05 -7.712845e-05 0.00025157502 -0.00014369747 -6.5940594e-06 -0.00011037175 -2.055852e-05
0.00024836755 0.0001917355 -3.580822e-05 3.5669313e-05 -2.5637617e-06 6.108724e-05 -0.00026797884 5.929571e-05
-2.4351577e-05 -9.562737e-05 4.666911e-06 2.8463107e-06 1.1598987e-05 0.00048235542 -0.00010880194 -0.00021538083
2.2758473e-05 4.0981795e-05 -0.00022343516 -0.00023534207 -3.0217721e-05 -3.2863976e-05 -0.00019211082 2.2256754e-05
-0.00023306024 0.0001793827 -2.8477252e-05 -5.3789612e-05 9.543755e-05 -4.4879343e-05 -4.9519105e-05 -5.514139e-06
-0.00023654307 -4.8605798e-05 -6.0940158e-05 -0.00021180318 -9.130052e-05 6.436875e-06 0.00023188663 -2.572651e-05
0.00016124407 3.0338365e-06 -6.371809e-05 -7.275546e-05 1.9348621e-05 -0.000778552 0.0002402671 -2.804719e-05
8.492035e-05 -0.00018001582 6.3620275e-05 -0.00016284687 -0.000103983744 9.473291e-08 0.0001940542 3.8418293e-05
9.655281e-05 -0.0002873023 0.00019537467 -0.00012033762 0.00015966933 -0.0001260276 8.510587e-05 -2.1935596e-06
4.3152682e-05 -0.00017964863 -0.00010798605 -9.159715e-05 -0.00021807612 5.709719e-05 -0.00013441133 0.00013553431
0.00014409167 6.225405e-06 -8.2541344e-05 7.547245e-06 -0.00020992044 0.0004259541 8.9934714e-05 0.00012091328
3.6466623e-05 3.6290647e-05 1.9536206e-05 -0.00018784935 -0.00018177496 5.694937e-05 0.00014399156 0.00014456897
6.299073e-05 0.00015330905 0.00014540233 0.00016005895 -1.8313562e-05 3.3866574e-05 0.00017547252 8.597536e-05
-0.00024462707 0.000109552835 6.43874e-05 -0.00014192756 0.00026958343 6.5163505e-05 -0.00015554692 3.5223715e-05
-0.00013878183 -0.00015549787 7.193107e-05 -0.0001397393 -8.74941e-06 -0.00010054968 -2.0328845e-05 -0.00018605063
0.00021118195 -9.191866e-06 0.000107044696 4.120978e-06 -7.437045e-05 5.8875725e-05 0.00036474995 -3.7986978e-05
8.2160754e-05 8.4076884e-05 0.00033137813 0.00015516946 3.6445433e-06 0.00023011559 -0.0002521606 1.9015153e-05
0.00013514762 -0.00015483426 0.00011109724 0.00010036907 -1.32836285e-05 -7.5168915e-05 5.509148e-05 -0.00024094709
0.0002446472 -0.00012548828 -0.00013109304 1.8439681e-05 -7.356331e-05 0.00013548751 -0.00031634697 -1.125156e-05
00000000: 5b24 ed38 32fb 5b39 2682 2a38 faaa 8b38
00000010: 7acd a539 8310 ae39 68eb b8b8 a4ed 0938
00000020: d38d 8db7 9146 37b9 898a 3e37 c29d 1239
00000030: 492e 7e39 06fb 0e38 5b1f 01b9 646a fe38
00000040: 6cb9 2137 3f85 0fb8 659a 3039 8a0e 4cb8
00000050: 6cec 8ab8 ae42 11b9 c526 9e38 c937 13ba
00000060: 849d f338 831d e9b8 f9e7 9538 5f7b 23b9
00000070: 3fde d6b8 6edd 0139 956f 92b9 29cd 4bb7
00000080: e82e 36b8 97fd b7b8 330d 1139 98e9 2cb8
00000090: c124 b537 93bc ceb8 570e 89b8 34fc 9839
000000a0: 9afc 8539 d7da 2439 9ad1 28b8 4cef f9b5
000000b0: 722a 8739 250d 8a36 6790 4438 da80 e7b8
000000c0: f363 4339 42e5 53b8 8e40 c236 a56c 95b8
000000d0: dd5b 1138 621b c338 1e0c 9038 8162 1239
000000e0: d703 9839 5969 d838 9bf0 8c37 2b11 0e38
000000f0: 7fdf df37 5cf1 94b5 5c60 3ab9 32a6 6f39
00000100: 769c ebb9 a8c8 03b9 66b8 9537 0990 8e39
00000110: a94c a8b8 c806 7538 d7b3 0537 b592 56b9
00000120: 913f ff36 77bc 5538 c6fd 11b8 e9f9 a038
00000130: d822 c8b8 5329 d5b8 bbee 0238 8402 d839
00000140: b340 5639 a851 01b9 a84d 8f38 cb77 b738
00000150: 3289 eb38 768c e4b8 036d 86b8 6367 ceb8
00000160: 92fa 87b6 e1ef 1237 3093 4838 10cc cfb6
00000170: cde0 4c39 40e2 a8b9 2521 fdb8 268b c438
00000180: 9d1e 8d37 4770 46ba 35fa f138 7e60 9b39
00000190: fd54 4b38 0259 81b9 ce74 25b9 3f05 a0b8
000001a0: 2bd4 e338 db05 bf37 05c0 a1b8 d4e5 8339
000001b0: 7fad 16b9 8a42 ddb6 6277 e7b8 1675 acb7
000001c0: 5437 8239 9b0c 4939 c930 16b8 a29b 1538
000001d0: 170d 2cb6 f61b 8038 837f 8cb9 49b4 7838
000001e0: 9d46 ccb7 8e8b c8b8 7698 9c36 3f03 3f36
000001f0: 4599 4237 a6e4 fc39 992c e4b8 dad7 61b9
00000200: 73e9 be37 dee3 2b38 eb49 6ab9 28c6 76b9
00000210: 107c fdb7 6dd7 09b8 5b71 49b9 04b4 ba37
00000220: a261 74b9 ad18 3c39 6fe2 eeb7 289c 61b8
00000230: a525 c838 d43c 3cb8 bcb2 4fb8 1806 b9b6
00000240: 8c08 78b9 14de 4bb8 ff99 7fb8 7c17 5eb9
00000250: 9878 bfb8 56fc d736 9826 7339 42cf d7b7
00000260: a013 2939 ea98 4b36 64a0 85b8 4a94 98b8
00000270: d94e a237 be17 4cba 35f0 7b39 e246 ebb7
00000280: 4417 b238 a1c2 3cb9 e06b 8538 e0c1 2ab9
00000290: d911 dab8 f86f cb33 077b 4b39 5423 2138
000002a0: 657c ca38 10a1 96b9 7ddd 4c39 c55d fcb8
000002b0: e96c 2739 4726 04b9 de7a b238 1135 13b6
000002c0: d7fe 3438 1060 3cb9 9276 e2b8 d817 c0b8
000002d0: 5dab 64b9 a47b 6f38 c4f0 0cb9 371e 0e39
000002e0: 5017 1739 d2e3 d036 0c1a adb8 573e fd36
000002f0: 171e 5cb9 9752 df39 559b bc38 d392 fd38
00000300: bdf3 1838 c936 1838 afe1 a337 6df9 44b9
00000310: d89a 3eb9 ecdc 6e38 71fc 1639 7097 1739
00000320: e419 8438 96c1 2039 2477 1839 7fd5 2739
00000330: 13a0 99b7 f50b 0e38 0cff 3739 ac4d b438
00000340: 4a41 80b9 bbbf e538 b907 8738 64d2 14b9
00000350: e056 8d39 64a8 8838 4f1a 23b9 2dbd 1338
00000360: f785 11b9 240d 23b9 b3d9 9638 fc86 12b9
00000370: 6eca 12b7 33de d2b8 dd87 aab7 9616 43b9
00000380: b970 5d39 c436 1ab7 2f7d e038 ee46 8a36
00000390: 55f7 9bb8 54f1 7638 e93b bf39 3554 1fb8
000003a0: b84d ac38 6f52 b038 d2bc ad39 fcb4 2239
000003b0: c794 7436 2f4b 7139 6c34 84b9 bb82 9f37
000003c0: 6ab6 0d39 015b 22b9 e0fc e838 3c7d d238
000003d0: c0dc 5eb7 01a4 9db8 0712 6738 bea6 7cb9
000003e0: fe43 8039 8195 03b9 0576 09b9 eaae 9a37
000003f0: 0046 9ab8 a711 0e39 5fdb a5b9 15c5 3cb7
