models/gnn_fold_1.pth (torch, 959138 bytes, 45 tensors)

conv_layers.0.att_src f4 [1, 4, 64]
00000000: 952b e6bd 9645 a5be 567e f3bc e861 98bd
00000010: 8b48 76bd efd7 0ebe bbd7 143e 4a45 c43c
00000020: cec5 99be 6c34 2abe f5bc 9fbe f65f f93d
00000030: 55c1 293c fea4 44be 53bd 61be 5237 303e
00000040: cc60 b0be d733 69be fc12 08bd dc47 483e
00000050: 5b92 9abe 7894 55be f8df 6b3d 929d 8bbe
00000060: 7504 0e3e 6d7e 043e 3d0a 073e a96e 9c3e
00000070: 1a4e 6a3e 07e5 60bd c28b 0e3e ed37 cc3d
00000080: 88a1 d93d 1fd6 d33c 3032 e9bd 9d23 4bbe
00000090: a53f 9a3d d150 d43c 0758 833c 4760 983e
000000a0: 9589 93be 7883 943d bc1d 3cbd ebfa 90bd
000000b0: 4089 da3d 24ff 2e3e 46b5 84be c733 673d
000000c0: f332 ecbd df6b 4cbe 5b20 48be 894b 283e
000000d0: 0e08 4cb9 50cc 78be 77c5 b6bd 4d7c 21bd
000000e0: 0bf1 0a3e 950c a13e 2de3 82be 6ce8 863d
000000f0: 3de3 923e c44c 563e ed49 0d3e 89ef f6bd
00000100: 2408 0e3e f748 af3d 9f4e e4bc 87d5 2d3e
00000110: 7ae9 d43b 9e5a 18be 509a d13d 4d2b e13d
00000120: a024 8abe 40f1 cbbc 8524 2a3e fe81 343e
00000130: 82bd 443e 64d3 0bbe e615 84be 4aeb b7bc
00000140: aefc 1a3e b7e4 423e 4f6a 6d3e 8263 6e3e
00000150: 86e4 8abe d00d 8f3d 2819 943d 5b9e 94bd
00000160: a037 1c3e 02aa 98be aed5 113c 3f8d 33be
00000170: 9371 383e 1ed8 89be ed83 56be 0a1f f1bd
00000180: c4eb 333e 7720 843e fae9 593e c717 a83e
00000190: cdc2 983d c565 413d 7ac2 a33c a235 7b3d
000001a0: a706 343d 3af7 30be f850 a23e 1d54 83bd
000001b0: 4a05 983e 7dde 383e f309 253e 78f3 9d3d
000001c0: b34d 563d 21a4 ccbd f903 7abe 877f 8ebd
000001d0: 7110 07be 55f9 413e 7c0c d1bc 5cdb 24bd
000001e0: 43cc 203e 8b84 5f3e db50 4bbe 0c36 2dbe
000001f0: 07a7 8cbe 9979 ad3e 7d30 3ebe f7d2 1e3e
00000200: d103 8f3e b4d8 f93d 5271 0d3d d762 f93c
00000210: 8625 773e f602 5fbe a511 603d f291 24bd
00000220: 9f0b 2e3e ba1d 86bc a182 34be 5c3f f9bd
00000230: 23b8 373d 6173 413e 9516 3dbe 5554 39be
00000240: a6ee 8bbd abd1 783c 07dc e3bd 6ac7 973e
00000250: 445a 9ebb 9ffc 4cbe 0ee8 98bd 2276 5f3e
00000260: e0c5 3dbe 5032 b4be 91fc 5dbe 9db4 093e
00000270: e302 bbbc 2fae 52be 6bb6 433e 0e03 103e
00000280: ad12 97be fa91 3b3e 23f6 63bd ab6b 2a3d
00000290: 1362 843e 2a0c b43e dce5 b93d 7df8 9fbd
000002a0: 8035 093e 6752 953e b462 963c 9d38 99be
000002b0: 9883 913e f0af e8bd fb47 2fbe 3ebb 65be
000002c0: 8e30 c23d f007 213e 0610 c0bd 15ff 90be
000002d0: a87a 283e 2ef0 32bc 6284 343e 21d9 abbc
000002e0: 5d88 2e3e 7b4a 48be df26 80be d15e 5e3e
000002f0: cec5 0ebc 36c7 ab3e 3af7 283d 7c55 84be
00000300: 91bb 6bbe 29b9 89bc 41d4 91bd a7de 72be
00000310: 0cb0 763e df43 adbd 86e5 a9bc c05d 483e
00000320: 8db1 5e3c fb66 03bc bcf9 973d a599 07be
00000330: 8fa7 86be 70bc 083e 237e 36be cf8a 63be
00000340: 3f7e 64be 5546 653e 520e 22be 5641 6b3e
00000350: de59 1d3e d58a 9b3d d6e7 26be 87c7 a2be
00000360: 28a4 43be 4863 473e 51d7 3bbe af1c 493d
00000370: ed8b 40bc 0954 ae38 488e 133d bf5a 6fbe
00000380: 81cc 803e fb66 2cbe 96de 23be d266 94be
00000390: 870c f83d d7ec debd fc93 50bc fcf4 1b3e
000003a0: 17e8 1fbd 7713 853e 4c04 123e 9dd5 9cbd
000003b0: c0d2 1abe b827 adbe 461d fc3c 83b5 07bd
000003c0: 670c 583e 1cf0 6cbe 88ee de3d 4742 713d
000003d0: 816b 033e 1cd6 043e 0e98 2bbd a113 64be
000003e0: d229 ffbc a9ff 933e 560e 5dbe 479f 27be
000003f0: ca12 813e 4397 43bd 2b78 0ebe a04a 9a3d
-0.11238781 -0.32279652 -0.029723328 -0.07440549 -0.060127776 -0.1394956 0.1453542 0.02395882
-0.30033726 -0.1662156 -0.3119885 0.12176506 0.010361035 -0.19203565 -0.22044878 0.17208603
-0.3444885 -0.22773682 -0.03322123 0.19558662 -0.30189785 -0.20857418 0.05758664 -0.27268654
0.13868888 0.12938853 0.131875 0.30553177 0.22881356 -0.054905917 0.13920501 0.099716045
0.10626513 0.025858937 -0.11386526 -0.19837804 0.075316705 0.025917443 0.016033186 0.29760954
-0.28815904 0.07251638 -0.045926794 -0.07079109 0.106707096 0.17089516 -0.2591955 0.056445863
-0.11533155 -0.19963025 -0.19543593 0.16435064 -0.00019457957 -0.24296689 -0.08924382 -0.039425183
0.13568513 0.31454912 -0.25563946 0.065873 0.28688994 0.20927721 0.13797732 -0.120574065
0.13870293 0.08558839 -0.02786952 0.16975985 0.006497559 -0.14878318 0.10234511 0.10994587
-0.26981068 -0.02489531 0.16615494 0.17627713 0.19212916 -0.13654858 -0.25797957 -0.022451062
0.15135452 0.1903256 0.23185085 0.23280147 -0.27127475 0.069850564 0.07231361 -0.072567664
0.15255594 -0.29817206 0.008901043 -0.1753435 0.18012075 -0.26922697 -0.20948763 -0.11773498
0.17570406 0.2580602 0.21280661 0.3283064 0.0745903 0.047216196 0.019990195 0.061330445
0.043951657 -0.1728181 0.317024 -0.06412528 0.29691535 0.18053623 0.16117077 0.077124536
0.052320193 -0.099922426 -0.24415578 -0.06957918 -0.13189866 0.18942769 -0.025518648 -0.04024826
0.1570292 0.21827905 -0.19855063 -0.16915148 -0.27471182 0.33881834 -0.18573184 0.15510164
0.279326 0.12199536 0.0345319 0.030442638 0.24135408 -0.21778473 0.054704327 -0.040178247
0.1699662 -0.016371597 -0.17627956 -0.12170288 0.04485334 0.1889167 -0.18465646 -0.18098576
-0.06832628 0.0151867075 -0.11125951 0.29644328 -0.004832538 -0.20018242 -0.07466136 0.21822408
-0.18532515 -0.35194635 -0.21678378 0.13447805 -0.022828525 -0.20574258 0.19112556 0.14063665
-0.29506436 0.18317404 -0.055654656 0.041606586 0.25856075 0.3516553 0.09077045 -0.07811067
0.13399315 0.2916443 0.018357612 -0.29926005 0.2842071 -0.113616824 -0.17117302 -0.22434708
0.09481917 0.15725684 -0.09378056 -0.28319612 0.1645304 -0.010921521 0.17628625 -0.020977559
0.17044206 -0.19559662 -0.25029656 0.21715857 -0.0087141525 0.33550423 0.0412514 -0.2584647
-0.2302077 -0.016811924 -0.07120562 -0.23717748 0.24090594 -0.08460211 -0.020739328 0.19567013
0.013592136 -0.008020158 0.0742068 -0.13242204 -0.26299712 0.13353133 -0.17821555 -0.2222092
-0.22313784 0.22390111 -0.15825775 0.22974142 0.15366313 0.075948395 -0.16299376 -0.31792852
-0.1910559 0.19471467 -0.18343855 0.04909962 -0.011752111 8.312619e-05 0.03602436 -0.2337446
0.25156024 -0.16836159 -0.16002879 -0.28984696 0.121117644 -0.10885017 -0.012730595 0.15230173
-0.039039697 0.25991413 0.14259452 -0.07657931 -0.15119457 -0.33819366 0.030775677 -0.033132087
0.21098481 -0.2313847 0.1088534 0.058901098 0.12833978 0.12972301 -0.041893058 -0.22273113
-0.031147871 0.2890599 -0.215875 -0.16369353 0.25209647 -0.047751676 -0.13913028 0.07533765

conv_layers.0.att_dst f4 [1, 4, 64]
00000000: 5959 793d 248d 213d df69 333c 0c1e 393d
00000010: c75f 133d 8b4e 9bbd ad86 73bd 7799 c23c
00000020: 1c92 563c a69b d6bd 6932 bd3c c292 f43d
00000030: a041 013e 6904 93bd c933 53bd 52d6 a33c
00000040: 7a22 1c3d 5400 e6bc f63c 373d d690 a13d
00000050: 24e2 e9bd 279a 043c f070 6dbc 8760 82bd
00000060: 059c 6f3d 43c5 98bd 52a1 90bd 3204 a83c
00000070: 7920 bfbd c154 143c d87e 243c 9b28 0c3e
00000080: c585 1e3d fc83 413d cc2b e43c dd9c 6bbd
00000090: ca75 7b3b 702e cc3d ed9c 11bc 1037 86bd
000000a0: ad5e 963d bd58 be3d 1e95 cebc add6 4cbc
000000b0: 354f 7e3d fdf5 01be 15c7 843d b8d1 19be
000000c0: e782 bcbd 482c 983d 2b97 78bd d16b 55bd
000000d0: 620f 49bc 11ed 293b bbca 163d b0fb 8a3d
000000e0: a8f0 643d a351 413d 748b 81bd 3624 3c3d
000000f0: 5ffb 52bd 78bd 08be 76f2 b4bd b91a e03c
00000100: 53e9 98be b8d0 a6bd c064 6dbe 20c0 8e3e
00000110: bd8d 883e 381c 163e 4bfe 27be df0e a7be
00000120: b94c b83c ca4b 7c3e 3dc6 4dbc c482 5fbe
00000130: 33f2 9fbe ad17 413e 867e 003e 409b 0a3e
00000140: ee0d a3be 4a1b ab3d 61b9 b43e e2dc 66be
00000150: 0f49 52be 3cd2 79be c9e6 17be cda5 b6bd
00000160: 63db 053e 9227 dabc 3892 973e c094 a23e
00000170: 862a 1b3e c174 23be 10a0 463e 5730 713e
00000180: 7da1 0f3e 329c 99be 845a 01be bd3a 4dbe
00000190: 8309 3ebe 578b 233e aac9 5c3d ac23 4d3e
000001a0: e22b 66be b16b a5bc 6391 383e ded1 3cbd
000001b0: ec7b 6a3d a4cb 85be 4f51 9b3e 53c7 b63c
000001c0: dadb 043e 20bc 60bd 137b 7dbd 8b0b b13e
000001d0: 80fc 2cbe 07b7 ae3e 82bf 45bd c803 80bd
000001e0: 8b68 22be 868e 113e 332a b8be 3bb3 203e
000001f0: d91d 55be 1257 a03e 96f5 5a3e d0c9 f43d
00000200: 4490 99be 63cb d23d 7d4b 53be e264 213d
00000210: 0d2a 22be 419a 223e a7e1 89bd c6dd 8e3d
00000220: 60a7 e23d 0c25 363e bf29 2b3e af41 d33b
00000230: d96a 6dbe 8a9a d83d d283 b6bd b027 84bd
00000240: bbb2 0a3d 5987 8a3e fb33 773e d740 b1bc
00000250: eeea 13be b70d 833e 452f 333e 3a9e 7abe
00000260: 5760 e53c b081 8fbe c6ef 92bd a197 8fbe
00000270: 894c 83be 12dc 43be 8471 79bd 44ca 953d
00000280: de9c 97be 6ed9 06be 0625 8c3d dbe2 df3c
00000290: 2071 70bc f48c 74be 5488 f43c 4d09 b13d
000002a0: d0c7 93be 8691 56be 495b 443d 8541 913c
000002b0: 3231 7d3e 4fc6 593d cbec 493e 6dfe 4fbe
000002c0: 2b7a afbd ec6d e3bb 7996 babd 5956 98bd
000002d0: d05c 313e 626a 65be 4b45 debd f4f7 f4bd
000002e0: 700a c33c 56d3 723c e804 62bd a434 333e
000002f0: dfee 82be c713 7c3e d918 f53d e765 433e
00000300: 0a39 93be cbe1 8d3e 7fac 073e 2828 173e
00000310: a701 503e 8d8f c4bd bf02 ebbd f2f2 1e3d
00000320: b370 b33c 1b2d a8be d0a8 49bd 56bc 79be
00000330: e7b0 44be 2fb1 6ebd cee7 e4bd 8900 033e
00000340: 9780 6c3e 507d 54bd c01e 93bc 7aeb 2a3e
00000350: fd6c 833d 6615 a93e 3e69 0d3d 87b0 10bd
00000360: ec7a 63be 8b12 993d 33be 2d3d cc13 373e
00000370: e0f9 9fbd 8b87 98bd c8ad 943c e230 86bd
00000380: 935d 3c3c 5701 85be ee11 5c3e a89b 69be
00000390: aff5 e1ba 9bca 263e 9ca5 3b3e e0f4 11bc
000003a0: b42e 89bd 96f6 423e 70cb bebd 0c91 76be
000003b0: 750f 7c3e 5383 663e beed 333e 15d0 003e
000003c0: 291e 47be 01f9 4c3e 08eb c5bd aeb1 b23d
000003d0: cbdb 703e 1be3 19be d8f6 71be e258 2bbe
000003e0: bc11 3cbd f4d2 d33d 72a2 713e 765e 5f3d
000003f0: a239 51be 3288 ccbc 4328 ffbd cb73 e63d
0.060876224 0.039441243 0.010950535 0.04519467 0.035980012 -0.0758334 -0.05945461 0.023754818
0.013096359 -0.10478906 0.023095326 0.11942054 0.1262269 -0.071785755 -0.051563058 0.019999657
0.038118817 -0.028076328 0.04473587 0.078889534 -0.11420086 0.008093393 -0.014492258 -0.063660674
0.0584984 -0.074595 -0.070620194 0.020509813 -0.093323655 0.00905341 0.0100400075 0.13687365
0.03870179 0.04724501 0.027852915 -0.057522643 0.0038369768 0.09969795 -0.008887512 -0.06553471
0.07342277 0.09294269 -0.025217589 -0.012502355 0.062087256 -0.12691493 0.064832844 -0.15021408
-0.09204655 0.07430321 -0.06069104 -0.052104775 -0.012271734 0.0025928656 0.036814433 0.06786287
0.05589357 0.047196995 -0.06325427 0.04593297 -0.051509257 -0.13353527 -0.08835308 0.027356492
-0.29865512 -0.08145279 -0.23182964 0.27880955 0.26670638 0.14659202 -0.16405599 -0.32628533
0.022497522 0.24638286 -0.012559471 -0.21827227 -0.3123947 0.18856688 0.12548265 0.13535786
-0.31846565 0.08354814 0.35297683 -0.22545198 -0.20535682 -0.24396604 -0.14834131 -0.08918343
0.1307197 -0.026630197 0.29603744 0.31754112 0.1515294 -0.15962507 0.19396996 0.23553596
0.14026447 -0.3000198 -0.12632185 -0.20041938 -0.18558316 0.15971123 0.05390326 0.20033139
-0.22477677 -0.020192953 0.1802421 -0.046098582 0.057247087 -0.26131928 0.3033547 0.022311842
0.12974492 -0.05486691 -0.06188495 0.3457912 -0.16893196 0.34124014 -0.04827834 -0.06250721
-0.15860192 0.14214525 -0.35969695 0.15693371 -0.20812167 0.3131643 0.21382746 0.11952555
-0.29992878 0.10292699 -0.20634265 0.03940285 -0.15836354 0.15879156 -0.06732493 0.06975894
0.110670805 0.1778757 0.16715144 0.006447039 -0.2318529 0.10576351 -0.089118615 -0.06452882
0.033861857 0.27056387 0.24140923 -0.021637363 -0.14445087 0.255964 0.174985 -0.24474421
0.02800004 -0.2802863 -0.071746394 -0.2804537 -0.2564433 -0.19126919 -0.060899273 0.0731397
-0.29611868 -0.1316888 0.06842999 0.027329853 -0.014675409 -0.23881894 0.029850163 0.08644352
-0.28863382 -0.2095395 0.04793862 0.017731437 0.24725798 0.053167637 0.19719236 -0.203119
-0.085682236 -0.006940594 -0.09110732 -0.074383445 0.17320561 -0.22403863 -0.1085306 -0.11961356
0.023808688 0.014820894 -0.05518046 0.1750055 -0.2557287 0.2461692 0.1196763 0.19081841
-0.28754455 0.2771133 0.13249396 0.14761412 0.2031313 -0.09597693 -0.11475133 0.03880591
0.021904325 -0.32846913 -0.049233258 -0.2438825 -0.19208108 -0.058274444 -0.11177026 0.12793173
0.23095928 -0.05187732 -0.017958999 0.1669139 0.06417272 0.33024138 0.034524195 -0.0353246
-0.2221486 0.0747424 0.042417716 0.17878646 -0.07811332 -0.07447728 0.018149272 -0.065522924
0.011496919 -0.25977585 0.21491215 -0.22813284 -0.0017239357 0.16288225 0.18324894 -0.00890848
-0.06698361 0.19039378 -0.093161464 -0.24078768 0.24615271 0.22511034 0.1757116 0.12579377
-0.19445099 0.20016862 -0.09663969 0.08725296 0.23521344 -0.1502804 -0.2362932 -0.16733125
-0.04591535 0.103429705 0.23597124 0.054533444 -0.20432141 -0.024967287 -0.12458851 0.112525545

conv_layers.0.bias f4 [256]
00000000: d324 be3b bf97 a4bc efe5 7b3b be77 e2bc
00000010: 1078 ec3b 04d5 c73b e6e7 a73c b2ca 893c
00000020: 03a6 87bc fc5e 593c 6846 533c 9b1f e0bc
00000030: 803c 3fbc 44b5 0c3c e907 ae3c 1bb1 ee3b
00000040: 81f1 1abc f653 49bc 51ea 86bc 27db 313b
00000050: 5135 553d bfee 25bd 4fc4 83bc 6580 d0bc
00000060: 9eca ca3b 01be 99bd e79e c3bc dcfd 85bc
00000070: b179 cd3c cdec 98bb 758b 263c dfd4 66bb
00000080: 1370 f5bc 0812 a4bc 6764 0d3c 1c5e 1ebb
00000090: c700 c83b 6fbf 203b 0f0a 793c 2a0a feba
000000a0: fe04 adbc c59f 0abc 42be 7dbc f064 21bd
000000b0: a772 0dbd 06d5 21bb 44dd 9b3b ee2b fe3b
000000c0: 3121 753d 56b3 973c ba57 e7bb 3b33 8d3c
000000d0: 88f1 45bc 7c40 06bd 2bb2 0f3c f497 f33c
000000e0: c70e 9e3c d177 46bd 92d8 023c 4fee 9ebc
000000f0: 164a ecbb aca4 8cbb c2e5 e03c 9e06 fe3c
00000100: 19f2 313a df1c bf3b b039 7b3c 1fd8 953a
00000110: eb3d 3c3b 7579 afba e010 b7bb d8ff 7d3a
00000120: 7da0 bdbb 1928 2aba 210c a6bb 6262 2aba
00000130: a27f b5bc 007f 083c 7972 94ba bbab e33c
00000140: f772 12bb 7d32 bc3c 3b1c 043c 8ea6 fa3c
00000150: c0b2 403b 01af 3ebc b4ac da3a f1f8 5cbc
00000160: a8b2 d4bb 0f10 bebc 916b 783c f963 debc
00000170: 9039 813c fa53 26bb 4c2b d6bc c5b6 71ba
00000180: ccb2 d03b 77bd ea3a a162 df3c 917d b3bc
00000190: 6b00 96bb 2b46 ba3c 9ab1 dbbb 9dc6 363c
000001a0: dbe2 dd3b 9d86 51bb 04d6 3d3b 9ecc f238
000001b0: c5bc ac3c 1797 1c3d 1c8d 38b8 1470 d03b
000001c0: d299 b03b 5f6c 3dbd b72e fcbb eb16 373c
000001d0: 9ab8 38bb 1d76 bcbc b56f 0d3c e933 3a3c
000001e0: 27d0 ce3a 09cc 063c f13a 88bc 71ef 0ebc
000001f0: 4964 dc3c 1b98 453c ada4 383b ad5f 27bd
00000200: bef9 9dbd 13dc 1c3b 4010 273c 0798 af3b
00000210: 0a06 b1bb 7244 a9bc 2587 1c3c 25cc 6abc
00000220: 88ca 4e39 85a0 8cbd e340 1cbc 55c6 a23b
00000230: ea0c a5bc a530 19bc c9bd 6d3c c8da 4dbc
00000240: 62f4 193d f450 283c d8fb 0fbc d3cb 7b3c
00000250: 8187 aebb f412 ebbb 4c49 883b bea7 963b
00000260: c6a6 26bb 7de6 d1bb ded9 6dbc 5017 96bc
00000270: ee59 963c fd9b c13d e5d3 313a 2232 23bd
00000280: 24a4 933c 2e81 bfbc 7bd5 b93b 032c 65bb
00000290: 5fb2 5eb8 9d14 32bb b0c8 853b d9aa 85bb
000002a0: 8394 483d 52e3 dabb b21e 55bb 15d7 003b
000002b0: b2e1 e4bb c967 eabc 0cb1 153d 5e93 713c
000002c0: b9cb 06bb b43c 9f3b 1497 2b3b 6f05 2fbc
000002d0: 465c 5f3c 919c 843a 1fe2 dd3c 376f 46bb
000002e0: c90e 443c 8f84 18bd 9dbc c43a 49e4 3e3c
000002f0: e611 ce3a e5fd abbc b8aa b9bb cc90 4abc
00000300: 262d 7a3b 8be7 5c3c a37e 853b 4409 97bc
00000310: 743b 683a 2154 7039 f315 bc3b d468 af3c
00000320: c43e d2bb 49d1 263c 4954 53bc f6ee 023c
00000330: ad02 7f3c a49c 86bc 634d 90bb 0ae4 9d3c
00000340: ae27 fc3b fb52 94bc f5a3 713c d56a bfba
00000350: 4244 613b 2575 d73c 1776 35bd cd3f 983c
00000360: f3f4 e0ba cf77 aa3b 654b 853c 7114 53bc
00000370: eb44 90bc 5aaa 0e3c 3836 33ba bb1c 353c
00000380: 5348 32bd cf32 41bc fd10 3a3d 5ee0 863c
00000390: c769 863c 927d 513c 78c7 84bc e889 23bc
000003a0: 9fdb 1bbd 374a 6f3c 52a9 a43c e6dc 843c
000003b0: 9edd f1bc d0f8 6cbc 498b 833c a598 7d3c
000003c0: 80dd 8bba 7fcc 32bc 61e0 0abc 160f 15bd
000003d0: a636 973c 780a b5bb 69f0 33bb fe88 a2bc
000003e0: 07a1 cd3c 0a36 b13c 7892 213d aadb 153b
000003f0: ba20 d5bc b2b3 d43b d9b9 10bd 7c63 fb3a
0.0058027296 -0.02009189 0.0038436612 -0.027644988 0.007216461 0.0060983915 0.02049632 0.016820285
-0.016558653 0.013267275 0.012895204 -0.02735882 -0.011672139 0.008588139 0.021244006 0.007284296
-0.009456993 -0.012288084 -0.016469153 0.0027138682 0.0520528 -0.04051089 -0.016084818 -0.025451848
0.0061887046 -0.075069435 -0.023879481 -0.016356401 0.025082441 -0.0046669007 0.010165085 -0.0035222096
-0.029960668 -0.02002813 0.008629895 -0.002416498 0.0061036083 0.0024528166 0.015200152 -0.0019381691
-0.021120545 -0.008460944 -0.0154872555 -0.039402902 -0.03453317 -0.0024693622 0.0047566015 0.0077567017
0.059846107 0.018518131 -0.0070600184 0.017236343 -0.012081511 -0.03277634 0.008770506 0.029735543
0.019294156 -0.04845411 0.007986205 -0.019400744 -0.00721098 -0.0042920914 0.027453307 0.031009015
0.00067880895 0.005832299 0.015333578 0.0011432207 0.002872343 -0.0013387637 -0.0055867285 0.0009689308
-0.005786954 -0.00064909604 -0.005067364 -0.00064996455 -0.022155587 0.00833106 -0.0011325619 0.027791848
-0.0022346356 0.022973293 0.008063371 0.030596998 0.0029403418 -0.011638404 0.001668355 -0.013487087
-0.006491024 -0.023201017 0.015162365 -0.02714728 0.015774518 -0.0025379644 -0.026143692 -0.0009220655
0.0063689705 0.0017909248 0.02726871 -0.02191046 -0.0045776865 0.022738537 -0.0067045214 0.0111557515
0.006771428 -0.0031971105 0.0028966675 0.00011577572 0.021086106 0.038230028 -4.4000437e-05 0.006361017
0.0053894306 -0.04624593 -0.0076959985 0.011174898 -0.0028186203 -0.02300554 0.00863259 0.011364915
0.0015778587 0.008227357 -0.016629668 -0.0087240795 0.026903288 0.012060191 0.0028174326 -0.040862728
-0.0771365 0.0023934885 0.010196745 0.0053586992 -0.0054023312 -0.02066252 0.009553705 -0.014330898
0.0001972114 -0.06866554 -0.009536955 0.0049674907 -0.02014776 -0.009349977 0.01451058 -0.012564369
0.037586577 0.010273207 -0.008788072 0.01536842 -0.005326212 -0.0071738902 0.0041591283 0.004597633
-0.0025428995 -0.00640565 -0.014517276 -0.018321663 0.018353429 0.094535805 0.0006783589 -0.039842732
0.018022604 -0.023377027 0.005671201 -0.003496886 -5.3095046e-05 -0.002717293 0.0040827617 -0.0040792045
0.048969757 -0.0066799307 -0.0032519517 0.001965945 -0.006984913 -0.028613942 0.0365458 0.014744608
-0.0020568206 0.0048595313 0.002618258 -0.010682448 0.01363284 0.0010117461 0.027085362 -0.0030278692
0.011966416 -0.037235793 0.0015009824 0.011651107 0.0015721887 -0.02099509 -0.005666103 -0.012363624
0.0038173883 0.0134829385 0.004073934 -0.018437035 0.0008858957 0.00022919524 0.0057399212 0.02141229
-0.0064161737 0.010181733 -0.012898513 0.007991543 0.015564603 -0.016432114 -0.0044037565 0.019273777
0.00769516 -0.018105974 0.014748563 -0.0014603982 0.003437296 0.026300976 -0.044302072 0.01858511
-0.0017162844 0.0052022706 0.016271302 -0.012883292 -0.017610988 0.008707607 -0.00068363873 0.011054213
-0.043526005 -0.011791899 0.045426358 0.016464408 0.01640786 0.012786286 -0.016208395 -0.00998161
-0.038051244 0.014605097 0.02010027 0.016218614 -0.02952462 -0.014463618 0.016057627 0.015478288
-0.001067087 -0.0109130135 -0.008476348 -0.03639134 0.018458676 -0.0055249296 -0.0027456528 -0.019840714
0.025101198 0.021632213 0.039446324 0.0022866526 -0.026016582 0.006491148 -0.035333488 0.0019179429

conv_layers.0.lin.weight f4 [256, 22]
00000000: 71e5 23be bb91 b1bd 06a8 e5bd f6b5 81bd
00000010: 9994 8ebd c0e6 3e3c c1f3 1ebe 8f3d 3ebe
00000020: 55bc 673d 3cfa c4bd 53b6 0bbe 1578 a8bc
00000030: 33cc ba3d ebc5 fb3d 94cc 3c3e df6f a28d
00000040: eb7a 98bd 797c babd f9b2 80be a365 0e3d
00000050: 92a8 313e c7df e63c bb02 0b3d af06 ca3c
00000060: b140 77bd f353 bdbd 388d 703d 7ab1 b7bd
00000070: 2cea 5fbe 1235 8bbe 56e8 e9bd 5466 3bbc
00000080: 12ea c1bd 8ea2 09bd fedd 273d 74d7 c23d
00000090: ccef c03d 51d5 830f 64f1 a0bd 5b96 56be
000000a0: ad0e 663d 906d 043e 464e 16be 5b69 4cbd
000000b0: b009 d5bd f7a1 bb3d 5468 09bd 13fc c2bd
000000c0: 6ae1 713c 711c e9bd 636e 6c3d 7d76 53be
000000d0: b07d b63c f36b cd3c 8e35 5c3e 9770 49be
000000e0: 7757 cabc bcd3 cc3c 0a2d 50be 319d 908a
000000f0: 59c4 723d cbaf 92be 7f32 3cbe d5f4 ffbd
00000100: c786 60bd 4eea 93bb c2cf 31be 25a7 a83c
00000110: 8efc 19be 8432 fb3d e555 c93d 2dbc d2bc
00000120: 262c 86bd abe9 973d 24b5 f0bd 0d6b afbe
00000130: 7421 d1bd 8107 4bbe f197 f73d 9d2d 1c3e
00000140: c7f7 6c3d 5811 5c8b 580d 503a d2dd b03e
00000150: 9bc9 d5bd db6d eebc ffed ed3c 70db 97bc
00000160: 9338 d7bc 4658 57bc 24d6 c6bb f16a 8a3d
00000170: 795e 04be 6018 833b 24d3 03be 1557 1abe
00000180: 285d 3dbc a81c 38bb 6d8f 9c3d a7b1 e1bd
00000190: b4dc ccbd d9d9 c73d a1a3 273e 3b7e 8d8a
000001a0: 428e 7b3d 9c93 9ebd 9a54 623e e0ee ddbd
000001b0: 71b2 5438 20e8 9f3d 8b44 25bd dbac 413d
000001c0: 2549 8dbb 97da 38be f1b3 3bbe df16 cab9
000001d0: e98c 2abe e5f7 2cbe 048c 373d 8623 62bc
000001e0: e7a1 293e 9d96 73be 80db f83d 73b0 ab3c
000001f0: 2378 08be cadd d308 4264 393e bb83 92bd
00000200: d841 23bd 9261 46bd 985c 90bd c457 06bd
00000210: c148 86bc 9cc6 97bd 1ef8 9b3d 7d80 a5bd
00000220: 807a a33d e6c7 053e 9118 983d 1649 f43c
00000230: 405e 993b f9c9 443d d265 8b3d 6abc 423d
00000240: ee93 e5bb 0baa 3a3e fba8 86bd 65f6 b30c
00000250: 638f d93d e03e bc3c 94c6 7b3e 59b5 9d3d
00000260: fd82 583a e7a6 94bd 6bb9 283e 732c f63d
00000270: 48d5 5bbe 360e 813d a119 12be a95d b7bc
00000280: fffc cd3b cda6 54be 3ad1 38be 87cb 663e
00000290: 3cec 85bd b577 ab3d 21c5 1dbe ac39 d93c
000002a0: a2bd 11bc a7c7 1889 7d90 34bd 4e29 803e
000002b0: 7828 a13c 7ee9 f23c 3711 04be 67c0 a83d
000002c0: b979 c73d 1dbe 28be 6b1d 843c cf46 d03b
000002d0: d308 1bbe b959 423d e6f8 2e3e d590 333d
000002e0: 76df 11be 2771 bfbc 4249 11bd b096 27bc
000002f0: 0bc9 03bb e590 8d3d 033b 133e e672 0307
00000300: a2d7 c43d 6f13 3e3e 2f25 60be ca96 933d
00000310: 5d10 ab3c f3f4 23be 6966 583e 3cdc 2bbd
00000320: 3e54 0ebe 2177 e23d 976d 403d 7dc1 e33d
00000330: 1242 17be f4dd 13be b9e6 1a3d 00c1 a7be
00000340: dfa8 953d 7925 2c3e 609f 86bd 7e23 42bd
00000350: 4c10 3ebd 02f1 3989 7422 55bd 5f1c 513c
00000360: a5b1 173d b5c8 1f3e cf3c 67be eb49 3b3d
00000370: ee96 893c 74ef fa3d f4bc 063e 2494 f33d
00000380: c3b8 4b3d 9f59 d53c 10c3 3cba 51df 5ebe
00000390: 24ec a8bd 190f bcbe d4b6 333e 05ec 98be
000003a0: 27a6 2a3e addf e9bd 628d 093e 32b1 ab89
000003b0: a7b6 28bd 533f 59be 92c3 093d e72e 123e
000003c0: e847 b6bd 2970 eabc dee3 f8bd e754 0fbd
000003d0: 69f4 8f3d e46a d53d f9e3 eabd 50e0 c2bc
000003e0: 40f8 abbc 1c34 043e aa61 35bd d447 64bd
000003f0: 8683 dabd b90b 87bd 67bd 193e 47c0 333e
-0.16005494 -0.08670374 -0.112136886 -0.063335344 -0.069619365 0.011651695 -0.15522672 -0.1857817
0.05657609 -0.09618041 -0.1364377 -0.020565072 0.09120979 0.12293609 0.18437415 -1.0010953e-30
-0.0744532 -0.091057725 -0.25136545 0.034764897 0.1734946 0.028182877 0.03393815 0.02466139
-0.06036443 -0.09244528 0.058728427 -0.08969398 -0.21866673 -0.27188927 -0.11421268 -0.011437971
-0.094684735 -0.03360229 0.040983193 0.09513751 0.094207376 1.2999764e-29 -0.078585416 -0.20955794
0.05616634 0.1293242 -0.14678296 -0.049905162 -0.10402238 0.09161752 -0.03354676 -0.095207356
0.014763216 -0.11382378 0.05772246 -0.20650668 0.02227673 0.025075888 0.21504804 -0.19671856
-0.02469991 0.025003307 -0.20329681 -1.3925824e-32 0.059269283 -0.28649744 -0.18378638 -0.1249787
-0.054816034 -0.0045140153 -0.1736441 0.020587513 -0.15037748 0.122654945 0.09830836 -0.025724495
-0.065513894 0.074176155 -0.117533 -0.3426136 -0.10211459 -0.19827081 0.120895274 0.15251775
0.057853486 -4.2383507e-32 0.00079365587 0.34544235 -0.10438844 -0.029105118 0.02904415 -0.018537253
-0.026272094 -0.013143605 -0.006068008 0.06758679 -0.12926663 0.0040007085 -0.12873513 -0.15072282
-0.011557855 -0.0028093252 0.07644544 -0.110202126 -0.10003033 0.09758348 0.16371013 -1.3625289e-32
0.061414964 -0.07742998 0.22102585 -0.108365774 5.0710925e-05 0.07807946 -0.04034857 0.04728399
-0.004311698 -0.18052135 -0.18330361 -0.00038545483 -0.16655315 -0.1689144 0.044811264 -0.013802415
0.16565667 -0.23787923 0.12151241 0.020958161 -0.13327079 1.2751243e-33 0.18104652 -0.07154032
-0.039857715 -0.048432894 -0.07048911 -0.032798544 -0.016392114 -0.074109286 0.07615684 -0.08081148
0.079823494 0.13064536 0.07426561 0.029820006 0.004680425 0.04804418 0.0680653 0.047542967
-0.00700616 0.18228929 -0.06575199 2.772761e-31 0.10623052 0.0229792 0.2458747 0.07700605
0.0008259265 -0.072583966 0.16476981 0.12020197 -0.21468079 0.06301539 -0.14267589 -0.022383528
0.006286263 -0.20766754 -0.18048564 0.22538577 -0.06539199 0.08372442 -0.1540723 0.026516758
-0.00889531 -1.839021e-33 -0.044083107 0.25031513 0.019672617 0.029652353 -0.12897192 0.08239823
0.09740014 -0.16478772 0.016127309 0.0063560973 -0.15140085 0.047448847 0.17087135 0.043839294
-0.142454 -0.023369385 -0.035470255 -0.010228798 -0.0020108845 0.06912402 0.1437798 9.88911e-35
0.09611441 0.18562101 -0.21889184 0.07206495 0.020881826 -0.1601141 0.21132816 -0.04195808
-0.13899323 0.11057878 0.046979513 0.11120889 -0.14771298 -0.14440137 0.03781769 -0.32764435
0.073076 0.1681117 -0.06573367 -0.04739713 -0.04640226 -2.2381886e-33 -0.05203481 0.012763112
0.03703465 0.15603907 -0.2258179 0.04572479 0.016795602 0.12252703 0.13158017 0.1189349
0.04973675 0.026043711 -0.00072006974 -0.21764876 -0.08248165 -0.3673027 0.17550212 -0.2986757
0.16664945 -0.11419616 0.1343284 -4.1333386e-33 -0.041189816 -0.21215563 0.033633776 0.14275704
-0.08900434 -0.028617935 -0.12152837 -0.03499308 0.070290394 0.104207784 -0.114692636 -0.023788601
-0.020992398 0.12910503 -0.044282593 -0.055732563 -0.10669617 -0.06594033 0.15013658 0.17553817

conv_layers.1.att_src f4 [1, 4, 64]
00000000: c603 033e f4d1 3fbe 493e 80be 69f6 853e
00000010: ea8d 23bd 366f 693c 706d b2bd 6d35 7bbc
00000020: 385f 05be 39b7 14be 2c62 28be d139 d53d
00000030: 60be 9ebb 7f59 a73e 924a 8b3e 16d0 efbd
00000040: abff 2ebd 80b5 96be 2177 853e e340 98be
00000050: c603 f03d db52 243e 99ca cd3d 88d5 493e
00000060: f109 9c3e 3a96 343b 7321 cdbb 22a6 3b3e
00000070: 5a9f 7dbe 4ff8 dc3d 5f07 a53e ac12 303e
00000080: b2f4 86be 48f1 b1bd 6ed5 273e 6afd 0abe
00000090: ee9f 423e bc6f 943c 2cf9 353d 6fab 903c
000000a0: f651 efbd 5dc1 9f3d a79c 773e 245e 4fbe
000000b0: 9e3e d53d 6787 173e 2707 7a3e 0b99 71be
000000c0: 4970 bb3e 06b5 67bd 9e6e 7a3e 9411 ac3e
000000d0: 97a8 2d3e 0fc1 8bbe 6a31 8b3e c21b e53d
000000e0: d0c6 86bc 1e81 413e a51a a83d a6ef 943d
000000f0: 5c37 213d bbec 5f3e 04eb c13e 39ac c83c
00000100: 2731 69ba 6dec 93be 8554 c83d 601c c83d
00000110: 8135 1abd aea6 05be 8e0a 813e d091 d9bd
00000120: 4270 97be 1008 2fbe a98a 663e b8c0 833d
00000130: 0ff2 b93d d21c 55be a8f3 883e cc6b c33d
00000140: b056 833e 9950 6cbe ead4 04bd b900 85bd
00000150: faed 563e 7b76 07be 7af5 df3d 6098 a7bd
00000160: 344a 083d 81f1 c0be 6d97 893e 3aa1 d13d
00000170: 4d61 ed3d 05b6 923d f8e4 0e3e a31d 88be
00000180: 655e 883e a9a8 bebe bbe4 263e b3b7 cb3d
00000190: e075 99be e29b 6bbd 358d 59be 3500 843c
000001a0: 0739 10be a3c3 853d bcd2 94be 62b2 613e
000001b0: 2169 d13d 3629 ed3d 4243 0c3e 8e76 843e
000001c0: 760d 883d 1e6c 833e 0378 9a3e b212 b6be
000001d0: d2fd aeba 20ec 2dbe 67a6 c43d 60d0 b0bc
000001e0: 9c57 dabe 585a 373e 5373 eb3d 149e c3be
000001f0: 3085 51bd 9daa 693e fc94 72bd a9e2 14be
00000200: c80e 80be 5614 73be d432 f23d 90b7 553e
00000210: 9cb9 07be eed0 9b3e edbd 8fbe b767 483c
00000220: 03ce c3ba dc15 55be 2191 8fbe 7c8a d03d
00000230: d192 9dbd 60c8 52be fd7c 1cbd e01e 733e
00000240: c3ff 5a3e ed9d 8d3e 60db 7cbd 7459 4dbe
00000250: dea4 6fbe adba ef3d eae6 703e 19ce 963e
00000260: 84d1 673d b5b6 2dbe ff8b 79bd e8c4 f63d
00000270: a637 193c 1c1c a43e 1c1b e4bd 1f12 e5be
00000280: 5f65 5b3e 4547 843c eb02 06bd d699 303e
00000290: 297d 8abe bcba 7e3e 806f 67bd 21a0 0ebe
000002a0: 9b42 97be 9c07 22be 9ac3 88be 6926 b03e
000002b0: 4418 4d3e d0ac a2bd 6b7e 38be f5b3 8abe
000002c0: 8c8a 943e e895 383d c303 74be 3d2b 8ebe
000002d0: 560c 673e cd0c 053e 3601 40be f255 1e3e
000002e0: 42ad e43b 1cc5 c0be f2e9 983e 82aa c9bd
000002f0: 98fc 153e 7634 a23e 8bdd 95be e3dd afbb
00000300: 5e12 21be 92dc 77be be03 23be d151 333e
00000310: cc02 b33b 0a66 be3c 57af 2c3d 6df4 e7bd
00000320: 365f 183e 665d 79be 70c7 9cbe ed71 72be
00000330: d186 6dbe f02f 3ebe ed56 3e3e e600 ec3d
00000340: 626d a83d f4b9 fc3d c20c 793c 806a 963e
00000350: a301 00bb b78f 9d3e 4fea bebd 9f33 3e3e
00000360: 8e01 e13d 20f8 a9be 868d a53d 7e57 bcbd
00000370: 6588 243e 2a1a 8b3d c35c 893e 9a69 89be
00000380: f220 95be a1e2 ea3d 8b71 91be 9250 34be
00000390: 940a ca3e 2780 2fbe 1cc6 2e3e 6c98 96be
000003a0: 5c67 dfbd 51fe 2c3d 8d84 dabd e4c6 1a3e
000003b0: b449 87be 0675 46be ab94 133e 6707 933c
000003c0: b810 9d3d bca7 373d c6a7 313e 93a9 19be
000003d0: 1ede a83d f25a 2e3e bc08 57be 4c3d 113e
000003e0: bbd6 623e bcbd 883e 5c60 20be d888 8dbe
000003f0: 8593 193e 06c6 e43d 6ec6 e83d 0a87 81bc
0.12794408 -0.18732435 -0.2504752 0.2616456 -0.03993026 0.014247706 -0.0871228 -0.015332562
-0.13024604 -0.14523019 -0.164437 0.10411418 -0.004844472 0.32685468 0.2720533 -0.11709611
-0.042724293 -0.2943535 0.2606745 -0.29737005 0.1171947 0.16047232 0.10048408 0.19710362
0.30476335 0.0027555362 -0.006260091 0.18325093 -0.24767819 0.107895486 0.32232186 0.17194623
-0.26358563 -0.08688599 0.1639001 -0.13573232 0.19006321 0.018119685 0.044427082 0.01765987
-0.11685555 0.07800553 0.24180852 -0.20250756 0.10412334 0.14797746 0.24416791 -0.23593538
0.36609104 -0.05656912 0.2445626 0.3360716 0.16958843 -0.2729573 0.27186137 0.11186935
-0.016452223 0.1889691 0.08208207 0.07272272 0.039359435 0.2186765 0.37874615 0.024496185
-0.0008895569 -0.28891316 0.09781746 0.09771037 -0.03764868 -0.13051865 0.25203365 -0.10623515
-0.29577833 -0.1709292 0.22513832 0.064332426 0.09079372 -0.20811775 0.26748395 0.09542045
0.25652075 -0.2307762 -0.032429613 -0.064942785 0.20989218 -0.1322879 0.10935493 -0.0818336
0.03327389 -0.37684253 0.2687334 0.1023583 0.11590824 0.07163624 0.13954532 -0.2658511
0.26634517 -0.37238052 0.16298191 0.09947147 -0.29972744 -0.05752171 -0.21245272 0.01611338
-0.14084254 0.06531455 -0.29067028 0.22040704 0.1022513 0.11580126 0.13697532 0.258717
0.066431925 0.25668424 0.30169687 -0.35561138 -0.0013350791 -0.16984606 0.09602051 -0.021583736
-0.42644966 0.17905557 0.11496606 -0.38206542 -0.051152408 0.2281899 -0.059224114 -0.14539589
-0.25011277 -0.23738226 0.11826101 0.20870805 -0.13254398 0.30432838 -0.2807459 0.012231759
-0.0014938716 -0.2080912 -0.28040412 0.10182664 -0.07694019 -0.2058425 -0.038205136 0.23742247
0.21386628 0.2765955 -0.06173265 -0.20053655 -0.23402736 0.117055275 0.23525587 0.29454115
0.056596294 -0.16964228 -0.060924526 0.12049276 0.0093516465 0.32052696 -0.11137983 -0.44740388
0.21425389 0.016147265 -0.032717627 0.17246184 -0.27048615 0.24875921 -0.05650282 -0.13928272
-0.29543003 -0.15823215 -0.26711732 0.34404305 0.20028788 -0.079431176 -0.18016975 -0.2709042
0.29011953 0.045064837 -0.2382956 -0.27767363 0.225633 0.12993164 -0.18750462 0.15462473
0.0069786618 -0.37650383 0.29865986 -0.09846975 0.14647138 0.3168065 -0.29270586 -0.005367027
-0.15729663 -0.24205235 -0.15919396 0.17511679 0.00546298 0.023242015 0.042159405 -0.113259174
0.1488007 -0.24352035 -0.3062091 -0.23676272 -0.2319596 -0.18572974 0.18587847 0.11523609
0.08223988 0.12340155 0.015200796 0.29378128 -0.0019532226 0.30773708 -0.093220346 0.1857438
0.10986625 -0.33197117 0.08083634 -0.09196375 0.16067655 0.067921 0.26828584 -0.2683838
-0.29126698 0.11469007 -0.2840694 -0.1760886 0.39461195 -0.1713873 0.1706776 -0.29413164
-0.10908386 0.042234723 -0.10669813 0.15114933 -0.2642342 -0.19380578 0.14412181 0.017947866
0.076692045 0.0448377 0.17349157 -0.15006094 0.082454905 0.1702688 -0.20999426 0.14183539
0.22152226 0.26707256 -0.15661758 -0.27643466 0.1499768 0.111705825 0.113659725 -0.015811462

conv_layers.1.att_dst f4 [1, 4, 64]
00000000: 5265 16be 4194 013e a7a0 6fbe e58a 72be
00000010: 644a 4fbe 712f 84be 0c88 083e debc 293e
00000020: 130a cb3d c9c8 053e 9dbe 8abe af3c e0bd
00000030: 96ae a63d d2bf 8a3e d6e4 efbd b33b 123e
00000040: be9b c63d b983 a6be bb8e 683e 2d23 d0bd
00000050: 8256 2f3e 80b8 83be bac9 e73c 38a3 ad3d
00000060: 05f2 fd3d f808 243e ccb9 a4bc 88c7 663e
00000070: 6be7 9abd 97aa 233c 07a3 0abe 28de f53c
00000080: 41e5 18be 8bf6 873d db53 d1bd 3f4a 453d
00000090: af4b 4b3e bd57 e23d 26aa 5e3e 85a3 f93d
000000a0: 8dbd a73d b74d 953d dd06 333e 22ea 12bd
000000b0: 965c 31bd fe2f 173e 92c6 663e 9ff5 efbc
000000c0: d15c c03d 23b5 4a3d aec5 323e 4f6e 973e
000000d0: d762 a2be 69c3 113e 1670 7b3e c4ac 1ebc
000000e0: b0a3 fa3d 1721 37be 69d2 ba3d 8326 43be
000000f0: b557 a93d 697b 6bbe 71ec 993e 9651 52be
00000100: ac4a 953d d6aa 153e cd34 703e c7c2 c9be
00000110: 6885 9fbc 80ef afbd e223 94be a502 6cbe
00000120: 1245 ddbd 8636 4c3e 838e 76be 6cf3 653e
00000130: ab35 15be 70b2 b8bd ba56 243e ec97 03bd
00000140: 9bdb 20be e6aa b4be c92d 95bb 60ba 4a3e
00000150: 8b08 b63c 81ef 063e 3fee fa3c ffbc d6bd
00000160: 1eae a43e 92cd 1c3e 0bb7 b43d eb05 5ebe
00000170: 6f9f 1fbd 53b2 16be 330a bdbe cf29 76be
00000180: 1ede 43bd 72a4 b5be 0b28 fe3d d5d4 89bd
00000190: 1bd1 463e a222 5dbc f64c b23e 31b6 6ebe
000001a0: 2d5b 8fbe 1ced 663e e84c 1ebe 6435 78be
000001b0: cb95 ed3c 6750 a2be 833e 38bc a9c6 b7bc
000001c0: 61d8 a03e 312f 0abe 0053 38bd 9601 20be
000001d0: 84c4 dbbd a622 cc3d 5ea8 2dbe f5a1 a63e
000001e0: eeaa 9e3d 998b 5c3e 6f48 1e3e 920b 0b3c
000001f0: b498 823e da56 313e 6169 5b3e f914 48be
00000200: 757d 803e 5877 88be 01ce 5bbe c4bb 793e
00000210: 7719 53be f496 2dbe a879 983e 4264 593e
00000220: 5b54 17bc 0ebc 94bd 66b2 4fbe c190 0dbe
00000230: fd0e ac3c e5ed f5bd 1727 643e d76e 083c
00000240: 9a70 01be 5d24 6d3e 97d0 b0bd 4bf2 4a3e
00000250: a524 963d d3b3 f1bd 87aa aebd a1e7 773e
00000260: a9de b6be 1f64 2e3d f568 84be 7e2f 2d3e
00000270: 25b2 20be 950e 56bd 5452 9c3d 9f3d 96be
00000280: 2f2a c5bc 5abf 9b3d 939c 63be 4c5e 75bd
00000290: be7c f23d aaf4 95be 7a32 81bd c9a6 acbd
000002a0: 723b bcbc f65d b43e de83 6b3d 99b9 9bbd
000002b0: 17b2 643e 1d3d 72be 50cb 8abe 2079 98be
000002c0: 6a73 05be 982a 2cbe 6733 6abe 8a1c 303e
000002d0: f140 3a3d 711c 65bd d436 40be 8d28 91be
000002e0: f0ff 9dbe 0db0 1fbe f491 8d3e 2b50 6f3d
000002f0: 4308 483c b6ae d73a 511a 0f3e 1dbc 203e
00000300: 0bb7 d53d 5439 803d 2af1 93be c0ee 92be
00000310: 6709 6d3e 2220 963e 37d2 96be 2281 46bd
00000320: 0565 0bbe 4ca6 553d 7aa9 213e 45a6 8abe
00000330: 430b 533e ec2c 5cbe 788f 38be 5756 c1bd
00000340: 69a4 f63d c582 bb3e 3d03 a93e c875 34be
00000350: 7e83 d13c 0d75 90bc e3ee c63e 5ba2 ff3e
00000360: 9a52 1d3e ebd9 4ebe 7c48 0ebe 7cae 2cbe
00000370: 95f5 803e a7da 2cbc 67a5 b9bd 3fce ae3d
00000380: 552e 813d 6c69 efbd 2fe1 1b3d 7090 cc3d
00000390: 82e1 cc3d 60b1 e8bd 050c 503e 518c b5bd
000003a0: d3ea 6e3e e907 853e 6fc2 093e af73 2c3e
000003b0: cba6 11be c4d7 9d3e ddf2 cabd 57ea 88bc
000003c0: 1368 dd3e 4d9c 5f3e 84e1 d83c 6af7 9e3d
000003d0: c883 a83d fecc b9bc 12b9 0fbe d954 043e
000003e0: 05e6 d93d 37e1 0e3e 5f3a 943e 9d3b f73d
000003f0: 4a70 5ebd 3b42 263e 2751 9bbd 7039 f9bd
-0.14687088 0.1265421 -0.23401128 -0.23685797 -0.20243222 -0.25817445 0.13333148 0.16575953
0.09914031 0.13064875 -0.2709855 -0.109490745 0.081387684 0.27099472 -0.11713569 0.14280586
0.09697674 -0.3252237 0.22710697 -0.10162959 0.17122844 -0.257267 0.028294433 0.08478397
0.12399677 0.16019046 -0.020108126 0.22537053 -0.07563671 0.009989402 -0.13538752 0.030013159
-0.14931203 0.06638821 -0.10221072 0.04816651 0.1985309 0.11051891 0.21744594 0.12189392
0.08190451 0.072902136 0.17483087 -0.035867818 -0.043301187 0.14764401 0.22536686 -0.029291926
0.09392703 0.04948915 0.17458221 0.29576346 -0.31716034 0.142347 0.24554476 -0.009684745
0.12238252 -0.17883717 0.09122164 -0.1905766 0.08268682 -0.22996296 0.30063203 -0.20538935
0.07289633 0.1461595 0.23457642 -0.39406416 -0.019472793 -0.08590603 -0.28933626 -0.23047884
-0.1080419 0.19942674 -0.24077801 0.2245614 -0.14571254 -0.09018409 0.16048709 -0.032127306
-0.15708773 -0.35286635 -0.004552577 0.19797659 0.02222087 0.13177301 0.030631183 -0.10485267
0.3216409 0.15312794 0.08823975 -0.21681945 -0.038970407 -0.14716463 -0.36921844 -0.24039386
-0.04781925 -0.35477024 0.12409981 -0.067300476 0.19415705 -0.013497027 0.34824342 -0.23311688
-0.2799925 0.22551388 -0.15459025 -0.24239117 0.02900209 -0.31701967 -0.011245373 -0.022433596
0.31415084 -0.13494565 -0.04500103 -0.15625605 -0.10730842 0.09967546 -0.16958758 0.32545438
0.07747446 0.21537627 0.15457319 0.008486645 0.25507128 0.17318287 0.21426918 -0.1953925
0.25095716 -0.26653552 -0.21465303 0.24388033 -0.20615183 -0.16952115 0.29780316 0.21229652
-0.0092364205 -0.07262431 -0.20282897 -0.1382475 0.02100324 -0.120082654 0.22280537 0.0083272075
-0.1264061 0.23158403 -0.08633535 0.1981899 0.07331208 -0.11801877 -0.08528619 0.24209453
-0.3571675 0.04257595 -0.25861326 0.16912648 -0.15692957 -0.05226 0.0763289 -0.29343888
-0.024067966 0.07604857 -0.22227697 -0.05990438 0.11840199 -0.29288226 -0.06308456 -0.08430249
-0.022977564 0.35227937 0.057498805 -0.07603759 0.22333561 -0.23656125 -0.2710824 -0.2977991
-0.13032308 -0.16813123 -0.22871171 0.17198387 0.04547209 -0.055935327 -0.18770915 -0.2835125
-0.30859327 -0.15594502 0.27650416 0.058426064 0.012209001 0.0016455266 0.13974883 0.1569676
0.10435303 0.062609345 -0.2889493 -0.28697777 0.23148118 0.2932139 -0.29457256 -0.048462994
-0.13612755 0.052160546 0.15787306 -0.2707998 0.20609765 -0.21501511 -0.18023479 -0.09440296
0.120430775 0.36623207 0.33010283 -0.17623055 0.025575396 -0.01763394 0.3885413 0.49928555
0.15363541 -0.20200317 -0.13894838 -0.16863436 0.25187364 -0.010550178 -0.09064751 0.08535432
0.06307665 -0.116900295 0.03805655 0.09988487 0.1000395 -0.113619566 0.20317085 -0.08864654
0.23331766 0.25982597 0.13453077 0.16841005 -0.14223783 0.3082868 -0.09909604 -0.016713304
0.43243465 0.21836968 0.026474722 0.07762034 0.0822826 -0.022680756 -0.14035442 0.12922992
0.10639576 0.139531 0.28950784 0.12071917 -0.054306306 0.16236202 -0.07583838 -0.121691585

conv_layers.1.bias f4 [256]
00000000: 225e 3539 8ace 8439 b9c3 40b8 8f64 32b9
00000010: 2233 3839 e6ca 92b8 c869 59b8 cc4b 9838
00000020: 7024 d8b9 7fd1 2db9 293d 4437 7fe7 5239
00000030: 8a3c 05b8 1184 1bb9 9d5f 1739 adbe 44b9
00000040: 6861 94b8 ed94 41b9 c1e6 c6b9 6cd2 18b8
00000050: 4a93 9239 fa7d 0239 538c 25b9 fd8e f637
00000060: f7e1 d538 544c f238 7cfa 3cb5 5f2a 16b9
00000070: 65e1 e339 74d1 0139 eaf0 00b8 743b 07b8
00000080: 21cb edb8 50dd 013a 8554 ab39 b336 86b8
00000090: de17 ffb8 e1b8 83b9 45f4 12b9 23c5 8339
000000a0: 4d27 5939 d4c0 7439 a5db cab7 891b 6138
000000b0: 9504 a838 218c fc39 3b6f 0f37 0504 0b39
000000c0: ab24 1bb9 5fc0 1d38 8e9c 3439 c07d 0e38
000000d0: 1829 6e38 cb30 d739 318f 22ba ba28 5bb9
000000e0: 9167 4938 d519 ed38 07f3 a2b8 e8aa 1c37
000000f0: 537f 90b9 83d3 bc38 7f32 a7b8 4b85 8539
00000100: 3a67 82b8 6fc9 94b8 62a4 7938 ad36 1bb8
00000110: fe87 5239 5edc b8b9 980b 3c37 7d87 42b9
00000120: 92a1 36b8 7bbb 46b8 8b63 b638 93d6 e1b7
00000130: 0fdc b138 6865 66b6 556f 0db9 1dd7 3739
00000140: 5a85 68b9 7145 4539 06f1 b2b7 c031 b538
00000150: ce0e b6b8 1d01 9539 6e64 9ab7 92fe c2b7
00000160: 757e d038 8ba7 b7b8 b5a2 ba37 82e6 3537
00000170: b172 80b9 2216 bfb9 ae2e 5538 e4e4 193a
00000180: 36e3 be38 d45a 95b8 209c 56b9 844d 72b8
00000190: df63 f8b8 f8af 0eb8 2c35 4637 4b84 97b9
000001a0: 777f 913a 76ff 3039 4db7 40b9 c435 f4b8
000001b0: 424b 1639 020a 3139 ad64 b9b7 9675 2235
000001c0: b266 35b8 5353 4b39 b613 76b7 473b fc37
000001d0: 8d23 4cb7 0fe5 4ab9 e444 9137 2ea4 25b8
000001e0: 5f78 ac37 bf88 57b9 9edf 07b9 30b7 9a39
000001f0: ee5e c2b8 6e80 c9b8 f4c7 6e39 4e39 fb38
00000200: be2e 9cb8 2986 e638 51c6 b8b9 1aaa 4138
00000210: 33c4 76b7 808e 3bb9 cf48 3539 825a 15b7
00000220: 6241 0db9 236a 3fb9 a0d8 27b9 0f29 f6b6
00000230: a0ef be36 6a43 7a39 923a 4938 170e 43b8
00000240: 5ede 08b9 c8f3 f2b7 34fa c8b3 ed77 f137
00000250: f2e3 3ab6 d156 bbb7 1e2a 1eba 5fa1 d2b9
00000260: 7173 c638 8c8a 8a38 3fa7 ebb8 b634 c5b8
00000270: f444 b3b7 642b 9cb7 bd8e 06b9 288e 8838
00000280: 024b 85b8 44ee 5039 c99f 01b9 d0eb 1139
00000290: 2e27 7db9 f42d 0e38 267a ea38 d08b d537
000002a0: f758 c039 05d0 4d38 f841 e538 0811 17b8
000002b0: ffc0 b937 7a5b 35b8 d482 02b8 3725 e738
000002c0: d5b1 5f39 fe64 1e39 e314 b538 544b 8438
000002d0: 2419 2339 265c 3438 b097 db38 87f2 72b8
000002e0: 42a2 57b9 7477 2eb8 fb33 77b8 1a87 6639
000002f0: 8b44 cb39 3d9f 82b9 b7bc 9eb8 acfb f739
00000300: 1e15 2738 4016 91b7 03a7 3639 cbea b938
00000310: 7a66 8839 40a3 3039 338c 78b6 83c3 d739
00000320: 3c67 4139 fea2 d8b8 a4b1 0739 fcfe b538
00000330: 90a5 a7b9 d330 4e38 5ac5 05b9 d5e6 a6b9
00000340: a1bb 1eb8 6da8 a638 89d1 3e39 cb12 d3b8
00000350: 8152 a837 3309 87b9 6dd2 1db8 843e 4c39
00000360: f784 c4b8 ffbd f939 0e48 1ab9 c071 0639
00000370: 000c 8eb9 4db1 12b8 1a02 bdb8 dcb9 a4b9
00000380: 1bff d9b8 46b5 b4b8 c69d 3138 ed95 8939
00000390: 9ffe f9b7 a3b1 9d38 5889 d8b8 9935 c235
000003a0: e448 12b9 dd52 f438 2cad dbb8 2e65 1936
000003b0: f32a 2db8 589f 1739 6dd3 91b8 f26f 4b39
000003c0: 803d 54b8 e6c8 25b8 ded3 f7b8 97a0 9238
000003d0: 91e7 26b9 3ec9 6638 f8c5 2e38 d2d3 65b9
000003e0: dcc7 1939 efe8 1a39 3b31 ea39 e608 e8b7
000003f0: f782 68b8 27a7 afb9 0a8c d3b8 2e80 e938
0.00017296572 0.00025330886 -4.5958648e-05 -0.00017012864 0.00017566656 -6.999615e-05 -5.1835348e-05 7.262043e-05
-0.00041225879 -0.00016576609 1.169675e-05 0.000201134 -3.1766052e-05 -0.0001483115 0.00014436101 -0.00018763049
-7.075333e-05 -0.00018461393 -0.00037937428 -3.6435595e-05 0.0002795703 0.00012444696 -0.00015787901 2.939207e-05
0.00010198721 0.000115536764 -7.039996e-07 -0.00014320899 0.00043464746 0.00012380426 -3.0741947e-05 -3.224188e-05
-0.00011338876 0.00049539376 0.00032678634 -6.3998064e-05 -0.00012163793 -0.00025124013 -0.00014014643 0.00025133145
0.00020709373 0.00023341487 -2.4182556e-05 5.3669824e-05 8.011718e-05 0.0004816959 8.549362e-06 0.0001325757
-0.00014795612 3.7610876e-05 0.00017224459 3.3972552e-05 5.6781893e-05 0.0004104435 -0.0006201147 -0.0002090064
4.8018588e-05 0.00011305852 -7.770029e-05 9.338117e-06 -0.00027560684 9.003936e-05 -7.972586e-05 0.00025467048
-6.2181105e-05 -7.09471e-05 5.951932e-05 -3.70058e-05 0.00020077822 -0.000352594 1.1208373e-05 -0.00018551755
-4.3542655e-05 -4.7381483e-05 8.6969776e-05 -2.6922009e-05 8.481007e-05 -3.4331697e-06 -0.00013488282 0.00017532376
-0.00022174921 0.00018813253 -2.1331489e-05 8.640019e-05 -8.681194e-05 0.00028420324 -1.8404997e-05 -2.3245146e-05
9.941767e-05 -8.757327e-05 2.2248694e-05 1.084211e-05 -0.00024499514 -0.0003644685 5.082663e-05 0.0005870594
9.102227e-05 -7.121792e-05 -0.00020466791 -5.776949e-05 -0.00011844164 -3.4019322e-05 1.18141e-05 -0.0002889953
0.001110061 0.00016879835 -0.00018378832 -0.00011644841 0.0001433315 0.00016883764 -2.21006e-05 6.0520813e-07
-4.3249405e-05 0.0001939063 -1.4667332e-05 3.0068344e-05 -1.2167625e-05 -0.00019349552 1.7317427e-05 -3.949197e-05
2.056005e-05 -0.0002055494 -0.00012957907 0.00029509654 -9.268323e-05 -9.608349e-05 0.00022771937 0.000119792865
-7.447366e-05 0.00010992244 -0.00035242972 4.6173205e-05 -1.4708424e-05 -0.00017886795 0.00017288628 -8.902165e-06
-0.00013471165 -0.00018254718 -0.0001600706 -7.336151e-06 5.6903373e-06 0.00023866972 4.7976682e-05 -4.6504745e-05
-0.00013052809 -2.8962168e-05 -9.3587374e-08 2.8785284e-05 -2.7848841e-06 -2.2332564e-05 -0.00060334976 -0.00040174552
9.4628784e-05 6.606159e-05 -0.00011236825 -9.40351e-05 -2.1370572e-05 -1.8616855e-05 -0.0001283241 6.511464e-05
-6.3559055e-05 0.00019925187 -0.00012361923 0.00013916125 -0.00024142556 3.3898235e-05 0.000111807414 2.5456684e-05
0.00036687378 4.9069542e-05 0.000109318586 -3.6017067e-05 2.214359e-05 -4.3238957e-05 -3.111626e-05 0.0001102187
0.00021333185 0.00015105677 8.634643e-05 6.3082814e-05 0.00015554257 4.3001164e-05 0.00010470988 -5.7923167e-05
-0.00020564444 -4.1596082e-05 -5.89378e-05 0.00021984839 0.00038770246 -0.00024914174 -7.569178e-05 0.0004729902
3.983557e-05 -1.7295708e-05 0.00017419089 8.865221e-05 0.00026016292 0.00016845483 -3.7036486e-06 0.00041153663
0.00018444372 -0.00010330042 0.0001294078 8.678247e-05 -0.00031976076 4.91597e-05 -0.00012757388 -0.0003183397
-3.784488e-05 7.9468686e-05 0.0001819787 -0.000100647645 2.006558e-05 -0.0002575606 -3.762769e-05 0.00019478245
-9.370775e-05 0.0004763454 -0.00014713427 0.00012821611 -0.0002709329 -3.4974237e-05 -9.012614e-05 -0.00031418994
-0.000103948834 -8.616834e-05 4.2347026e-05 0.0002624238 -2.980168e-05 7.519431e-05 -0.00010325265 1.4469725e-06
-0.00013950799 0.00011650261 -0.000104749895 2.285767e-06 -4.1286414e-05 0.00014459842 -6.95352e-05 0.00019401292
-5.0602015e-05 -3.9526167e-05 -0.00011817341 6.991735e-05 -0.00015917259 5.5023695e-05 4.1669206e-05 -0.00021918051
0.0001466567 0.00014773359 0.00044668638 -2.7660699e-05 -5.543508e-05 -0.0003350314 -0.00010087348 0.00011134181
